model/lstm_petra.pth (torch, 208892 bytes, 13 tensors)

lstm.weight_ih_l0 f4 [200, 1]
0	0xbe8b740f	-0.27236983
1	0x3e7245e4	0.23659474
2	0x3da1c4c0	0.07898855
3	0xbe9d43ac	-0.30715692
4	0xbe3fd904	-0.18735129
5	0xbe17d11b	-0.14825861
6	0xbbed8bb3	-0.0072493195
7	0x3dd11f7a	0.10211082
8	0x3d35e778	0.0444102
9	0xbe75820f	-0.23975395
10	0x3e7aa928	0.2447859
11	0x3d6af2d7	0.057360496
12	0x3cdedc83	0.027204758
13	0x3d7852a6	0.060625695
14	0x3ccb84e7	0.024843646
15	0xbe341f1e	-0.17589995
16	0xbccd5d6e	-0.025068965
17	0xbece9e96	-0.40355366
18	0xbd8e0c52	-0.06935944
19	0x3bd7c497	0.0065847146
20	0x3d96e337	0.073675565
21	0x3ead338c	0.3382839
22	0xbe35cb1e	-0.17753264
23	0x3e8c3a0a	0.2738803
24	0x3e1da4cd	0.15394898
25	0xbea0b305	-0.3138658
26	0x3e88a9b8	0.26691985
27	0xbe04fdb3	-0.12987404
28	0xbe880806	-0.2656862
29	0xbdffbf51	-0.124876626
30	0xbe123c36	-0.14280781
31	0x3d4167b3	0.047218036
32	0xbd0decc6	-0.034649633
33	0x3c3db6ff	0.011579274
34	0x3cd442d7	0.025910778
35	0xbd8c8596	-0.06861417
36	0xbd2e0541	-0.04248548
37	0x3ce8c16f	0.028412549
38	0xbe1851be	-0.14874932
39	0x3e7c1e38	0.24620903
40	0xbe941c79	-0.28927973
41	0xbec09762	-0.37615496
42	0xbe303c59	-0.17210521
43	0xbe7f729e	-0.24946067
44	0xbda5d70d	-0.08097658
45	0x3ce659a9	0.028118925
46	0x3d97a134	0.07403794
47	0xbd90bd05	-0.070673026
48	0x3dd1f12b	0.10251077
49	0xbe640129	-0.22266068
50	0xbe12f4b9	-0.14351167
51	0x3e755fb7	0.23962294
52	0x3ebaf11b	0.36512074
53	0x3cd39b70	0.025830954
54	0x3ebcf00c	0.3690189
55	0x3e8bfd99	0.27341917
56	0x3d95cdbd	0.07314632
57	0x3e6edd0e	0.23326513
58	0x3cd7a973	0.026325917
59	0x3db46669	0.08808596
60	0x3dafda3a	0.08586545
61	0x3e175adf	0.14780758
62	0x3d2c4a8c	0.04206328
63	0x3d951988	0.0728026
64	0x3d20e051	0.039276425
65	0xbd35be09	-0.044370685
66	0xbe2e8419	-0.17042579
67	0xbe1a6581	-0.15077783
68	0xbcce3869	-0.025173383
69	0x3e282c4b	0.16423146
70	0xbb72b44f	-0.0037033742
71	0x3f12f632	0.57406914
72	0x3e3158c2	0.17319015
73	0x3eb25648	0.34831452
74	0xba917158	-0.0011096401
75	0xbcf139e6	-0.029446553
76	0x3e8d7c2e	0.27633804
77	0x3dda6fc7	0.10665851
78	0x3e0b0393	0.13575582
79	0xbe6a7cd0	-0.22899175
80	0xbdcbbb17	-0.09947794
81	0x3eb5e261	0.35524276
82	0xbe174ee9	-0.14776196
83	0x3ea56559	0.32303885
84	0x3e2f2166	0.17102584
85	0xbe049b0a	-0.12949768
86	0xbcaf3d2a	-0.02139147
87	0x3e9842a5	0.29738346
88	0x3e8d1fc0	0.27563286
89	0x3eac5e07	0.33665487
90	0x3cd863fa	0.02641486
91	0x3d0b2825	0.03397383
92	0xbe4860e8	-0.19568217
93	0x3e0f042d	0.13966437
94	0x3d9dc7ea	0.07704146
95	0x3e2e3a59	0.17014445
96	0x3ec9431d	0.39309016
97	0x3bb265a8	0.0054442473
98	0x3e1e1a3d	0.15439697
99	0xbdd88ff1	-0.1057433
100	0xbe8ebb01	-0.27877048
101	0xbe7bfa5e	-0.24607226
102	0x3e160b35	0.14652713
103	0xbe91476d	-0.28374806
104	0xbeb33d05	-0.35007492
105	0x3e490fac	0.19634885
106	0x3e83c7f4	0.2573849
107	0xbe4713b4	-0.1944111
108	0x3ec7405e	0.38916296
109	0x3e95813b	0.29200158
110	0xbf280f8a	-0.6564871
111	0xbe6465c4	-0.22304446
112	0x3ebf8934	0.37409365
113	0x3e74152f	0.23836206
114	0x3e2d9ba4	0.16953903
115	0x3e6ed4ae	0.23323318
116	0xbe386063	-0.18005519
117	0xbe8ff1d4	-0.28114188
118	0x3e68975b	0.22713988
119	0xbdc8ebc4	-0.09810594
120	0x3d1d4c8b	0.038403075
121	0x3ea418e7	0.3205025
122	0x3ed820b8	0.42212462
123	0xbf313330	-0.6921873
124	0xbe0b18d3	-0.13583688
125	0xbe9d7394	-0.30752242
126	0xbf14fcf8	-0.581985
127	0xbeb2d77c	-0.34930027
128	0x3e647447	0.22309981
129	0xbe31a834	-0.1734932
130	0x3de57253	0.11203446
131	0xbe9dd13f	-0.30823705
132	0xbc83f27d	-0.016106838
133	0xbf4f9edd	-0.8110178
134	0xbe3e9b2e	-0.18613884
135	0xbe59e06b	-0.21277015
136	0x3eabca59	0.33552817
137	0xbef6dcce	-0.48215336
138	0xbea41404	-0.3204652
139	0xbe2a96c9	-0.16659082
140	0x3ea55bec	0.32296693
141	0x3f0cd4f4	0.5501244
142	0xbe0d26bc	-0.13784307
143	0x3e56f8f0	0.209934
144	0xbe9fdef2	-0.3122478
145	0x3e779d47	0.2418109
146	0x3ee701db	0.45118603
147	0x3e81efb6	0.25378197
148	0x3f1d4c14	0.6144421
149	0x3e965769	0.29363564
150	0xbdb616f9	-0.088911004
151	0x3edf7866	0.43646544
152	0x3ee8afc8	0.4544661
153	0xbea39da9	-0.31956223
154	0xbde3cc12	-0.11122908
155	0x3e3e8333	0.18604736
156	0x3a9349b9	0.0011237181
157	0xbdf7f4db	-0.12107249
158	0x3d942f73	0.07235613
159	0xbe14dcef	-0.14537404
160	0x3a22a0c8	0.0006203768
161	0x3e157542	0.14595512
162	0x3d236c5f	0.039898273
163	0x3ded8ef6	0.11599533
164	0x3d914bda	0.07094546
165	0xbe1d3db1	-0.15355565
166	0x3d0892c3	0.033343088
167	0xbe8f6433	-0.28006133
168	0xbe17a2e6	-0.14808235
169	0xbe2c5296	-0.16828379
170	0xbd9ec374	-0.077521235
171	0x3f043d1b	0.5165574
172	0xbe2c14bf	-0.16804789
173	0x3f1e02ac	0.61722827
174	0x3e408bf7	0.18803392
175	0xbea49b9a	-0.32149965
176	0x3eafc32e	0.34328598
177	0x3d2738ad	0.040825535
178	0xbe9f8c99	-0.31161955
179	0xbebba47d	-0.36648932
180	0xbe62395a	-0.2209219
181	0xbdc3b10a	-0.09555252
182	0xbe17a267	-0.14808045
183	0x3eb9bd50	0.36277246
184	0x3e974173	0.2954212
185	0xbd5ba54f	-0.053624447
186	0xbd9b8d57	-0.07595318
187	0x3db9b263	0.09067228
188	0xbe93a25f	-0.28834817
189	0x3e0321a7	0.12805806
190	0xbe8fc0f5	-0.28076902
191	0xbe9af7fe	-0.30267328
192	0xbe90aa3d	-0.28254882
193	0xbd223ffd	-0.039611805
194	0xbe55b0f9	-0.20868291
195	0x3e2c519b	0.16828005
196	0x3e728747	0.23684417
197	0xbe712a4e	-0.23551294
198	0x3e9efbd8	0.31051517
199	0xbe9c4281	-0.30519488

lstm.weight_hh_l0 f4 [200, 50]
0	0x3d912209	0.0708657
1	0xbd386cea	-0.045025744
2	0x3c47a868	0.012186147
3	0x3ca2dd93	0.019881045
4	0xbe3cd603	-0.18441014
5	0x3d17f376	0.037097417
6	0x3cf415d2	0.029795561
7	0xbdcbb8cd	-0.09947357
8	0x3d804943	0.062639736
9	0x3e0d16a7	0.13778172
10	0xbdff6447	-0.12470298
11	0xbd5fbc32	-0.054622836
12	0x3e0f360c	0.13985461
13	0x3ce731b0	0.028221935
14	0x3d21e3a1	0.039523724
15	0xbc97bc04	-0.01852227
16	0xbd8eb530	-0.069681525
17	0x3d6f5ca0	0.058437943
18	0xbe0d618b	-0.13806741
19	0xbe194f1e	-0.14971587
20	0x3ccaf472	0.024774764
21	0x3e29b3c2	0.16572478
22	0x3b040b7f	0.0020148454
23	0xbaaa9018	-0.0013012914
24	0x3d9a5c24	0.07537106
25	0x3db1c6a2	0.08680464
26	0x3c829c7b	0.015943756
27	0xbdb5e5eb	-0.08881744
28	0xbdab6afb	-0.08370014
29	0xbe10996e	-0.14121029
30	0xbd1a8104	-0.037720695
31	0xbde22e5a	-0.11043997
32	0xbdd61e56	-0.10455005
33	0xbe0b7962	-0.13620523
34	0x3c3a9c59	0.011389815
35	0x3d88b678	0.06675428
36	0x3cda5187	0.026650203
37	0xbcf9c7bb	-0.030490747
38	0x3e831997	0.2560546
39	0x3e0e1a24	0.1387716
40	0xbe1b533c	-0.1516847
41	0x3e2fcbe8	0.17167628
42	0x3d937cdf	0.07201552
43	0xbada6f59	-0.0016665264
44	0xbe2d9bd6	-0.16953978
45	0xbdff6f60	-0.12472415
46	0x3dfb3126	0.12265234
47	0xbcd4210c	-0.025894664
48	0x3c412db9	0.011790686
49	0xbe628fde	-0.22125193
50	0x3e63dc2c	0.22251958
51	0x3dadc945	0.08485655
52	0x3e8020bf	0.25024983
53	0xbe25c524	-0.16188484
54	0xbd892dd5	-0.06698195
55	0x3eb46927	0.35236475
56	0x3e1da7cd	0.15396042
57	0xbdd70167	-0.10498314
58	0xbe358f6d	-0.17730494
59	0x3dc776c5	0.0973945
60	0xbea3def2	-0.3200603
61	0x3d063c6f	0.032772478
62	0x3c42c8af	0.011888667
63	0x3d71aa14	0.05900009
64	0x3e6e23cc	0.23255843
65	0x3e99815c	0.29981506
66	0xbeabedaf	-0.33579776
67	0x3cf47fc6	0.029846083
68	0x3e5b6d71	0.21428467
69	0xbea9cf93	-0.3316618
70	0x3eb4aa11	0.35286
71	0x3e8f8d9a	0.2803772
72	0xbe049549	-0.12947573
73	0x3c347fc1	0.011016787
74	0x3d8ca563	0.068674825
75	0xbd89f119	-0.06735439
76	0x3db3e81f	0.08784508
77	0xbf1d0a9b	-0.6134431
78	0x3e6e5aed	0.23276873
79	0x3d41fc39	0.04735968
80	0x3e4045d4	0.18776637
81	0xbe9a09a4	-0.3008548
82	0xb673c665	-3.6325303e-06
83	0xbdb910de	-0.0903642
84	0xbded9019	-0.1159975
85	0xbe91f089	-0.28503826
86	0x3e58c092	0.2116721
87	0x3e69b627	0.22823392
88	0x3e634cae	0.2219722
89	0xbdfbc7f5	-0.12293998
90	0x3c763305	0.015026812
91	0x3e8ef635	0.27922216
92	0xbe9cc1f4	-0.30616724
93	0x3de6347f	0.112404816
94	0xbe26f4ae	-0.16304275
95	0x3ea73ed4	0.32665122
96	0x3eb4cecb	0.3531402
97	0xbe40ffa7	-0.18847524
98	0xbc71fd63	-0.014769885
99	0x3da9b73e	0.08286904
100	0x3ea40e89	0.3204234
101	0xbe7ef13b	-0.2489671
102	0x3e32a7cb	0.1744682
103	0x3cb47c1c	0.022031836
104	0xbba6f1fd	-0.005094765
105	0x3e82c757	0.2554271
106	0xbd210ea6	-0.03932061
107	0xbe439e14	-0.19103271
108	0x3d01c82e	0.031685047
109	0xbd12abc9	-0.03580836
110	0x3d6ba31b	0.057528596
111	0x3dcc5b5d	0.09978364
112	0xbc776672	-0.015100108
113	0x3e24803f	0.16064547
114	0x3cc15e45	0.023604522
115	0x3d10e492	0.03537423
116	0x3ddd4eb7	0.10806029
117	0xbc022db0	-0.007945463
118	0x3dc2ad34	0.09505692
119	0xbe75c26c	-0.23999947
120	0xbd97e3de	-0.07416509
121	0x3e3aa2e5	0.18226202
122	0xbdfe4b8c	-0.12416753
123	0xbd09a567	-0.033605006
124	0xbd2949e0	-0.04133022
125	0x3e62287b	0.22085755
126	0xbdb99ab0	-0.090627074
127	0x3e146552	0.14491776
128	0x3c6893bf	0.014195382
129	0x3e6b88a3	0.23001342
130	0x3d673821	0.056450013
131	0xbd8d588f	-0.06901657
132	0xbd252fc4	-0.040328756
133	0x3d93501b	0.07193013
134	0xbe1cd1ef	-0.15314458
135	0x3e808275	0.2509953
136	0x3e5ab02c	0.21356267
137	0x3dfa6039	0.12225384
138	0x3e05d8c9	0.13070978
139	0xbdff20b4	-0.124574095
140	0xbea56324	-0.323022
141	0xbdc44830	-0.09584081
142	0x3e11016e	0.14160702
143	0x3d0da6b2	0.0345828
144	0xbd6a88cb	-0.057259362
145	0xbc8d3c7c	-0.017240755
146	0x3e4ec87d	0.20193668
147	0x3c98b780	0.018642187
148	0x3c95a588	0.018267408
149	0xbd83c204	-0.0643349
150	0x3ee6fbf4	0.451141
151	0xbea39296	-0.31947774
152	0x3de95744	0.11393598
153	0x3e8d9b08	0.27657342
154	0xbe07e44c	-0.13270682
155	0x3e85c23c	0.26124752
156	0xbd264e43	-0.04060198
157	0x3e82a995	0.25520006
158	0xbe99da63	-0.30049428
159	0xbe113fc4	-0.14184481
160	0x3ea33b86	0.3188135
161	0x3e6d6214	0.23181945
162	0xbeafa109	-0.34302548
163	0x3e1e5b3f	0.15464495
164	0xbe6e61bd	-0.23279472
165	0xbe7d9207	-0.24762736
166	0x3ef387de	0.47564596
167	0x3ed58b7e	0.41707987
168	0xbe62c6d1	-0.22146155
169	0xbe50db7c	-0.20396227
170	0x3e6acf4e	0.22930643
171	0xbdd33dc6	-0.10314517
172	0xbe92d41f	-0.2867746
173	0x3c2f7c99	0.010710859
174	0x3e86da0e	0.26338238
175	0xbd5ddc32	-0.054165073
176	0x3cbb9497	0.022898002
177	0x3d033072	0.032028623
178	0xbe51af14	-0.20476943
179	0x3e35253a	0.17689982
180	0x3cf9c432	0.030489061
181	0x3d995774	0.074873835
182	0xbe8a391a	-0.2699669
183	0x3eaa666e	0.33281273
184	0xbd58677d	-0.05283307
185	0x3ec2cb36	0.38045663
186	0xbe56f9e6	-0.20993766
187	0x3dde3cd4	0.10851446
188	0x3e6fc37c	0.23414415
189	0xbe104cda	-0.14091817
190	0x3c9054ff	0.017618654
191	0xbe5a4270	-0.21314406
192	0x3e76f36a	0.24116293
193	0x3e0c3257	0.13691078
194	0x3d816b47	0.0631929
195	0x3d322625	0.04349341
196	0xbe50d858	-0.20395029
197	0xbeef7f85	-0.46776977
198	0xbe111394	-0.14167625
199	0xbe52a371	-0.2057016
200	0x3ea17fa5	0.31542698
201	0xbe8562a2	-0.26051813
202	0x3e858663	0.2607909
203	0xba803aeb	-0.0009783184
204	0xbd8c616b	-0.068545185
205	0x3eb0ad36	0.3450715
206	0xbc8c2ba7	-0.017110659
207	0xbbee540e	-0.0072732037
208	0x3d0996f7	0.033591237
209	0xbdbfd19b	-0.09366151
210	0xbd36b8f1	-0.044609968
211	0x3d69bf07	0.057066943
212	0x3db42c6c	0.08797535
213	0x3e713038	0.2355355
214	0xbcc1f6b4	-0.023677208
215	0x3e916352	0.28396088
216	0xbc0e453d	-0.0086835
217	0x3cd041b9	0.025421964
218	0xbc7cbdfa	-0.015426153
219	0xbe9e3310	-0.30898333
220	0x3e41a351	0.18909957
221	0x3e802417	0.25027534
222	0x3e6cb3c1	0.23115446
223	0xbefc68b2	-0.49298626
224	0x3e3641fc	0.17798609
225	0xbe618f84	-0.22027403
226	0xbe93de86	-0.2888071
227	0xbe1a1972	-0.15048769
228	0x3db27c5b	0.08715125
229	0x3e85921d	0.26088038
230	0xbbbc2ecc	-0.0057428833
231	0xbeaa89c1	-0.33308223
232	0xbd7f7369	-0.062365923
233	0xbede3e3f	-0.43406865
234	0xbe8d3e25	-0.27586475
235	0x3d1f63a6	0.03891339
236	0x3d559b9a	0.052150346
237	0xbdc25669	-0.09489138
238	0xbe3b6b7e	-0.18302724
239	0xbd781e16	-0.060575567
240	0xbd6f46ff	-0.058417317
241	0xbb2f4fa2	-0.0026750346
242	0xbd50b7f3	-0.050956678
243	0xbe131e12	-0.1436694
244	0xbe7c269b	-0.24624102
245	0x3e9e8316	0.30959386
246	0x3e3f8d06	0.1870614
247	0xbd57049a	-0.052494623
248	0x3e8d63e4	0.27615273
249	0x3e0267e5	0.12734945
250	0x3d4c6d36	0.04990884
251	0x3df8fbb3	0.12157383
252	0xbbfc255a	-0.0076948823
253	0xba4296bd	-0.00074229744
254	0xbdc9eab1	-0.09859217
255	0x3e34f48b	0.1767141

lstm.bias_ih_l0 f4 [200]
0	0xbd466437	-0.048435416
1	0x3e148139	0.1450242
2	0x3d52b6fc	0.05144404
3	0x3eafab1e	0.3431024
4	0x3e4e09fa	0.20120993
5	0x3da1094c	0.07863101
6	0x3f058011	0.5214854
7	0x3ced5434	0.028970815
8	0x3e0813ad	0.13288756
9	0x3ecd6872	0.40118748
10	0x3d26b49d	0.04069959
11	0x3de4af33	0.11166229
12	0xbcb50715	-0.022098104
13	0x3d655e46	0.05599811
14	0x3dee1c2c	0.11626467
15	0xbd2cd14a	-0.04219178
16	0x3d9e4b37	0.0772919
17	0x3e4e4521	0.20143558
18	0x3e730842	0.23733619
19	0x3bf3aa62	0.0074360827
20	0x3df9a33a	0.12189336
21	0x3d440e55	0.04786523
22	0x3e41299d	0.1886353
23	0x3e7ff1c1	0.24994566
24	0xbdc104f0	-0.0942477
25	0x3ee66578	0.4499929
26	0xbd068fb4	-0.03285189
27	0xbcc364ac	-0.023851715
28	0x3e42b880	0.19015694
29	0xbdbe083c	-0.09278914
30	0x3dd2be41	0.10290194
31	0x3e066af6	0.1312674
32	0x3cde31fd	0.027123446
33	0x3f3c1855	0.7347463
34	0x3da5cf95	0.08096234
35	0x3cb34b59	0.021886514
36	0xbd3c009d	-0.045899022
37	0x3e85c2d0	0.26125193
38	0x3ed4ccfe	0.41562647
39	0xbd15f8d2	-0.036614247
40	0xbc0d5102	-0.008625271
41	0x3f362863	0.71155375
42	0x3d63b395	0.055591185
43	0x3e1680bd	0.14697547
44	0x3d00ae1c	0.031416044
45	0x3e00ae78	0.12566555
46	0xbdeb59d6	-0.11491744
47	0x3e6e71c4	0.23285586
48	0x3e88b0fa	0.26697522
49	0x3eef4b2b	0.46737036
50	0x3d28a400	0.041172028
51	0xbd67e3d1	-0.056613747
52	0xbd8e75e8	-0.069560826
53	0x3c8535f4	0.016261078
54	0xbecf379b	-0.4047211
55	0x3e415da9	0.18883385
56	0xbe3834e7	-0.1798893
57	0x3db62e8b	0.08895596
58	0xbd9a0f3d	-0.07522438
59	0xbeccfe2c	-0.40037668
60	0xbe1aa678	-0.15102565
61	0xbe3603f3	-0.17774944
62	0xbd0df23c	-0.03465484
63	0x3d905887	0.07048135
64	0xbe4804c0	-0.19533062
65	0x3c78568c	0.015157353
66	0x3db2d269	0.08731539
67	0xbe81d06c	-0.25354326
68	0xbe14f2c4	-0.14545733
69	0x3d94c328	0.072637856
70	0x3e038fe3	0.12847857
71	0xbe80a381	-0.25124744
72	0xbe2a75ed	-0.16646548
73	0xbeab708f	-0.33484313
74	0x3e3cb100	0.18426895
75	0xbed06b8f	-0.4070706
76	0xbea83d75	-0.32859388
77	0xbd0fdbf0	-0.035121858
78	0x3d870dbe	0.06594418
79	0xbdb92415	-0.09040085
80	0x3e6053da	0.21906987
81	0xbeb6d24d	-0.35707322
82	0x3d7a84d8	0.061161846
83	0xbf094be5	-0.5363143
84	0x3d8f88c5	0.070085086
85	0xbb9e1149	-0.004823838
86	0xbd26ff65	-0.040770907
87	0xbea1b1ae	-0.3158087
88	0xbdd7c55e	-0.10535692
89	0x3bc12964	0.0058948267
90	0x3d137a49	0.036005292
91	0xbe384af8	-0.17997348
92	0x3e7de6a7	0.24795018
93	0xbe49210e	-0.19641516
94	0x3e116d62	0.14201882
95	0xbe1ba945	-0.1520129
96	0xbea51c71	-0.32248262
97	0xbe9bb7fc	-0.30413806
98	0xbebb266a	-0.36552745
99	0x3cb99ee3	0.02265877
100	0x3db21a5a	0.086964324
101	0xbce1bf5a	-0.027557064
102	0x3db8da69	0.090260334
103	0xbe1ffa10	-0.15622735
104	0xbd9f6ea9	-0.077847786
105	0x3d01158f	0.0315147
106	0xbca81dc8	-0.020522013
107	0xbe1718c8	-0.14755547
108	0x3dd9811b	0.10620328
109	0x3db2abaf	0.08724152
110	0x3d3bb202	0.04582406
111	0xbd2248b1	-0.039620105
112	0x3da451ec	0.08023438
113	0x3db01188	0.08597094
114	0x3dd8f254	0.105930954
115	0xbde3878e	-0.111098394
116	0x3d55f489	0.05223516
117	0xbe29426a	-0.16529241
118	0x3d8c6180	0.06854534
119	0x3c26b800	0.010175705
120	0xbd848689	-0.06470973
121	0x3dbcd57b	0.09220406
122	0x3d5716da	0.052512027
123	0xbe1231c2	-0.14276794
124	0xbd34f1ac	-0.04417579
125	0xbdecca97	-0.115620784
126	0xbc5e4ab2	-0.013567613
127	0x3d2c9fea	0.042144693
128	0x3d9071e5	0.07052974
129	0xbd07c2fb	-0.033144932
130	0xbe0c4318	-0.13697469
131	0xbcd50a33	-0.02600584
132	0x3ce312e2	0.027718965
133	0xbe26b65a	-0.16280499
134	0x3d7b1732	0.061301418
135	0x3bd7c7ec	0.006585112
136	0x3d57b10c	0.05265908
137	0x3ba53f4a	0.005042945
138	0xbd618c83	-0.055065643
139	0x3dfeea8a	0.124470785
140	0x3c338de5	0.010959123
141	0x3dfce91f	0.12349152
142	0xbc105fa2	-0.008811863
143	0x3d6b469e	0.057440393
144	0xbe0422e0	-0.12903929
145	0x3e0ac304	0.13550955
146	0xbdbee366	-0.093207166
147	0x3e0f1b6f	0.13975309
148	0x3d8dbcba	0.06920762
149	0x3dab29d1	0.08357585
150	0x3c8427f5	0.016132334
151	0x3e48fa16	0.1962665
152	0xbdbaa9da	-0.09114428
153	0x3e8c9746	0.27459162
154	0x3eb30e55	0.34971872
155	0x3da127fa	0.07868953
156	0x3ee0b679	0.43889216
157	0x3d250efb	0.04029749
158	0x3e705912	0.23471478
159	0x3ec8923d	0.3917407
160	0x3d84af1c	0.06478712
161	0x3e45e11d	0.19324155
162	0x3e539812	0.20663479
163	0xbbad097e	-0.0052806726
164	0x3d9a2466	0.07526474
165	0x3d6ca70b	0.057776492
166	0x3e08fcc8	0.13377678
167	0x3e65572e	0.22396538
168	0x3e2a7460	0.16645956
169	0x3e5f4d51	0.21806838
170	0x3d828059	0.063721366
171	0x3b0b2c75	0.0021236215
172	0x3e4178ed	0.18893786
173	0x3e7c0e5b	0.24614851
174	0x3d13211b	0.035920244
175	0x3ef41eb9	0.4767969
176	0x3e4f9f8c	0.20275706
177	0x3e48daff	0.1961479
178	0x3e9f8844	0.3115865
179	0x3d8a997f	0.06767558
180	0x3e3bbe82	0.18334392
181	0x3df82d18	0.12117976
182	0xbdb26af8	-0.08711809
183	0x3f11f78b	0.57018346
184	0x3d501d9e	0.050809495
185	0x3e1069c6	0.1410285
186	0x3e2f9ceb	0.17149703
187	0x3ed9e973	0.4256092
188	0x3ed6274e	0.41826862
189	0x3d289074	0.041153386
190	0x3da8a2dd	0.08234189
191	0x3f282413	0.65680045
192	0x3e06ecb0	0.13176227
193	0x3e80a2f1	0.25124314
194	0x3c6210e3	0.013797971
195	0x3d50cb4e	0.050975136
196	0x3e0af497	0.13569866
197	0x3ed2f9c4	0.4120618
198	0x3e4b98ca	0.19882503
199	0x3e94aa14	0.2903601

lstm.bias_hh_l0 f4 [200]
0	0x3cdae04e	0.026718285
1	0x3e5a4e19	0.21318854
2	0xbd51ea85	-0.051249046
3	0x3e9e1005	0.30871597
4	0x3e6a2ec9	0.2286941
5	0x3dec0bfe	0.11525725
6	0x3ed4a470	0.41531706
7	0xbdc82a9d	-0.09773753
8	0x3e8260f6	0.254646
9	0x3e594222	0.21216634
10	0x3db06973	0.08613863
11	0x3e509acc	0.2037155
12	0x3e1f54df	0.1555972
13	0xbd2fa0e3	-0.042878043
14	0xbd96764f	-0.07346784
15	0x3e299501	0.16560747
16	0xbd34ac67	-0.04410973
17	0x3e3e77cf	0.18600391
18	0x3e0b5b28	0.13608992
19	0x3df0210d	0.11725054
20	0xbd09bfc3	-0.033630144
21	0xbe05231f	-0.13001679
22	0x3e37f00c	0.17962664
23	0x3d85a445	0.065254726
24	0x3de9ec8e	0.11422072
25	0x3ea36ae3	0.31917486
26	0x3d55837a	0.05212734
27	0x3e21a044	0.15783793
28	0x3e719828	0.23593199
29	0xbe07c78d	-0.13259716
30	0xbcea50ac	-0.02860292
31	0xbda93031	-0.08261145
32	0xbdb5564f	-0.08854353
33	0x3f3fc8e9	0.7491594
34	0x3dcf7d80	0.10131359
35	0xbc9f03e4	-0.019411035
36	0xbde203c9	-0.11035878
37	0x3e7d7ba9	0.24754204
38	0x3edef37b	0.43545136
39	0xbe0fd59e	-0.14046332
40	0x3ddec6e6	0.108777806
41	0x3f434da7	0.76290363
42	0xbca41c5f	-0.02003306
43	0x3eb747eb	0.35797057
44	0xbd1a3756	-0.03765043
45	0x3b3ff4b5	0.0029290144
46	0x3da04fc7	0.07827716
47	0x3ea26d1c	0.3172387
48	0x3eb3c77e	0.35113138
49	0x3ee7ee66	0.4529907
50	0x3dc8e2e3	0.098089
51	0x3d039d7f	0.03213262
52	0x3cf27730	0.029597849
53	0xbcb93a22	-0.022610728
54	0xbebb29f6	-0.3655545
55	0x3e47ceac	0.19512433
56	0xbe56d43a	-0.20979396
57	0xbdc84d97	-0.09780424
58	0xbd6a0e50	-0.057142556
59	0xbe87ddaf	-0.2653632
60	0xbe7611f3	-0.24030285
61	0xbe1eea83	-0.15519147
62	0x3d9f1984	0.077685386
63	0xbd805099	-0.06265373
64	0xbbcc9c4e	-0.006244219
65	0xbdb819db	-0.089893065
66	0x3c18a63c	0.009316977
67	0xbe70ee41	-0.23528387
68	0xbda8f829	-0.08250458
69	0x3e6b3abe	0.22971627
70	0x3d786925	0.06064715
71	0xbdeb70af	-0.11496102
72	0xbcc5a411	-0.024126085
73	0xbedb589b	-0.42841038
74	0x3e541d75	0.20714362
75	0xbe6c638a	-0.23084846
76	0xbe80ccfb	-0.25156388
77	0x3d7add4d	0.061246205
78	0xbe002064	-0.12512356
79	0x3d203ef9	0.039122555
80	0x3e18e21f	0.14930008
81	0xbe292473	-0.1651781
82	0xbdefb737	-0.11704867
83	0xbf16b0ec	-0.5886371
84	0x3d81202c	0.063049644
85	0xbe59db2c	-0.21275014
86	0xbd449c80	-0.048000813
87	0xbe6b7056	-0.22992072
88	0xbdfb323b	-0.1226544
89	0xbde21b26	-0.110403344
90	0xbdb99dc9	-0.09063298
91	0xbedabcb7	-0.42722103
92	0x3e3fc8df	0.1872897
93	0xbd534ce6	-0.051587008
94	0xbd88cf47	-0.0668016
95	0xbd31f1ac	-0.043443367
96	0xbe8e88cb	-0.2783874
97	0xbe6007e3	-0.21878009
98	0xbec15c32	-0.37765652
99	0xbe380d24	-0.17973763
100	0xbde15fb7	-0.11004584
101	0xbd35df39	-0.044402335
102	0x3d0f1353	0.03493054
103	0xbdb20524	-0.08692387
104	0xbd5fd02d	-0.05464189
105	0x3c831348	0.016000405
106	0x3e04034e	0.12891886
107	0x3ca5b209	0.020226495
108	0x3c9b9fb7	0.018997056
109	0x3d843514	0.06455436
110	0x3d00831f	0.031375047
111	0xbd98562b	-0.0743831
112	0x3d2ebe26	0.04266181
113	0x3de0259b	0.10944673
114	0xbdc5da4b	-0.09660777
115	0x3dceea62	0.10103299
116	0xbe03393b	-0.128148
117	0xba9c148b	-0.0011907978
118	0x3e2d5a93	0.16929083
119	0xbe02b2e1	-0.1276355
120	0x3d189828	0.037254483
121	0xbe0436e2	-0.12911561
122	0x3dbc4c8a	0.09194286
123	0x3d8630fd	0.065523125
124	0xbd0c2162	-0.034211524
125	0xbc255b98	-0.010092638
126	0x3d2c51a9	0.042070065
127	0xbdf68bdf	-0.12038397
128	0x3dc22c2c	0.09481081
129	0x3d4529b9	0.048135493
130	0x3df7e23e	0.12103699
131	0xbdc7cd7e	-0.097559914
132	0x3d99f5be	0.07517575
133	0xbdcea140	-0.1008935
134	0xbdaa79a4	-0.08323982
135	0xbe5a9606	-0.21346292
136	0x3d323b38	0.043513507
137	0xbe2caeba	-0.16863528
138	0xbda38e6b	-0.079861484
139	0xbe0106c3	-0.12600236
140	0x3e17509c	0.14776844
141	0x3cb5a8ba	0.022175182
142	0x386da372	5.6657424e-05
143	0x3d80e5ea	0.062938526
144	0x3c53fa9d	0.012938169
145	0x3dd2f8b3	0.10301342
146	0x3dbf6c2c	0.09346804
147	0xba947c65	-0.0011328576
148	0xbabb19b4	-0.0014274628
149	0x3d011965	0.03151836
150	0x3e0d2e0a	0.13787094
151	0xbd872115	-0.06598107
152	0xbcf6a662	-0.030108634
153	0x3e7d3d72	0.24730471
154	0x3e39cce5	0.18144567
155	0x3e5bbae2	0.21458009
156	0x3f08d336	0.5344728
157	0x3e3513df	0.17683361
158	0x3d7cb5cf	0.061696824
159	0x3ecd5c51	0.40109494
160	0x3e93c53d	0.28861418
161	0x3dffe087	0.12493997
162	0x3e995fd4	0.29955924
163	0xbdecc949	-0.115618296
164	0xbdf33aaa	-0.11876424
165	0xbd784d4c	-0.06062059
166	0x3ddaf1f2	0.10690679
167	0x3e01ecf0	0.1268804
168	0xbb607fb7	-0.0034255811
169	0x3dbd155d	0.0923259
170	0xbce684e7	-0.028139545
171	0xbd839964	-0.06425741
172	0x3eb9c68b	0.3628429
173	0x3e4ff868	0.20309603
174	0x3e0b5f73	0.1361063
175	0x3e8e63be	0.27810472
176	0xbbea8543	-0.0071569993
177	0x3e39346e	0.18086407
178	0x3dd1dd64	0.10247305
179	0xbc01c17d	-0.007919666
180	0x3b688d4e	0.0035484615
181	0xbc263ec8	-0.010146804
182	0xbcaab993	-0.020840442
183	0x3f28123e	0.65652835
184	0xbd23cb39	-0.03998873
185	0x3e45e230	0.19324565
186	0x3e02c4d8	0.12770402
187	0x3e99bdbf	0.30027577
188	0x3edcdde9	0.43138054
189	0xbdf4bcb3	-0.11950054
190	0x3e422679	0.18959989
191	0x3f342668	0.70371103
192	0xbbf6e9eb	-0.0075352094
193	0x3e372837	0.17886434
194	0x3d86aa20	0.065754175
195	0xbb961a5a	-0.004580778
196	0x3c6a035f	0.01428303
197	0x3eec589f	0.46161363
198	0x3e58cf16	0.21172747
199	0x3eb0ede3	0.34556493

lstm.weight_ih_l1 f4 [200, 50]
0	0x3edf20ff	0.43579862
1	0xbd745fc9	-0.05966166
2	0x3e4518ac	0.19247693
3	0x395a1a5f	0.00020799924
4	0xbe78bd49	-0.24290957
5	0x3e811c49	0.25216892
6	0xbe408c1d	-0.18803449
7	0xbe2e060f	-0.16994499
8	0x3e051273	0.12995319
9	0xbe8ae27e	-0.27125925
10	0x3e8d7e6d	0.27635518
11	0xbdb3f7d7	-0.08787506
12	0xbd9027b7	-0.07038825
13	0x3d9f7ba8	0.077872574
14	0x3e1315fc	0.14363855
15	0x3e21e723	0.15810828
16	0xbd0c9387	-0.03432038
17	0x3e84e6f4	0.25957453
18	0x3dc01d71	0.093806155
19	0xbeadce97	-0.33946678
20	0xbd165c88	-0.03670934
21	0x3cdd83af	0.02704033
22	0x3d639816	0.055564962
23	0x3e2e0f85	0.16998108
24	0x3d9929f6	0.074787065
25	0x3e845d90	0.25852633
26	0x3e63c1f4	0.22241956
27	0x3d2c18ed	0.04201596
28	0xbe2270be	-0.1586332
29	0x3de0fcd8	0.10985726
30	0xbcad1da0	-0.02113229
31	0x3cb6fb82	0.022336725
32	0x3b6d0c61	0.0036170708
33	0x3d06d78d	0.03292041
34	0x3ce07e31	0.027403923
35	0x3ea81bce	0.32833713
36	0x3e0fc8fb	0.14041512
37	0xbd967024	-0.07345608
38	0x3ec1e805	0.3787233
39	0xbe5c018e	-0.21484968
40	0xbdb7df3a	-0.08978124
41	0xbd824295	-0.06360356
42	0xbd8ddada	-0.06926508
43	0xbec02ca2	-0.37534052
44	0xbe77f15b	-0.24213164
45	0x3e035e0d	0.12828846
46	0xbe56b1df	-0.2096629
47	0xbe8d043f	-0.27542302
48	0xbe35a932	-0.17740324
49	0xbe427fc8	-0.18994057
50	0x3d005e24	0.03133978
51	0xbf07dab2	-0.5306808
52	0x3ecea4db	0.4036015
53	0x3ce49156	0.027901333
54	0xbe4e1dbc	-0.2012853
55	0x3e365a58	0.17807901
56	0x3e301264	0.17194515
57	0xbed551d2	-0.41663986
58	0x3ee82bc2	0.45345885
59	0x3e217f13	0.15771131
60	0xbddb1f3d	-0.106993176
61	0xbe1c08af	-0.15237688
62	0x3e686a96	0.2269691
63	0x3eb5f781	0.35540393
64	0x3e785edd	0.24254937
65	0x3d2e9fbc	0.042632803
66	0xbe2e101f	-0.16998337
67	0xbd179aaa	-0.037012734
68	0x3e0c8a40	0.13724613
69	0xbe81b263	-0.2533141
70	0x3e54320d	0.20722218
71	0x3f1003e9	0.56255966
72	0x3e6bed68	0.23039782
73	0xbd55f5dc	-0.052236423
74	0x3d9f6fea	0.07785018
75	0xbd80619b	-0.06268617
76	0xbe89f762	-0.2694655
77	0xbec5070d	-0.38481942
78	0x3d226ff8	0.039657563
79	0xbd7674fc	-0.06017016
80	0x3e84648d	0.25857964
81	0xbe070623	-0.13185935
82	0xbd92b752	-0.07163872
83	0xbdb5962f	-0.08866536
84	0xbeb04881	-0.34430316
85	0x3d834c39	0.06411023
86	0x3e3c515b	0.1839041
87	0xbeed05cb	-0.46293482
88	0xbe1c49f5	-0.15262587
89	0xbef02f33	-0.4691101
90	0x3d8aa9d3	0.06770673
91	0x3da6eca9	0.08150608
92	0xbda032c2	-0.07822181
93	0x3de3511b	0.11099454
94	0xbe21ffec	-0.15820283
95	0x3d107356	0.035266243
96	0xbba11d1d	-0.0049168007
97	0xbd843b38	-0.064566076
98	0x3e2aee82	0.16692546
99	0x3e566fc1	0.20941068
100	0x3e6a7884	0.22897536
101	0xbef82442	-0.48465163
102	0x3e843fa9	0.2582982
103	0xbdddb785	-0.10826019
104	0x3e87dd96	0.26536244
105	0x3cf75e64	0.030196376
106	0x3d8d47cc	0.0689846
107	0x3d7b0129	0.061280403
108	0xbe00dc86	-0.12584123
109	0x3e916f07	0.2840502
110	0xbc5c5e45	-0.01345021
111	0xbcef6c94	-0.029226579
112	0x3d923e89	0.07140834
113	0x3b47e3f7	0.0030500868
114	0x3d69d1fe	0.05708503
115	0x3b95463a	0.004555491
116	0x3e83c260	0.25734234
117	0xbd624e40	-0.055250406
118	0x3c57e826	0.013177907
119	0xbd4036b3	-0.046927165
120	0x3c5fdc50	0.013663366
121	0x3e68be43	0.22728829
122	0xbe516694	-0.20449287
123	0xbdb2838b	-0.08716496
124	0xbe5ce3b0	-0.21571231
125	0xbe349672	-0.17635515
126	0x3d39e5d9	0.045385215
127	0xbe5c2083	-0.21496777
128	0xbe9a8db2	-0.3018623
129	0x3d935333	0.07193603
130	0xbdec6449	-0.115425654
131	0xbe7272e6	-0.23676643
132	0xbec79e0c	-0.38987768
133	0x3e867376	0.26259965
134	0x3d61692d	0.055031944
135	0x3e4396aa	0.19100443
136	0x3b8ad095	0.0042362907
137	0x3dd8f3f9	0.10593409
138	0xbeb4085c	-0.35162628
139	0xbe99414e	-0.29932636
140	0x3dc94e1b	0.098293506
141	0x3d0fd9b1	0.035119716
142	0x3e3e4ded	0.18584414
143	0xbe1b2e79	-0.15154447
144	0x3e16de11	0.14733149
145	0x3ce2d89f	0.027691184
146	0x3eb12b9b	0.3460358
147	0xbd952f58	-0.07284421
148	0xbde6dd17	-0.11272638
149	0x3e67b123	0.22626166
150	0x3e2563eb	0.16151397
151	0x3cb9f1b0	0.022698253
152	0x3e0115c5	0.1260596
153	0xbd6668cf	-0.056252297
154	0xbdee6dfc	-0.116420716
155	0xbdb919a8	-0.09038097
156	0xbe8a1484	-0.26968777
157	0xbccdf9a4	-0.025143452
158	0xbc792da9	-0.01520864
159	0xbd903e35	-0.07043115
160	0xbd1e61cd	-0.03866749
161	0xbd5f270e	-0.054480605
162	0xbc75b988	-0.014997847
163	0x3d8fac0f	0.070152394
164	0x3d950dfb	0.07278057
165	0x3e6376c0	0.22213268
166	0xbc26dff0	-0.010185227
167	0x3e9afe8e	0.30272335
168	0x3e2ca468	0.16859591
169	0x3d016c26	0.03159728
170	0x3e1a4df6	0.15068802
171	0x3e6c20b4	0.2305935
172	0x3d16a9b5	0.03678294
173	0x3e2ebc2a	0.17063966
174	0x3dfecaf3	0.12441053
175	0x3ed9fd20	0.42575932
176	0x3d81a4bc	0.06330249
177	0x3d23b634	0.039968684
178	0x3c5b900d	0.013401044
179	0x3c1d5a13	0.009603995
180	0xbd083d92	-0.033261843
181	0xbdbbfb3a	-0.09178777
182	0xbdcdfd01	-0.10058022
183	0xbd998b9c	-0.074973315
184	0x3c00aa7f	0.007853149
185	0x3e168fad	0.14703245
186	0x3e7af994	0.24509269
187	0x3d10cc50	0.035351098
188	0x3e992c82	0.2991677
189	0xbe17cdef	-0.14824651
190	0xbdf2445d	-0.118294455
191	0xbd270b81	-0.040782455
192	0x3dca990e	0.09892474
193	0xbe7d26c2	-0.24721816
194	0xbdcaab73	-0.098959826
195	0xbd558af1	-0.052134458
196	0x3c899bc3	0.016797906
197	0xbddd315a	-0.10800429
198	0xbda3da4a	-0.0800062
199	0xbdf4c93a	-0.119524434
200	0xbd6a194b	-0.057153028
201	0xbe5bb457	-0.21455513
202	0x3eb10a51	0.34578183
203	0x3db472ea	0.088109806
204	0xbe09c7d1	-0.1345513
205	0x3b6232d8	0.0034515169
206	0x3e36d1c2	0.17853454
207	0xbe812755	-0.2522532
208	0x3eb0d9ae	0.34541076
209	0xbdc81f72	-0.09771623
210	0xbe09bd06	-0.13451013
211	0xbe8c34ec	-0.27384126
212	0x3e975b39	0.29561785
213	0x3db06a5e	0.08614038
214	0x3e840a0d	0.25788918
215	0x3dde9647	0.10868507
216	0xbcab2686	-0.020892393
217	0xbb81f3da	-0.003965837
218	0xbd9c3540	-0.07627344
219	0xbd6880b1	-0.056763355
220	0x3db4793d	0.08812187
221	0x3ec7671f	0.38945863
222	0x3d1333e2	0.03593815
223	0xbea22ee8	-0.31676412
224	0xbe2c88ab	-0.1684901
225	0x3e6ba3b7	0.23011671
226	0xbea2cd66	-0.31797332
227	0xbd1aaab4	-0.03776045
228	0x3e06790d	0.13132115
229	0xbc629038	-0.01382833
230	0x3c815840	0.015789151
231	0xbe23439c	-0.1594376
232	0x3dd749f8	0.10512155
233	0xbe521e7d	-0.20519443
234	0xbe6c2175	-0.23059638
235	0x3def2aa2	0.116780534
236	0x3e9513e9	0.29116753
237	0xbeb87599	-0.3602722
238	0x3d1966e6	0.037451647
239	0xbe97c02e	-0.2963881
240	0xbccf3c0d	-0.02529719
241	0xbd3afd09	-0.04565147
242	0xbe4e872b	-0.2016875
243	0xbddd71e1	-0.10812736
244	0xbe4d5ccf	-0.20054935
245	0xbc004954	-0.007829983
246	0x3e1feb67	0.15617143
247	0xbe27e483	-0.16395764
248	0x3ea0acdc	0.3138188
249	0xbd9deefb	-0.077115975
250	0x3c91fda2	0.017821137
251	0xbf1d56ad	-0.6146038
252	0x3ec9e57a	0.3943289
253	0xbe295427	-0.16536008
254	0xbe56a507	-0.2096139
255	0x3d0643e7	0.0327796

lstm.weight_hh_l1 f4 [200, 50]
0	0xbe5363e2	-0.20643571
1	0x3d46e7c7	0.048560884
2	0xbdb5c510	-0.08875477
3	0x3dbbb307	0.09165006
4	0x39460aea	0.00018886817
5	0x3e36a12d	0.17834921
6	0xbd6fc36c	-0.05853598
7	0x3d8acff9	0.06777949
8	0xbe38de41	-0.18053533
9	0xbe92d8c3	-0.28681
10	0xbda06681	-0.07832051
11	0x3e9c01c4	0.30470097
12	0xbd949fd2	-0.07257046
13	0x3d90be3c	0.07067534
14	0xbd83e8f6	-0.06440918
15	0x3c4f42bb	0.012650187
16	0xbe7a2d47	-0.24431334
17	0x3b3ebf62	0.0029105772
18	0x3e3c1cce	0.18370363
19	0x3d57bb00	0.05266857
20	0xbc1ae364	-0.009453628
21	0x3dd8ebeb	0.10591873
22	0xbe8998c0	-0.26874352
23	0xbc3bf7dc	-0.0114726685
24	0x3e3a7d09	0.1821176
25	0x3eef710e	0.4676594
26	0xbea274ca	-0.31729728
27	0x3e0a3108	0.13495266
28	0x3c5921ed	0.013252717
29	0xbd8f0d8d	-0.069850065
30	0x3d1d0a76	0.038340054
31	0x3e235fc8	0.15954506
32	0xbe0e3e60	-0.13890982
33	0x3deb7fc1	0.114989765
34	0x3dced671	0.10099495
35	0xbe0179b6	-0.12644085
36	0x3d9271f3	0.0715064
37	0xbe8cf998	-0.27534175
38	0xba8bbc00	-0.0010660887
39	0x3e3718e3	0.17880587
40	0x3e82de1a	0.25560075
41	0xbdbba160	-0.09161639
42	0xbe08e7f9	-0.1336974
43	0xbd91b053	-0.07113709
44	0x3d78771f	0.060660478
45	0xbe0f9beb	-0.14024322
46	0xbed0eec7	-0.40807173
47	0xbe1c6973	-0.152746
48	0x3e4fd384	0.2029553
49	0xbd5672c7	-0.052355554
50	0x3c84bcd0	0.016203314
51	0x3cee43ea	0.029085118
52	0x3d6606a0	0.05615866
53	0x3de4e0b1	0.11175669
54	0xbc964553	-0.018343603
55	0xbcabec6a	-0.020986754
56	0xbc314561	-0.010819764
57	0x3e343a07	0.1760026
58	0xbe121991	-0.14267565
59	0xbe121f25	-0.14269693
60	0xbd9daf55	-0.076994576
61	0x3dcc57be	0.09977673
62	0x3d324481	0.04352236
63	0x3e662e8f	0.22478698
64	0xbdf1f61b	-0.11814519
65	0xbdcd8f62	-0.10037114
66	0xbe285653	-0.1643918
67	0xbd0cf4f1	-0.03441328
68	0xbc7725b3	-0.015084672
69	0x3dcd8e3c	0.10036895
70	0xbd83abf1	-0.064292796
71	0x3da01c2e	0.07817875
72	0xbd472bc1	-0.04862571
73	0xbd4b9d03	-0.049710285
74	0x3cfe062f	0.031008808
75	0xbe0739e8	-0.13205683
76	0xbe0b9448	-0.13630784
77	0x3dd65627	0.10465651
78	0x3db89d8c	0.09014425
79	0xbd8c2195	-0.06842343
80	0x3e7eab73	0.2487009
81	0x3d3c8961	0.046029452
82	0xbe0a4b12	-0.135052
83	0x3d222faa	0.039596237
84	0x3df25710	0.11833012
85	0xbe66ba62	-0.22532037
86	0xbd3f6b4f	-0.046733197
87	0xbeb6a6c5	-0.3567411
88	0x3e744a70	0.2385652
89	0x3d1d6348	0.03842476
90	0x3e066ced	0.1312749
91	0xbe212a80	-0.15738869
92	0xbc09c64f	-0.008409097
93	0x3e20a6c3	0.15688615
94	0x3e5624bd	0.20912452
95	0xbe162e3e	-0.14666077
96	0xbc153d41	-0.009108842
97	0x3da3dc40	0.08000994
98	0x3e00a502	0.12562945
99	0xbdac4b4e	-0.08412801
100	0x3d773b10	0.06035906
101	0x3eb8454a	0.35990363
102	0x3e4b4e4a	0.19854084
103	0x3e25c930	0.16190028
104	0xbe405a2c	-0.18784398
105	0x3f0397af	0.51403326
106	0xbd358921	-0.04432023
107	0x3ec7a044	0.3898946
108	0x3e99fbb6	0.30074853
109	0xbeb1dd91	-0.34739354
110	0x3d8639ca	0.06553991
111	0x3dd58fca	0.10427816
112	0x3ce75fda	0.028243948
113	0xbd01ce0c	-0.031690642
114	0x3b88142c	0.0041527953
115	0xbdc6dbc4	-0.09709886
116	0xbea7963b	-0.32731804
117	0x3f4315a6	0.7620491
118	0xbdcb1a0f	-0.0991708
119	0xbe069bf5	-0.1314543
120	0x3e036acf	0.12833713
121	0x3a14ef59	0.00056814175
122	0xbe89bc9e	-0.26901716
123	0x3cb71500	0.02234888
124	0x3e90b092	0.28259712
125	0xbdbb2f47	-0.09139877
126	0xbdf4273f	-0.11921548
127	0x3e4010df	0.18756436
128	0x3f105a2c	0.5638759
129	0xbe253c6c	-0.1613633
130	0x3ea66dfd	0.3250579
131	0x3bebd9fa	0.0071976157
132	0xbe28bbee	-0.1647794
133	0xbedd6935	-0.4324433
134	0x3e8d4c30	0.2759719
135	0xbe64e9b1	-0.22354771
136	0xbe1906ed	-0.14944048
137	0xbe0e60cd	-0.13904114
138	0x3e32417f	0.17407797
139	0xbe70a611	-0.2350085
140	0x3d022540	0.031773806
141	0xbeb9f9c9	-0.36323383
142	0xbe3e9e1a	-0.18614998
143	0xbe2ca202	-0.16858676
144	0x3ee99b85	0.45626464
145	0x3cff34f6	0.031153183
146	0x3f25c72b	0.6475703
147	0x3e8adf22	0.27123362
148	0x3e888c39	0.2666948
149	0xbe05678b	-0.1302778
150	0xbdded033	-0.108795546
151	0x3c9f1bc5	0.019422421
152	0xbdb7a10a	-0.08966263
153	0x3e803583	0.25040826
154	0xbe0c1317	-0.13679157
155	0x3e63a3ed	0.22230501
156	0xbd579f42	-0.052642114
157	0x3e01b8e2	0.12668183
158	0xbe780714	-0.2422145
159	0xbe386adf	-0.18009518
160	0x3dd26324	0.10272816
161	0x3e870075	0.26367536
162	0x3bc4b9cd	0.0060035945
163	0x3e4c0d47	0.1992694
164	0x3b12a484	0.002237589
165	0x3de63011	0.11239637
166	0x3cd0cd31	0.025488468
167	0xbc02a3d8	-0.007973634
168	0x3dc137d7	0.09434479
169	0x3c7ecbbd	0.015551505
170	0x3ba6214d	0.0050698877
171	0x3e089b35	0.13340457
172	0x3c557b99	0.013029956
173	0x3cbdd3d1	0.023172291
174	0x3d9a94c0	0.07547903
175	0x3e053c25	0.13011225
176	0xbe1e538e	-0.15461561
177	0x3d66d925	0.05635943
178	0xbc03ac0f	-0.008036627
179	0xbe30b760	-0.17257452
180	0xbd670a77	-0.056406464
181	0x3d34a21d	0.044099916
182	0xbe3a933e	-0.18220231
183	0xbd3031d9	-0.04301629
184	0x3e8fdda2	0.2809878
185	0xbdc21e02	-0.0947838
186	0x3e5f336e	0.21796963
187	0xbe4828d6	-0.19546828
188	0xbd17fde0	-0.03710735
189	0x3db83f03	0.089963935
190	0x3e712eac	0.2355296
191	0x3c3eae3c	0.01163822
192	0x3e657710	0.224087
193	0x3e494905	0.19656761
194	0x3d540130	0.051758945
195	0xbe16d9cc	-0.1473152
196	0xbe296149	-0.16541018
197	0xbc01601c	-0.007896449
198	0x3e83f2ac	0.2577108
199	0x3de32331	0.110906966
200	0x3be99461	0.007128284
201	0x3e2c9a85	0.1685582
202	0x3e093a6f	0.13401197
203	0xbdd75549	-0.10514314
204	0xbe191b28	-0.14951766
205	0xbc15c396	-0.00914087
206	0x3df81f19	0.121153064
207	0x3e2d24d2	0.16908577
208	0xbdd3e362	-0.10346104
209	0xbded7d23	-0.115961336
210	0xbd3c6176	-0.045991383
211	0xbdb112b0	-0.086461425
212	0x3e609311	0.21931101
213	0x3e8f043c	0.27932918
214	0xbd2b3f74	-0.04180856
215	0xbe10ee13	-0.14153318
216	0xbbe58d7a	-0.0070053907
217	0x3ea0d9c6	0.31416148
218	0x3d3e4538	0.04645273
219	0xbcf33f04	-0.029693134
220	0x3dacd748	0.08439499
221	0xbe0cfafb	-0.13767616
222	0xbcf44c3d	-0.02982151
223	0xbe103fbf	-0.14086817
224	0xbd7d350b	-0.061818164
225	0x3cce25a9	0.025164442
226	0xbc914c60	-0.017736614
227	0xbd50dc4c	-0.05099134
228	0xbe0e4891	-0.1389487
229	0x3e14c300	0.14527512
230	0x3e574480	0.21022224
231	0xbd9fb1bb	-0.07797571
232	0xbe48c3f1	-0.19605996
233	0xbe0c78b5	-0.13717921
234	0xbd92e1bd	-0.071719624
235	0xbe0b9f4c	-0.13634986
236	0x3c98245d	0.018572027
237	0xbe5d6810	-0.21621728
238	0x3e0e5379	0.1389903
239	0x3d22527a	0.039629437
240	0xbdd3dbba	-0.10344644
241	0xbd300d6b	-0.042981546
242	0x3e411908	0.18857205
243	0x3d39e4d0	0.04538423
244	0xbd532f84	-0.051558986
245	0xbdf027cf	-0.11726343
246	0xbb219e74	-0.0024661096
247	0x3c70df52	0.014701681
248	0xbc926832	-0.01787195
249	0xbe1a1fc3	-0.15051179
250	0xbe164e0a	-0.14678207
251	0x3ea020ab	0.31274924
252	0x3e298bd8	0.16557252
253	0x3df5fff2	0.12011708
254	0xbdfae12b	-0.12249979
255	0x3e86b235	0.26307836

lstm.bias_ih_l1 f4 [200]
0	0x3d5a7e65	0.053343195
1	0xbdc3c653	-0.09559312
2	0x3e53f421	0.20698597
3	0x3da7675a	0.081740096
4	0xbd452b39	-0.048136923
5	0x3dd823fb	0.10553738
6	0xbcc036f1	-0.023463698
7	0xbe134a50	-0.14383817
8	0x3e4039b7	0.18772016
9	0x3c62f129	0.013851442
10	0x3dd0a078	0.10186857
11	0x3cfe9148	0.031075135
12	0xbd0c4faa	-0.03425566
13	0x3da177fc	0.07884213
14	0x3d8d7940	0.06907892
15	0x3dde708b	0.108613096
16	0x3e4aacee	0.1979253
17	0x3e2b9a65	0.16758116
18	0x3d99555a	0.07486983
19	0x3c13ca0b	0.009020339
20	0x3ddf80c4	0.10913232
21	0x3ca429b7	0.020039422
22	0xbdf5a52c	-0.11994395
23	0x3e382348	0.17982209
24	0x3dcb1570	0.09916198
25	0x3e33530d	0.1751215
26	0xbd7bf741	-0.061515097
27	0xbc966821	-0.0183602
28	0x3cd0a6c2	0.025470141
29	0xbdf8e56b	-0.12153133
30	0xbda9566d	-0.082684375
31	0x3e2564c2	0.16151717
32	0xbd779952	-0.060448952
33	0xbd2f60fc	-0.0428171
34	0xbd065ffb	-0.032806378
35	0xbd62359e	-0.055226915
36	0x3e3d78fc	0.18503183
37	0xbcd6d9e8	-0.026226953
38	0xbe211bbc	-0.15733236
39	0x3e0c9043	0.13726906
40	0x3e8570b0	0.26062536
41	0x3e249148	0.16071045
42	0x3d8cc7cc	0.06874046
43	0xbd948763	-0.072523855
44	0xbde49e0d	-0.11162958
45	0xbe2d50d3	-0.16925363
46	0x3ea163c6	0.31521434
47	0x3e87a0c5	0.26489845
48	0xbde7c699	-0.11317176
49	0x3e1f35d4	0.15547878
50	0x3e6fb4b4	0.23408777
51	0x3d2f2569	0.042760286
52	0xbe86fd7c	-0.26365268
53	0x3e438c3d	0.19096465
54	0x3d429515	0.047505457
55	0x3da25163	0.079256795
56	0x3dff34a4	0.12461212
57	0xbd5d39e3	-0.054010283
58	0xbe1863b7	-0.14881788
59	0x3db89fdb	0.09014865
60	0xbe5f9917	-0.21835743
61	0x3e802bd7	0.25033447
62	0xbe336e69	-0.17522587
63	0x3c3cbb26	0.011519229
64	0x3cd317b5	0.02576814
65	0x3d5b0f62	0.053481467
66	0xbd2987ed	-0.041389395
67	0xbe2744ea	-0.16334882
68	0x3da1a094	0.07891956
69	0x3e0e1516	0.13875231
70	0xbddb3914	-0.10704246
71	0x3d0d17ae	0.03444641
72	0x3e26d8ac	0.16293591
73	0x3e8637cc	0.26214445
74	0x3d55d6ee	0.052206926
75	0x3e4a6bdc	0.19767708
76	0x3df6e155	0.120546974
77	0x3d9b303a	0.07577558
78	0x3cceecd6	0.025259417
79	0x3da8efbe	0.08248852
80	0xbe3d4fc0	-0.18487453
81	0x3db61e07	0.08892446
82	0x3d20b100	0.0392313
83	0x3d837dc2	0.06420471
84	0x3d803ab3	0.06261196
85	0x3d9b326d	0.07577977
86	0x3d3b363a	0.04570601
87	0x3daf0782	0.08546354
88	0xbb8c1e05	-0.0042760395
89	0xbdae2b2f	-0.0850433
90	0xbda87f43	-0.08227398
91	0xbd17b196	-0.037034594
92	0xbdce6e06	-0.10079579
93	0xbd712ef5	-0.058882672
94	0x3de736b5	0.112897314
95	0x3cd9cc45	0.026586661
96	0xbe9118b6	-0.28339165
97	0x3e1ce75e	0.15322635
98	0x3dda4b8a	0.10658939
99	0x3cbd30d8	0.02309458
100	0xbe169d7b	-0.14708512
101	0x3d835507	0.06412702
102	0x3e161af3	0.14658718
103	0x3dd2ff25	0.10302571
104	0x3d59f0cf	0.05320817
105	0x3d8f335e	0.069922194
106	0xbdec4a0c	-0.11537561
107	0xbd20e51b	-0.039280992
108	0xbc95c1a0	-0.018280804
109	0xbc6f3ebe	-0.014602361
110	0x3e03a0da	0.12854329
111	0x3dad644a	0.08466394
112	0x3db0574d	0.08610401
113	0x3e063639	0.13106622
114	0x3dcea0fa	0.100892976
115	0xbcd374c8	-0.025812522
116	0xbdd813c1	-0.10550643
117	0x3dba32e5	0.090917386
118	0x3e22d6c3	0.15902238
119	0xbda59668	-0.08085328
120	0xbd36d029	-0.04463211
121	0x3d3c0006	0.04589846
122	0xbe1558fd	-0.14584728
123	0x3e63dead	0.22252913
124	0xbe0974bc	-0.13423437
125	0x3cbfb9e9	0.023404079
126	0xbd58587a	-0.052818753
127	0x3d0adc8f	0.033901747
128	0xbc198039	-0.00936895
129	0xbcb89f37	-0.022536857
130	0x3e0fe0d5	0.1405061
131	0xbd1c9571	-0.038228456
132	0xbd560a97	-0.052256193
133	0xbd704a97	-0.058664884
134	0x3e06d970	0.13168883
135	0xbd07fafb	-0.033198338
136	0xbde6fc64	-0.112786084
137	0xbe068af5	-0.13138945
138	0x3e0d5d40	0.13805103
139	0x3dc28cbd	0.094995
140	0xbe16525e	-0.14679858
141	0xbcf5afab	-0.029990992
142	0x3dd30507	0.10303693
143	0x3de9240d	0.11383829
144	0x3db8c092	0.09021105
145	0xbe10b066	-0.1412979
146	0x3e36328c	0.1779272
147	0x3c6f98b4	0.01462381
148	0x3e278023	0.16357474
149	0xbe2439c0	-0.16037655
150	0x3e01eed9	0.1268877
151	0x3dd9f3f4	0.106422335
152	0x3dc00f78	0.093779504
153	0x3cc01741	0.023448588
154	0xbdf493cf	-0.11942255
155	0x3cbdafe1	0.023155155
156	0x3e4d9fe5	0.20080526
157	0xbce9245b	-0.028459718
158	0x3e9a8f41	0.3018742
159	0xbe3ecc80	-0.18632698
160	0x3a4eacae	0.00078840076
161	0x3d5867de	0.05283343
162	0x3d62f20a	0.055406608
163	0xbe354623	-0.17702536
164	0x3e5f41d8	0.21802461
165	0x3dde27dd	0.10847447
166	0x3e079037	0.13238607
167	0x3d69ab2e	0.057048015
168	0xbe2e5144	-0.17023188
169	0xbcbba98c	-0.022907995
170	0x3d9d60ae	0.07684456
171	0x3e1133a0	0.1417985
172	0xbb9c1894	-0.004763672
173	0x3d902835	0.07038919
174	0x3d7836ef	0.060599264
175	0x3d77079d	0.060309995
176	0xbd34b79b	-0.044120412
177	0x3e08a238	0.13343132
178	0x3d2ea540	0.042638063
179	0xbc40c178	-0.011764877
180	0xbe234e48	-0.1594783
181	0xbbed3ba3	-0.0072397753
182	0x3d54a562	0.051915534
183	0xbdd8cd8d	-0.10586081
184	0x3ddad9a4	0.10686043
185	0xbd85b39c	-0.065283984
186	0x3e6bdbeb	0.23033111
187	0x3d9080e0	0.07055831
188	0x3d9e462a	0.077282265
189	0xbdce8951	-0.10084785
190	0x3db2ca86	0.087300345
191	0xbe2ee318	-0.17078817
192	0xbdb96082	-0.090516105
193	0x3c24fcca	0.010070035
194	0x3beff43c	0.007322816
195	0xbe1cbd9a	-0.15306702
196	0x3e3f31d3	0.1867135
197	0x3e0ad426	0.1355749
198	0x3d710438	0.058841914
199	0x3b50eeab	0.0031880538

lstm.bias_hh_l1 f4 [200]
0	0x3daa8c77	0.08327573
1	0xbccfcfac	-0.02536758
2	0x3e89ec38	0.26938033
3	0x3db3e97a	0.087847665
4	0xbda5575b	-0.08073302
5	0x3e0b1e8a	0.13585868
6	0x3e29fccf	0.16600345
7	0xbd7cd938	-0.061730593
8	0x3e43263d	0.19057555
9	0xbd4e8578	-0.050420254
10	0xbd38a8bc	-0.045082793
11	0x3e38689f	0.1800866
12	0xbc80a4f8	-0.015703663
13	0xbe074ed2	-0.13213661
14	0x3e1d372c	0.15353078
15	0x3d08993d	0.033349264
16	0x3e2b76fb	0.16744606
17	0x3e53b80e	0.2067568
18	0x3da54925	0.08070592
19	0x3e190a32	0.14945295
20	0x3c5c0e09	0.013431081
21	0x3de98760	0.11402774
22	0x3de5457f	0.11194896
23	0x3d8dcb3e	0.06923531
24	0xbd3f0793	-0.046638083
25	0x3dea348b	0.11435803
26	0x3d83c3f0	0.064338565
27	0xbc52820c	-0.012848388
28	0x3ab93a22	0.0014131705
29	0xbe2ef6e6	-0.17086372
30	0x3dcbc039	0.09948773
31	0x3e4f7f39	0.20263375
32	0x3da785bd	0.081798054
33	0x3c5b5984	0.013388041
34	0xbcbd39cc	-0.023098849
35	0x3e09c3f9	0.13453664
36	0x3e64e88e	0.22354338
37	0xbca226f1	-0.01979396
38	0xbd8fce85	-0.07021812
39	0xbb86a8cc	-0.0041094776
40	0x3ebc8ac6	0.36824626
41	0x3d4a8096	0.049439035
42	0x3da02258	0.078190506
43	0x3e3eca47	0.1863185
44	0xbdbc1177	-0.09183019
45	0x3dc04547	0.093882136
46	0x3e868906	0.26276416
47	0x3e6d4b43	0.23173241
48	0xbe1d294d	-0.15347786
49	0x3ddc5431	0.10758246
50	0x3e391ac1	0.18076612
51	0xbdbac09b	-0.09118768
52	0xbe3cb19c	-0.18427128
53	0x3e8a377a	0.2699545
54	0xbe1022bc	-0.1407575
55	0x3ca73f96	0.020416062
56	0x3e1817c6	0.14852819
57	0x3dd3a04b	0.10333308
58	0xbe1a6753	-0.15078478
59	0x3dd910e0	0.10598922
60	0x3c971d56	0.018446606
61	0x3da621c7	0.08111911
62	0xbd1d0759	-0.038337085
63	0xbcd4898b	-0.025944492
64	0xbd0f5096	-0.034988962
65	0x3d7ce228	0.061739117
66	0xbd6121ce	-0.05496388
67	0xbd993315	-0.07480446
68	0x3dffcdd0	0.124904275
69	0x3e4f93fd	0.20271297
70	0xbc596931	-0.0132697085
71	0x3d9e9144	0.07742551
72	0x3d6c646f	0.05771297
73	0x3e67bff5	0.2263182
74	0xbd4990ec	-0.049210474
75	0x3e80dc11	0.25167897
76	0x3e58ef8e	0.21185133
77	0xbdfd2561	-0.12360645
78	0xbdd9910e	-0.1062337
79	0xbd9b870a	-0.07594116
80	0xbbc1120c	-0.005892044
81	0xbd96d0c2	-0.07364036
82	0xbd0fde07	-0.03512385
83	0x3da3617f	0.0797758
84	0x3da43129	0.08017189
85	0xbdf83f81	-0.121214874
86	0xbd9c38c6	-0.07628016
87	0x3e31aec2	0.17351821
88	0xbd26e451	-0.040745083
89	0x3d7876d4	0.0606602
90	0xbce531f5	-0.027977923
91	0xbcb9d005	-0.0226822
92	0xbc227da9	-0.009917655
93	0xbc9e045d	-0.01928919
94	0xbe169460	-0.14705038
95	0xbd51920e	-0.05116468
96	0xbddf2a57	-0.108967476
97	0xbdb8c2fe	-0.09021567
98	0x3d52f881	0.051506523
99	0x3c84b5f5	0.016200045
100	0xbd8d7079	-0.06906218
101	0x3dddd43b	0.108314954
102	0x3dd639bc	0.10460231
103	0x3d61819b	0.055055242
104	0xbde9b866	-0.11412124
105	0x3e06d5d9	0.13167514
106	0xbe3f9bf3	-0.18711834
107	0x3deb2109	0.1148091
108	0x3e0107e4	0.12600666
109	0xbcc9207a	-0.024551619
110	0xbd15c9b5	-0.036569316
111	0x3d026768	0.031836897
112	0xbd2692fb	-0.040667515
113	0x3ca197dd	0.019725734
114	0x3e317f72	0.17333773
115	0xbd880c20	-0.06642938
116	0xbd3218ec	-0.0434808
117	0x3df1cbce	0.11806451
118	0x3e059c4c	0.13047904
119	0xbd9c579f	-0.076339
120	0xbd5a0c24	-0.053234234
121	0x3e02b359	0.12763728
122	0xbc1ab303	-0.009442094
123	0x3e3df074	0.18548757
124	0x3ce4a0a7	0.027908636
125	0x3e05af5a	0.13055173
126	0xbc158952	-0.009126978
127	0x3dde095b	0.10841628
128	0x3e33e887	0.17569171
129	0xbde0fb0c	-0.109853834
130	0x3b93ae87	0.0045068893
131	0x3cb2464c	0.021762036
132	0xbd843734	-0.06455842
133	0xbdcca703	-0.099927925
134	0xbc8c4a64	-0.017125316
135	0x3c9a2b94	0.018819608
136	0xbdec0012	-0.11523451
137	0xbd8a03a2	-0.06738974
138	0x3e048acc	0.12943572
139	0x3c5b731d	0.013394144
140	0xbe0e4028	-0.13891661
141	0xbde90817	-0.11378496
142	0x3d9c1872	0.0762185
143	0xbd806f3b	-0.062712155
144	0x3d8a10ce	0.067414865
145	0xbe03186b	-0.12802283
146	0xbc25b980	-0.010115027
147	0x3c7c00ea	0.015381077
148	0x3c3e5c31	0.01161866
149	0xbd9e8ec2	-0.07742073
150	0x3e66f942	0.22556022
151	0xbd698371	-0.057010118
152	0x3e1d0cb0	0.15336871
153	0xbda8dd39	-0.0824532
154	0x3d6d9899	0.058006857
155	0x3dacf8d6	0.08445899
156	0x3e3615cd	0.17781754
157	0x3d0fe440	0.035129786
158	0x3e0a0a82	0.13480571
159	0xbe31555a	-0.17317715
160	0x3d9e5bee	0.07732378
161	0x3de1a4bd	0.110177495
162	0x3d315035	0.043289382
163	0xbddb4e75	-0.10708324
164	0xbcb8ddf0	-0.022566766
165	0xbd93f6d9	-0.07224817
166	0x3e461efe	0.1934776
167	0x3e54808a	0.20752159
168	0x3d375afc	0.044764504
169	0xbd904c25	-0.070457734
170	0x3daa59c9	0.083179064
171	0x3d28a772	0.041175313
172	0xbe51823f	-0.20459841
173	0xbcf4d880	-0.029888391
174	0x3de69d78	0.112605035
175	0x3e609256	0.21930823
176	0xbc9864af	-0.018602697
177	0xbe058eb8	-0.13042724
178	0x3d34dde3	0.04415692
179	0xbde9b567	-0.11411553
180	0xbd472a7c	-0.0486245
181	0x3dac7a11	0.0842172
182	0xbcd0fce5	-0.025511215
183	0x3d5952c5	0.05305745
184	0x3e3c998a	0.18417946
185	0x3cc4404e	0.023956444
186	0x3ddac252	0.10681595
187	0x3defc9bf	0.11708402
188	0x3cd92edc	0.026511602
189	0xbd9dbe38	-0.07702297
190	0x3e86eb63	0.2635146
191	0xbd6d92d5	-0.058001358
192	0xbe246824	-0.16055351
193	0x3d189a68	0.03725663
194	0x3de2ca40	0.110737324
195	0x3d93fd58	0.07226056
196	0x3ea71783	0.32635126
197	0x3e683294	0.22675544
198	0x3d856200	0.06512833
199	0x3e3cdade	0.18442866
