src/model/lstm_petra.pth (torch, 208892 bytes, 13 tensors)

lstm.weight_ih_l0 f4 [200, 1]
-0.09447662 -0.29824546 -0.2935282 -0.44156596 -0.009266234 -0.043801837 0.08295237 -0.17388478
0.4482149 -0.18599948 -0.13581988 -0.24858744 -0.014911243 -0.17306495 0.253386 -0.38094643
0.027845643 -0.31947497 -0.17261337 -0.18800887 -0.10405255 -0.06624719 0.20050378 -0.11277877
-0.145199 -0.23130918 -0.008207068 -0.07997554 0.33329394 0.051425718 0.027680814 0.047732685
0.44392893 0.3125491 -0.20391586 0.035628755 -0.011309236 -0.26461244 0.039720975 -0.3059898
0.09222336 -0.38070908 -0.035642557 -0.011497885 0.15925284 0.34478024 -0.4695063 -0.021700963
0.14852522 -0.3593308 -0.14877348 0.28021547 -0.1286111 0.013733588 0.19378825 0.22709355
0.089418195 -0.073838145 0.50341976 -0.057859693 -0.05067267 -0.10307398 0.08319204 0.06597287
0.5779432 0.135739 0.3367102 0.31654778 -0.13931881 0.23678036 0.27715963 0.06407126
-0.0060000033 0.12586126 -0.11417473 -0.056816716 0.050013702 0.06962814 0.31397322 0.0942297
0.2017308 0.30099627 0.39528543 0.24727751 -0.35608032 0.17334436 -0.065209284 0.07330855
0.0949545 -0.09321831 0.24994795 -0.041902244 0.036591604 -0.059899352 0.423218 0.18664975
0.13703258 0.016537365 0.2552263 0.103907675 -0.41953003 0.3421725 0.21265279 -0.43093574
-0.19479807 -0.08661191 0.122099325 -0.07474884 -0.27171087 0.21103035 0.26399964 -0.33601716
0.24859588 0.31307417 0.16819681 0.48521605 -0.18996678 0.40834057 -0.43136135 -0.48849866
0.44639835 -0.33660957 -0.093051024 -0.2646264 -0.32323164 0.500897 -0.26431102 0.20480187
0.33442843 -0.29092422 0.49665743 -0.42976263 0.34609157 0.13443115 -0.20198219 -0.1899934
-0.12705955 -0.41422328 -0.3356903 -0.4051974 -0.30587828 0.35795265 0.32789865 -0.27930257
0.1451635 0.44030425 -0.47649083 0.21831727 0.27071607 -0.32489383 -0.09949105 -0.04261113
-0.17015846 -0.27963394 -0.24206358 0.18259034 0.05229444 -0.17643397 0.832051 0.15824006
-0.14107709 -0.13003111 -0.26733732 -0.118185684 0.5524652 -0.09002416 0.22995111 -0.2413297
-0.26851854 0.063156195 -0.25065738 -0.09440191 -0.09116454 0.5810908 -0.16379741 -0.053190082
-0.13816163 0.37872538 0.49427885 0.13404128 0.20424996 0.21715298 0.893617 0.35826695
-0.029078541 0.14710256 0.1082732 -0.28871 -0.082364626 -0.16546768 0.14402127 -0.29614606
-0.110366754 -0.1519816 0.1380178 0.31133297 -0.5227829 -0.21835311 0.37289715 -0.28073224
00000000: f57c c1bd a1b3 98be 5449 96be ef14 e2be
00000010: 67d1 17bc 8e69 33bd efe2 a93d da0e 32be
00000020: 6c7c e53e a676 3ebe 5e14 0bbe b58d 7ebe
00000030: 494e 74bc f037 31be cfbb 813e 690b c3be
00000040: 8c1c e43c 3992 a3be 8fc1 30be 6685 40be
00000050: 8119 d5bd 9bac 87bd dd50 4d3e 8ef8 e6bd
00000060: 0caf 14be 50dc 6cbe f076 06bc 37ca a3bd
00000070: 81a5 aa3e c6a3 523d e0c2 e23c 5983 433d
00000080: a74a e33e 7006 a03e 52cf 50be 75ef 113d
00000090: 604a 39bc 487b 87be 76b2 223d b2aa 9cbe
000000a0: 9adf bc3d 4dec c2be eefd 11bd a061 3cbc
000000b0: 2d13 233e 0987 b03e 2163 f0be 38c6 b1bc
000000c0: ff16 183e 35fa b7be 1358 18be 6778 8f3e
000000d0: a1b2 03be d802 613c 6d70 463e 368b 683e
000000e0: e320 b73d 7438 97bd 1ee0 003f 49fe 6cbd
000000f0: 258e 4fbd 7318 d3bd 9760 aa3d c91c 873d
00000100: 16f4 133f 2aff 0a3e 4865 ac3e 8d12 a23e
00000110: 97a9 0ebe 8d76 723e dee7 8d3e cb37 833d
00000120: ad9b c4bb c6e1 003e 71d4 e9bd a5b8 68bd
00000130: 2bdb 4c3d 3399 8e3d 19c1 a03e 80fb c03d
00000140: 8592 4e3e 2f1c 9a3e da62 ca3e 5136 7d3e
00000150: 2950 b6be 2f81 313e 728c 85bd cb22 963d
00000160: 8177 c23d 3ee9 bebd 5bf2 7f3e b0a1 2bbd
00000170: 14e1 153d 0659 75bd 08b0 d83e 1d21 3f3e
00000180: 4552 0c3e 5e79 873c 06ad 823e 8ccd d43d
00000190: a4cc d6be 3c31 af3e a7c1 593e 9ca3 dcbe
000001a0: 2579 47be 9661 b1bd 360f fa3d eb15 99bd
000001b0: b01d 8bbe 5718 583e f62a 873e 710a acbe
000001c0: eb8f 7e3e 424b a03e c93b 2c3e 3d6e f83e
000001d0: a786 42be 0412 d13e 65db dcbe 7f1c fabe
000001e0: 538e e43e 1758 acbe 8991 bebd 1d7d 87be
000001f0: 9e7e a5be c93a 003f c653 87be 95b7 513e
00000200: 343a ab3e 05f4 94be e249 fe3e d909 dcbe
00000210: ea32 b13e 52a8 093e 6bd4 4ebe a18d 42be
00000220: e61b 02be 1315 d4be 99df abbe 0976 cfbe
00000230: 149c 9cbe 9245 b73e 55e2 a73e bf00 8fbe
00000240: bea5 143e 8f6f e13e 9bf6 f3be 908e 5f3e
00000250: 4c9b 8a3e 7c58 a6be f7c1 cbbd 0289 2ebd
00000260: 053e 2ebe 2e2c 8fbe 84df 77be f6f8 3a3e
00000270: b232 563d 1bab 34be 4b01 553f af09 223e
00000280: 8376 10be e026 05be 70e0 88be 560b f2bd
00000290: 5c6e 0d3f 965e b8bd 4e78 6b3e 221f 77be
000002a0: 437b 89be 0958 813d 2a56 80be ca55 c1bd
000002b0: 79b4 babd 5ec2 143f 82ba 27be d8dd 59bd
000002c0: 3e7a 0dbe 4be8 c13e 1e12 fd3e 1e42 093e
000002d0: e726 513e 5a5d 5e3e 15c4 643f c46e b73e
000002e0: 1f36 eebc 0ea2 163e 57be dd3d ccd1 93be
000002f0: c9ae a8bd 5c70 29be 507a 133e 75a0 97be
00000300: f707 e2bd 11a1 1bbe 8a54 0d3e 0967 9f3e
00000310: 1ad5 05bf f597 5fbe 60ec be3e 23bc 8fbe

lstm.weight_hh_l0 f4 [200, 50]
0.16313566 0.14364193 0.121738225 0.008415322 -0.5760771 -0.46680045 0.3019622 -0.3877454
-0.2764272 0.52252513 0.3002843 -0.077410676 0.3516776 0.1109671 0.43931523 0.12898691
-0.09635466 -0.3326305 -0.21255082 -0.22767098 0.25716466 -0.21468712 -0.24534735 -0.8122575
-0.013605033 0.077198826 -0.44637412 0.37663707 0.12721528 -0.1289675 0.017198777 -0.25506356
0.75765586 0.34957638 -0.4950984 -0.0373613 -0.6200325 0.07727084 -0.19218098 -0.054989498
-0.30753842 0.157984 0.18568274 -0.19987108 0.3682353 0.23724283 -0.18853582 -0.0728088
0.2574277 -0.021788515 -0.27080685 0.24367641 -0.16716304 0.16356829 -0.05716404 -0.0555702
0.5740619 0.14439075 -0.32486492 -0.12014554 -0.58476263 0.02457801 0.25099117 -0.18830685
0.51139456 0.028219074 -0.42183864 0.14688848 -0.019960646 -0.08051209 -0.085744604 0.37401602
-0.23984313 -0.5946182 0.1600434 0.01606609 -0.37753686 0.41994914 0.5126305 -0.23143332
0.17895652 -0.05844269 0.2842526 0.35274735 0.39861685 -0.27255183 0.49446338 0.087564
-0.3314433 0.31625775 0.17031807 -0.342315 0.21892276 -0.429856 0.44010124 -0.00027043448
0.23053835 -0.43963054 0.55373055 -0.031183507 0.106153466 -0.047924336 -0.13256171 0.14787588
-0.0490465 -0.16799198 0.06855905 -0.049736146 0.11299502 -0.05222006 -0.1506079 0.19207451
0.069364026 0.12029781 -0.08709778 -0.0949161 0.05390534 0.03226611 -0.012738332 0.010875487
-0.06712104 0.19610201 -0.03830077 -0.09370981 0.11773959 0.08840474 0.05340828 0.047733862
0.1867529 0.052647047 0.12176225 -0.16113245 0.12087565 0.17758763 -0.015897138 -0.012190212
0.01384285 -0.01618681 0.0115302 0.23074874 0.12967147 -0.32809335 -0.007113981 0.06481647
0.06778904 -0.19126865 0.19100946 0.12162835 -0.10765489 0.28888437 0.0225009 0.07924388
-0.30680093 0.017393278 -0.11150461 -0.1448525 0.6636916 0.26646623 -0.7753978 -0.010554779
-0.50375015 0.03358118 0.36391857 -0.010293311 0.9037087 0.14526847 -0.23043804 -0.20419002
0.20245408 -0.31874183 0.13187054 -0.02573093 -0.6377708 -0.84193057 0.26135865 0.098228626
-0.32014596 1.0537202 0.67908627 -0.3474821 0.12033069 -0.046406634 0.60092336 0.38750425
0.2301212 -0.20571116 0.77092326 0.19282915 -0.1441233 -0.12919368 -0.09987916 -0.12753499
0.22427638 -0.45092073 0.77814054 0.15889122 0.15034941 -0.6496876 0.9276682 0.017652925
0.21115905 0.17349498 -0.030651541 0.27840263 0.07197647 -0.110898115 0.03179425 -0.12878388
-0.08274307 -0.11762328 -0.008774109 0.1309178 0.16391142 0.13164449 0.23603977 -0.004384683
0.04207729 0.11996915 -0.06884439 -0.17272234 -0.06879684 -0.007864416 0.010155593 -0.21264742
0.097040124 -0.0006545056 -0.06110465 0.17702675 0.19661428 0.10339967 0.22960237 -0.019736134
0.16885462 0.17072813 -0.046745695 -0.18136387 0.018885056 -0.17435715 0.009595697 -0.020380085
0.08947454 0.073211454 0.010283294 -0.021055479 0.06882848 -0.042643487 0.048711296 -0.073405884
0.08738924 0.16772005 -0.12163289 -0.39236385 -0.102659896 0.47866076 -0.03050456 -0.23471552
00000000: 090d 273e df16 133e e451 f93d 6be0 093c
00000010: ca79 13bf 7800 efbe ca9a 9a3e 9186 c6be
00000020: de87 8dbe 35c4 053f ddbe 993e 7d89 9ebd
00000030: 160f b43e b842 e33d eded e03e 2515 043e
00000040: 9855 c5bd 8b4e aabe eca6 59be 9522 69be
00000050: 16ab 833e f1d6 5bbe 563c 7bbe 1cf0 4fbf
00000060: a5e7 5ebc 6b1a 9e3d 268b e4be 93d6 c03e
00000070: b944 023e 0e10 04be 73e4 8c3c b197 82be
00000080: bcf5 413f adfb b23e 8a7d fdbe 2a08 19bd
00000090: 73ba 1ebf 2d40 9e3d 17cb 44be ab3c 61bd
000000a0: ad75 9dbe 8fc6 213e 9e23 3e3e 01ab 4cbe
000000b0: 5689 bc3e c9ef 723e 890f 41be c81c 95bd
000000c0: 90cd 833e d47d b2bc 32a7 8abe 4f86 793e
000000d0: ca2c 2bbe 727e 273e d724 6abd 949d 63bd
000000e0: b8f5 123f 2bdb 133e b254 a6be dd0e f6bd
000000f0: 01b3 15bf d357 c93c ea81 803e 83d3 40be
00000100: c1ea 023f b02b e73c 3cfb d7be ef69 163e
00000110: 8284 a3bc 86e3 a4bd de9a afbd 077f bf3e
00000120: 7099 75be e638 18bf 6be2 233e 089d 833c
00000130: 834c c1be 9303 d73e c13b 033f dbfc 6cbe
00000140: 6140 373e 9a61 6fbd 8f89 913e 4d9b b43e
00000150: 8217 cc3e ea8b 8bbe 4e2a fd3e c154 b33d
00000160: f0b2 a9be 89ec a13e dc67 2e3e e943 afbe
00000170: 4a2d 603e 1616 dcbe f354 e13e 1ac9 8db9
00000180: 3f12 6c3e 4117 e1be 49c1 0d3f 8e74 ffbc
00000190: fd66 d93d 4f4c 44bd 42be 07be c66c 173e
000001a0: fce4 48bd 1706 2cbe b068 8c3d 21b8 4bbd
000001b0: ef69 e73d b4e4 55bd f538 1abe 2eaf 443e
000001c0: ba0e 8e3d b35e f63d 5260 b2bd 5f63 c2bd
000001d0: d9cb 5c3d 7829 043d 70b4 50bc 192f 323c
000001e0: c176 89bd f7ce 483e 45e1 1cbd eeea bfbd
000001f0: 7421 f13d 8b0d b53d a4c2 5a3d 9584 433d
00000200: 273c 3f3e 6ea4 573d 7d5e f93d e8ff 24be
00000210: a78d f73d 88d9 353e b73a 82bc 74b9 47bc
00000220: 1fcd 623c 339a 84bc 2ae9 3c3c 6649 6c3e
00000230: 99c8 043e dafb a7be 661c e9bb 7fbe 843d
00000240: fbd4 8a3d eedb 43be fc97 433e 4918 f93d
00000250: 2b7a dcbd a7e8 933e cf53 b83c 9e4a a23d
00000260: 0315 9dbe 597c 8e3c 875c e4bd 3754 14be
00000270: b1e7 293f 436e 883e 7880 46bf f4ed 2cbc
00000280: c5f5 00bf 6b8c 093d 8953 ba3e 47a5 28bc
00000290: 7459 673f 42c1 143e f3f7 6bbe 3017 51be
000002a0: 1f50 4f3e 2132 a3be 1209 073e acc9 d2bc
000002b0: f244 23bf c388 57bf cdd0 853e 172c c93d
000002c0: 2cea a3be 4ee0 863f 99d8 2d3f 2ce9 b1be
000002d0: f06f f63d e214 3ebd 1dd6 193f f566 c63e
000002e0: e4a4 6b3e f2a5 52be 3a5b 453f 0175 453e
000002f0: 0f95 13be 594b 04be 728d ccbd 8898 02be
00000300: b5a8 653e 15df e6be 3834 473f 61b4 223e
00000310: 32f5 193e ed51 26bf aa7b 6d3f de9c 903c
00000320: 143a 583e aba8 313e f118 fbbc ca8a 8e3e
00000330: 6668 933d 8d1e e3bd b03a 023d ecdf 03be
00000340: 3375 a9bd 79e4 f0bd 48c1 0fbc 510f 063e
00000350: 65d8 273e d0cd 063e 69b4 713e 63ad 8fbb
00000360: 3d59 2c3d 63b2 f53d 4afe 8cbd 20de 30be
00000370: 5ce5 8cbd c0d9 00bc a563 263c 3fc0 59be
00000380: f9bc c63d 2193 2bba df48 7abd 8046 353e
00000390: 4155 493e 35c3 d33d e21c 6b3e acad a1bc
000003a0: 3ae8 2c3e 5bd3 2e3e 6a78 3fbd 73b7 39be
000003b0: d5b4 9a3c ae8a 32be 4537 1d3c 23f4 a6bc
000003c0: 6d3e b73d e3ef 953d 437b 283c 8a7c acbc
000003d0: f2f5 8c3d f0aa 2ebd 7f85 473d d355 96bd
000003e0: 21f9 b23d cebe 2b3e aa1a f9bd eae3 c8be
000003f0: 5a3f d2bd 0613 f53e b3e4 f9bc 4459 70be

lstm.bias_ih_l0 f4 [200]
-0.056731094 0.47324148 0.12854578 0.49880612 -0.05114299 -0.16047336 -0.26186612 -0.10798283
-0.14471057 -0.0035049557 0.08523579 0.20563164 0.04898624 0.2035178 -0.07505337 0.45203832
-0.14019649 0.9988488 0.17045803 -0.09379305 0.48819518 0.12156751 0.052219413 -0.121590376
0.19502941 0.39096215 -0.1760954 0.31474876 0.053507358 0.06722085 -0.10477583 -0.0940941
0.046038374 -0.17724171 0.020538203 0.023120556 0.13086857 0.3625541 0.1772284 0.16898465
0.1028094 0.7257847 -0.0053818417 0.14874013 -0.28967708 -9.510308e-05 0.78374213 -0.08212561
-0.014952475 0.2734817 0.04081071 -0.23972313 -0.38850555 -0.3950988 0.032619692 0.11798771
-0.17967212 -0.08756876 -0.0575666 0.114856355 0.052290384 -0.17454305 0.03877901 -0.24423271
-0.14167894 -0.42658895 -0.24623787 -0.4436566 -0.2993197 -0.3776501 -0.43729404 -0.058789995
-0.10464316 -0.17047414 -0.14347349 -0.33270136 -0.37045687 0.14411157 -0.4728568 -0.124683246
-0.21970339 -0.23868635 -0.09419173 0.011691507 0.083641514 -0.25539878 -0.108647436 -0.39738086
-0.3612041 -0.05828955 -0.24931952 -0.1916821 -0.14956863 0.02828088 -0.14062268 -0.24153185
-0.5315768 -0.14080097 -0.19292007 -0.2576677 -0.06304493 0.07841388 0.09897426 -0.029023817
-0.0710265 0.061638515 0.083968125 -0.075972095 -0.033142895 0.12378253 0.0559233 -0.06083711
0.17749046 0.08060825 0.066791534 0.002671049 -0.03549534 -0.05798072 -0.15876777 0.021516591
-0.06675508 -0.07795726 -0.037995383 -0.076722525 -0.08603184 -0.04767538 -0.07463515 0.094373785
0.08978659 -0.050943 0.13938491 0.069202274 -0.20601603 0.011755126 -0.07511808 0.015585044
-0.017469717 -0.21082109 -0.13949849 0.013316436 0.06704258 0.16016279 -0.05974139 -0.12512249
0.026141811 -0.13014773 -0.15952308 -0.08312172 -0.045424927 -0.14602719 -0.025408542 0.45745087
-0.04826547 0.54589295 0.13932101 0.0063161217 -0.22864869 -0.008364677 -0.36171582 0.13115774
0.24722143 0.14855187 0.14094198 0.4201922 -0.1763936 0.73670584 -0.10843521 0.8287478
0.15842004 0.231127 0.4122203 0.24903567 -0.057565033 -0.0579189 0.3637058 0.41350436
-0.13778545 0.14633228 -0.007555773 0.09853105 -0.036157794 0.06409184 -0.21285778 -0.037744243
0.21630087 -0.03157529 0.045493275 0.5334439 0.14901277 0.33668005 -0.057596076 0.6219919
-0.007593532 0.006982148 -0.18934333 -0.20660996 0.9055899 -0.16261584 -0.25569043 0.26940367
00000000: dd5e 68bd b54c f23e 81a1 033e 8463 ff3e
00000010: 507b 51bd 2153 24be 5113 86be 1a26 ddbd
00000020: 022f 14be 66b3 65bb 1a90 ae3d 1a91 523e
00000030: cca5 483d f866 503e 95b5 99bd 9171 e73e
00000040: ab8f 0fbe 8eb4 7f3f 8d8c 2e3e 9216 c0bd
00000050: b8f4 f93e 63f8 f83d 06e4 553d 6004 f9bd
00000060: cab5 473e 312c c83e 5a52 34be c026 a13e
00000070: 882a 5b3d 16ab 893d b694 d6bd 68b4 c0bd
00000080: bc92 3c3d da7e 35be bc3f a83c 5267 bd3c
00000090: 6902 063e b1a0 b93e 5d7b 353e 500a 2d3e
000000a0: bc8d d23d 07cd 393f 295a b0bb 554f 183e
000000b0: 8e50 94be 1472 c7b8 53a3 483f 7931 a8bd
000000c0: 3afb 74bc cb05 8c3e 2229 273d fb79 75be
000000d0: 33ea c6be 644a cabe 3a9c 053d 8aa3 f13d
000000e0: f8fb 37be 4057 b3bd f5ca 6bbd cf39 eb3d
000000f0: 712e 563d 6abb 32be bdd6 1e3d 2418 7abe
00000100: 4914 11be de69 dabe c825 7cbe f526 e3be
00000110: 6f40 99be 5b5b c1be 01e5 dfbe c7cd 70bd
00000120: 274f d6bd c690 2ebe b7ea 12be d557 aabe
00000130: 86ac bdbe fc91 133e 491a f2be ee59 ffbd
00000140: edf9 60be 326a 74be 98e7 c0bd bc8d 3f3c
00000150: 3e4c ab3d a1c3 82be 8c82 debd 8175 cbbe
00000160: beef b8be 06c1 6ebd 9e4d 7fbe 5048 44be
00000170: 8528 19be 4ead e73c 64ff 0fbe 2054 77be
00000180: 6b15 08bf 212e 10be d78c 45be 05ed 83be
00000190: b31d 81bd 7597 a03d 04b3 ca3d 5bc3 edbc
000001a0: 5776 91bd ab78 7c3d 7bf7 ab3d 4297 9bbd
000001b0: d8c0 07bd b281 fd3d d50f 653d 5530 79bd
000001c0: 0fc0 353e f015 a53d 00ca 883d c40c 2f3b
000001d0: 9063 11bd 317d 6dbd 0594 22be 9043 b03c
000001e0: e3b6 88bd 0ea8 9fbd 0ca1 1bbd b320 9dbd
000001f0: 7631 b0bd 4247 43bd 50da 98bd 0b47 c13d
00000200: 08e2 b73d 9ba9 50bd ebba 0e3e ecb9 8d3d
00000210: def5 52be 9298 403c 82d7 99bd 6a58 7f3c
00000220: a71c 8fbc 7ce1 57be b1d8 0ebe 2e2d 5a3c
00000230: 9f4d 893d b701 243e 63b3 74bd 1c20 00be
00000240: 5a27 d63c 7245 05be 055a 23be b83b aabd
00000250: 7d0f 3abd 2788 15be 9325 d0bc 0037 ea3e
00000260: 03b2 45bd a4bf 0b3f 2baa 0e3e 78f7 ce3b
00000270: e222 6abe 000c 09bc d132 b9be 374e 063e
00000280: 9d27 7d3e fb1d 183e 1853 103e 6f23 d73e
00000290: 86a0 34be c198 3c3f 4813 debd d128 543f
000002a0: dd38 223e 8eac 6c3e 8a0e d33e 3503 7f3e
000002b0: 50c9 6bbd 5e3c 6dbd a637 ba3e d8b6 d33e
000002c0: a117 0dbe 21d8 153e 6b96 f7bb a6ca c93d
000002d0: 321a 14bd 9542 833d 64f7 59be b599 1abd
000002e0: fa7d 5d3e 1755 01bd 2857 3a3d c88f 083f
000002f0: ce96 183e 5461 ac3e dde9 6bbd dc3a 1f3f
00000300: 2ad3 f8bb 81ca e43b 38e3 41be 9091 53be
00000310: bdd4 673f c484 26be dbe9 82be 47ef 893e

lstm.bias_hh_l0 f4 [200]
-0.18480872 0.40860233 -0.046572253 0.5423908 0.0035515528 0.014386358 -0.1367057 0.03456898
-0.089387566 0.21083327 -0.007344542 0.12250306 0.10085115 0.3473426 -0.0362241 0.5573138
-0.090337016 1.0085133 0.1742262 0.039535396 0.318854 0.047674768 0.027735012 -0.17839487
0.36127868 0.29582256 -0.12946974 0.26029152 0.039664116 0.14329849 -0.1689503 -0.163788
0.0065387622 -0.014089787 0.08425857 -0.06503871 0.06505881 0.35681385 -0.005560062 0.2793429
-0.079997554 0.69065356 -0.01692513 0.037876457 -0.22839428 0.044912722 0.6427902 -0.14330214
0.024626546 0.1390851 -0.123260655 -0.38798678 -0.1673751 -0.4570147 0.24350895 -0.08940905
-0.18076102 -0.19125424 -0.12881029 0.16680789 0.057995144 -0.14042422 0.07804583 -0.36085153
-0.08416208 -0.25168562 -0.10539856 -0.2763606 -0.30546743 -0.36972082 -0.39068148 -0.21920535
-0.020504689 -0.14686461 -0.27889943 -0.43497568 -0.36820754 0.17614813 -0.47667623 -0.18845782
-0.28963426 -0.37255895 -0.09392736 0.071944 0.25870687 -0.13630387 -0.06640379 -0.21233986
-0.22080123 -0.07686547 -0.031590626 -0.2485693 -0.2978316 -0.05380206 -0.17544241 -0.24232215
-0.2883832 -0.11407185 -0.17836666 -0.19930665 0.019713884 0.06857031 0.0883399 -0.10237888
-0.10459536 -0.13179743 0.019722996 -0.05812015 0.0973763 0.07082121 0.059803687 -0.10344105
-0.0061662234 0.05520039 -0.034347627 0.14651522 -0.09806695 0.11691367 -0.00025979787 -0.090623945
0.16055076 -0.073808394 -0.07823595 0.025404258 -0.10709627 0.18096438 -0.00047946858 0.10288019
-0.008698897 -0.09828885 -0.096069224 -0.028379725 -0.05868697 0.067549065 0.0801663 -0.13211037
0.09544976 0.04584426 0.04309515 -0.14776284 -0.16097149 0.01514131 0.17447357 -0.09666459
0.046540517 -0.06984241 0.00810293 -0.010280083 0.075370215 0.015377215 -0.074893825 0.3174216
-0.08061321 0.4633559 0.0595536 -0.14267927 -0.29610896 -0.18445191 -0.3028416 0.004746981
0.24829529 0.07014512 -0.09771869 0.37183127 -0.34262204 0.70196116 -0.2506532 0.9100316
0.1962456 0.12499276 0.3770164 0.2885044 -0.109302446 -0.09319646 0.17284353 0.40393353
-0.097475626 0.062156096 -0.17548801 0.28221375 -0.09941492 -0.13755424 -0.20309007 -0.10038419
0.11009056 0.036671508 0.030858114 0.38639948 0.11642907 0.20266983 -0.11944171 0.65087014
0.051333662 -0.004461621 -0.18641235 -0.15133674 0.6976607 -0.050103217 -0.029852405 0.29367375
00000000: 7f3e 3dbe 5334 d13e 8cc2 3ebd 20da 0a3f
00000010: 2bc1 683b c2b4 6b3c 94fc 0bbe 3498 0d3d
00000020: d410 b7bd ade4 573e 7caa f0bb e2e2 fa3d
00000030: 0c8b ce3d e4d6 b13e b95f 14bd 1eac 0e3f
00000040: 9d02 b9bd f716 813f 5a68 323e deef 213d
00000050: d540 a33e 9e46 433d 8934 e33c 25ad 36be
00000060: 85f9 b83e 0e76 973e b793 04be ee44 853e
00000070: d776 223d d7bc 123e 4f01 2dbe 0bb8 27be
00000080: 1d43 d63b dad8 66bc c28f ac3d 0433 85bd
00000090: 8e3d 853d 4eb0 b63e 2e31 b6bb 0806 8f3e
000000a0: c2d5 a3bd acce 303f 92a6 8abc 5824 1b3d
000000b0: 31e0 69be 67f6 373d e68d 243f ccbd 12be
000000c0: 9cbd c93c 536c 0e3e 1570 fcbd 34a6 c6be
000000d0: 6164 2bbe d5fd e9be 695a 793e 181c b7bd
000000e0: 6b19 39be 27d8 43be d8e6 03be b0cf 2a3e
000000f0: 518c 6d3d 5ecb 0fbe 7ed6 9f3d 88c1 b8be
00000100: 2b5d acbd f0dc 80be 33db d7bd 237f 8dbe
00000110: 3a66 9cbe 0c4c bdbe 6707 c8be 5e77 60be
00000120: 73f9 a7bc ad63 16be e8cb 8ebe 22b5 debe
00000130: b385 bcbe 2d60 343e e80e f4be 16fb 40be
00000140: f14a 94be 0cc0 bebe fd5c c0bd 6057 933d
00000150: 3a75 843e 3e93 0bbe b6fe 87bd 9f6f 59be
00000160: b819 62be a56b 9dbd 2c65 01bd f388 7ebe
00000170: 627d 98be 8d5f 5cbd 2da7 33be 4c23 78be
00000180: f6a6 93be 819e e9bd c0a5 36be 0b17 4cbe
00000190: 037f a13c 976e 8c3d 8deb b43d 05ac d1bd
000001a0: 1836 d6bd e8f5 06be 1f92 a13c 650f 6ebd
000001b0: 3a6d c73d b60a 913d b6f4 743d e7d8 d3bd
000001c0: 080e cabb ce19 623d 19b0 0cbd 1608 163e
000001d0: 53d7 c8bd 6f70 ef3d 7b35 88b9 0c99 b9bd
000001e0: 6b67 243e db28 97bd 2b3a a0bd 971c d03c
000001f0: 4a55 dbbd ba4e 393e 2f61 fbb9 d9b2 d23d
00000200: d285 0ebc aa4b c9bd f1bf c4bd 997c e8bc
00000210: c061 70bd 2a57 8a3d 3b2e a43d f147 07be
00000220: 2a7b c33d 31c7 3b3d 8a84 303d 244f 17be
00000230: b6d5 24be 4213 783c 33a9 323e 16f8 c5bd
00000240: 45a1 3e3d 8a09 8fbd 27c2 043c cb6d 28bc
00000250: b35b 9a3d b7f0 7b3c ef61 99bd 1585 a23e
00000260: 8a18 a5bd fc3c ed3e 7aee 733d 841a 12be
00000270: 989b 97be f6e0 3cbe 0e0e 9bbe 908c 9b3b
00000280: 1f41 7e3e 3fa8 8f3d bd20 c8bd ab60 be3e
00000290: 286c afbe bab3 333f 9e55 80be d5f7 683f
000002a0: 9bf4 483e 34fc ff3d 4b08 c13e d9b6 933e
000002b0: f6d9 dfbd c9dd bebd e5fd 303e 60d0 ce3e
000002c0: 4da1 c7bd 6497 7e3d 21b3 33be 527e 903e
000002d0: 0d9a cbbd 05db 0cbe d8f6 4fbe 3a96 cdbd
000002e0: 2977 e13d dd34 163d 28ca fc3c 27d6 c53e
000002f0: 5d72 ee3d ae88 4f3e db9d f4bd 6d9f 263f
00000300: 3f43 523d ca32 92bb e1e2 3ebe 05f8 1abe
00000310: e499 323f 0839 4dbd 088d f4bc 685c 963e

lstm.weight_ih_l1 f4 [200, 50]
-0.12920184 -0.034129765 -0.19602074 0.06048357 0.14962766 0.09245117 -0.19334704 0.14864819
-0.10057836 -0.12585916 -0.09566951 0.0496094 -0.16352542 0.028973622 0.14819062 -0.14427008
0.21079119 -0.27341524 -0.05720284 -0.11714488 -0.22900434 0.2665045 -0.03357173 -0.16608717
0.3058954 -0.17223123 -0.027362296 -0.15606032 0.023553679 0.14513925 0.032966673 -0.2594494
0.15384606 -0.011738523 0.15420707 0.17606203 0.15967254 0.05329046 0.06361268 0.24016257
0.07621977 -0.198211 -0.017541096 0.15916446 0.118038364 0.027391661 0.038489606 0.02581928
0.024715483 0.31873766 -0.56162983 -0.2478173 0.2769292 0.21257877 -0.05249355 -0.15283932
0.0028449332 -0.17546546 -0.038865715 -0.07552075 -0.12281374 -0.033038467 0.061206575 0.048780005
0.18425229 -0.06693598 0.07237294 0.27001646 0.051744126 -0.44736597 -0.20327713 -0.18500936
-0.23162964 -0.12085399 -0.04888733 -0.20191395 -0.20264784 -0.0024395143 0.34915626 -0.10008063
0.3154371 -0.46740243 0.070153356 -0.034115914 0.16833697 -0.050183304 -0.046608012 -0.05118421
0.07901183 -0.5436854 -0.4594192 -0.0034346448 -0.051486526 0.067552194 0.12979952 0.09213104
0.09297665 -0.019522658 0.05193657 -0.12509435 -0.14254418 -0.41315907 -0.07084668 0.30892673
0.21798292 0.06962028 -0.0034705962 -0.00090474426 -0.31682432 0.09091696 -0.13147944 0.26574203
-0.02854292 -0.31380102 0.22218165 -0.13760221 0.1210833 -0.023037082 0.32297468 -0.3567499
0.23021193 0.13620526 -0.078229 0.2060551 0.23113443 -0.5399895 -0.14480372 0.06456709
0.1899294 0.14721793 0.56620026 -0.33200654 0.3825643 -0.041813515 -0.079098515 -0.0004473071
-0.13889325 0.38566756 0.16185257 -0.043442488 -0.6062235 -0.29624125 -0.3415157 0.003732351
0.043205924 0.53452677 0.21965152 0.12554547 0.059272803 -0.38147488 -0.04289611 0.22644876
-0.29203376 -0.7323725 -0.113940366 -0.12831564 0.17068973 0.25915703 -0.15560955 -0.02759187
-0.12803942 -0.012051597 0.14575769 -0.006875684 0.39470065 0.18680266 0.020611085 0.06984719
-0.7147903 -0.70318425 1.3880599 -0.0037933816 0.067579575 -0.5087559 0.31749743 0.9172449
-0.2559297 0.12345357 0.4099569 0.017528407 0.8203643 -0.794255 0.7835524 0.21343344
0.1817717 0.18109363 0.108460344 -0.5656656 -0.556036 -0.73004055 -0.027096556 -0.2602894
0.14526723 0.10135525 0.33941272 0.54936063 -0.43302056 0.07935065 0.36008948 -0.17651086
-0.45260775 0.053177025 -0.32448047 0.03960517 0.09793526 0.34166524 0.12898532 0.40351978
-0.63454187 0.053907715 -0.113385715 0.06637138 0.021098178 0.04184152 0.42065066 0.31791493
-0.043339673 -0.094438344 -0.4188193 -0.72672856 0.1292205 0.20899096 0.060613755 -0.47452497
0.40512037 0.3012533 -0.5152885 0.03776883 0.5908308 0.114805885 0.99081373 -0.8120886
0.94859207 -0.17306921 -0.11693268 -0.18236925 -0.045428034 -0.38380462 -0.42429742 -0.30541795
0.0018759803 -0.28515986 0.46544826 0.14496925 0.3842778 0.7350852 0.02579719 0.22627845
0.7637753 0.093598664 -0.20711358 -0.03796441 0.1107924 0.0041124574 -0.014931911 -0.3470565
00000000: 7d4d 04be a7cb 0bbd a9b9 48be 9fbd 773d
00000010: fe37 193e 0a57 bd3d c4fc 45be 3b37 183e
00000020: 07fc cdbd 39e1 00be 60ee c3bd 3a33 4b3d
00000030: 3573 27be 175a ed3c 48bf 173e 89bb 13be
00000040: a5d9 573e 15fd 8bbe 864d 6abd a8e9 efbd
00000050: 1d80 6abe 4773 883e 8382 09bd c112 2abe
00000060: 529e 9c3e 625d 30be e526 e0bc 47ce 1fbe
00000070: a5f3 c03c 629f 143e 1008 073d 8dd6 84be
00000080: d289 1d3e ef52 40bc 75e8 1d3e 9b49 343e
00000090: 3381 233e 1947 5a3d 5d47 823d 2ded 753e
000000a0: 1c19 9c3d d3f7 4abe 58b2 8fbc 02fc 223e
000000b0: 19be f13d 7a64 e03c 47a7 1d3d f482 d33c
000000c0: 2078 ca3c 9531 a33e f9c6 0fbf d1c3 7dbe
000000d0: aac9 8d3e 40ae 593e 7a03 57bd e981 1cbe
000000e0: 0f72 3a3b 38ad 33be a831 1fbd 9faa 9abd
000000f0: c585 fbbd 5853 07bd bfb3 7a3d 8bcd 473d
00000100: a2ac 3c3e bb15 89bd 4438 943d 993f 8a3e
00000110: a6f1 533d 270d e5be e127 50be 1873 3dbe
00000120: 5230 6dbe 4c82 f7bd 153e 48bd 88c2 4ebe
00000130: ea82 4fbe 42e0 1fbb 9cc4 b23e 13f7 ccbd
00000140: f980 a13e 5f4f efbe 90ac 8f3d 21bd 0bbd
00000150: 8760 2c3e 028d 4dbd 0be8 3ebd 89a6 51bd
00000160: f4d0 a13d f72e 0bbf fe38 ebbe c717 61bb
00000170: 89e3 52bd ce58 8a3d 2aea 043e 33af bc3d
00000180: 8b6a be3d fbed 9fbc 71bb 543d bc18 00be
00000190: 1af7 11be 9689 d3be 1018 91bd a52b 9e3e
000001a0: ea36 5f3e 1495 8e3d f172 63bb 5c2c 6dba
000001b0: cc36 a2be ac32 ba3d 8ca2 06be 570f 883e
000001c0: d7d2 e9bc 87aa a0be 9683 633e 98e7 0cbe
000001d0: 85fa f73d 43b8 bcbc f05c a53e eca7 b6be
000001e0: adbc 6b3e 6479 0b3e 8736 a0bd 1c00 533e
000001f0: 81ae 6c3e c03c 0abf 6d47 14be c03b 843d
00000200: da7c 423e 4cc0 163e 80f2 103f c3fc a9be
00000210: 78df c33e a644 2bbd 67fe a1bd 8b84 eab9
00000220: 083a 0ebe 3876 c53e aebc 253e c0f0 31bd
00000230: 7731 1bbf efac 97be 25db aebe 759a 743b
00000240: b2f8 303d bfd6 083f 54ec 603e fe8e 003e
00000250: 0ac8 723d ad50 c3be d5b3 2fbd 2fe2 673e
00000260: 7385 95be c47c 3bbf 9159 e9bd 2d65 03be
00000270: 4ac9 2e3e 3bb0 843e 1c58 1fbe 5808 e2bc
00000280: c41c 03be 1074 45bc 8141 153e 6b4d e1bb
00000290: 3416 ca3e 3249 3f3e 94d8 a83c 0b0c 8f3d
000002a0: 7ffc 36bf e203 34bf f2ab b13f 629a 78bb
000002b0: 2967 8a3d d43d 02bf 068f a23e 90d0 6a3f
000002c0: 3809 83be 3ad5 fc3d dfe5 d13e bc97 8f3c
000002d0: 6503 523f 4c54 4bbf e496 483f 4c8e 5a3e
000002e0: 5c22 3a3e 9c70 393e 7520 de3d 76cf 10bf
000002f0: 6058 0ebf f0e3 3abf 99f9 ddbc a744 85be
00000300: efc0 143e 5793 cf3d 81c7 ad3e e6a2 0c3f
00000310: dfb4 ddbe 9882 a23d a65d b83e 43bf 34be
00000320: 34bc e7be 27d0 593d 4e22 a6be 0839 223d
00000330: 4892 c83d bfee ae3e ba14 043e 259a ce3e
00000340: 5671 22bf 56ce 5c3d c536 e8bd b8ed 873d
00000350: 16d6 ac3c 0462 2b3d 865f d73e bfc5 a23e
00000360: f184 31bd e468 c1bd 7c6f d6be e20a 3abf
00000370: 6152 043e ba01 563e 2146 783d f0f4 f2be
00000380: f06b cf3e df3d 9a3e f2e9 03bf 7db3 1a3d
00000390: b040 173f 591f eb3d f8a5 7d3f 0ae5 4fbf
000003a0: eed6 723f 0e39 31be 677a efbd 01bf 3abe
000003b0: bf12 3abd 0a82 c4be 833d d9be be5f 9cbe
000003c0: 74e3 f53a 7900 92be 3c4f ee3e d272 143e
000003d0: 0fc0 c43e 8b2e 3c3f a154 d33c 8ab5 673e
000003e0: c786 433f a8b0 bf3d 9515 54be 9280 1bbd
000003f0: 20e7 e23d cbc1 863b f9a4 74bc 64b1 b1be

lstm.weight_hh_l1 f4 [200, 50]
0.11447771 -0.020363092 -0.057124775 0.34186858 -0.24711293 0.039384175 -0.2728335 0.16096804
0.49953443 -0.17092328 -0.2472396 0.012240915 0.40227517 -0.17202882 -0.085366406 0.29822218
0.001398002 -0.11017355 -0.048143454 -0.09509315 0.1036436 -0.012925568 -0.14795037 -0.14909093
0.10254078 -0.07705673 0.21281216 -0.31477702 0.022642512 0.2316988 0.23393613 0.22333308
-0.010614232 -0.08323344 0.38925266 -0.025589766 -0.104006544 0.5224036 -0.16224931 0.059534673
-0.104932055 0.09691798 -0.2024439 0.09592182 0.14296773 0.021965066 -0.19409227 0.11675527
-0.10140589 -0.022648873 0.13627106 -0.3724586 -0.09386308 0.11058443 -0.32935914 -0.15259853
0.2140991 0.16629958 -0.3096485 -0.29336095 0.35699248 -0.08568364 -0.30581686 -0.27905756
-0.36826387 -0.8475879 -0.058203004 0.11049866 -0.040997192 -0.42170247 0.33670482 -0.22395456
-0.044449747 0.16820662 0.07938658 0.29567018 0.0633302 -0.027979048 -0.10708994 0.12543364
-0.2038683 -0.4052507 -0.08241349 -0.41427198 0.20183945 -0.16327935 0.12585504 -0.11452868
-0.018849319 0.010642082 0.047245335 -0.07221588 -0.29816464 -0.9049277 0.012173453 0.049478568
-0.346512 -0.26290706 0.2635576 0.13530228 0.10098356 0.27894542 0.06383021 -0.3071507
-0.020428779 -0.21443088 0.0047637764 -0.32595053 -0.0024763534 -0.012633996 0.11007406 -0.15722553
-0.23734316 0.18893161 0.17286544 -0.45609844 -0.11472059 -0.13136339 0.08111679 -0.42440036
0.3186216 -0.12476226 -0.11111108 0.15504052 -0.12628199 0.12007984 -0.20082717 0.0219004
0.02797434 -0.20774719 -0.004747587 -0.24566858 -0.15709911 0.17057088 -0.10304657 0.16098765
-0.17154317 0.19701618 -0.13863978 -0.27893555 -0.12050673 0.1322973 -0.35908562 0.07761289
-0.029744938 -0.008783731 -0.25282693 0.12815233 -0.12760392 0.058958154 -0.034903888 -0.49938133
-0.34118897 0.54653805 -0.26751134 0.39648908 0.03037917 0.28126746 0.2886882 -0.45825228
-0.6530161 -0.08661715 -0.5661001 -0.022238547 0.08403721 -0.4214686 0.31253138 0.36277422
-0.068427525 -0.6674065 0.12338099 -0.93815774 0.12711559 0.16427326 -0.35035914 0.1604528
0.4307775 -0.27409694 -0.15261923 0.15466149 0.31956723 -0.7094094 -0.23275352 0.6694451
0.057703756 0.4631268 0.62255377 -0.17450899 -0.61544037 -0.20253892 -0.250917 0.25495577
-0.5610748 -0.38000962 0.11426711 0.5650964 -0.42548585 -0.5665905 -0.21258068 -0.109360516
0.22369498 -0.06228551 -0.28492525 -0.12960689 -0.30129012 0.8241647 0.03184215 0.06836947
-0.12732421 -0.5460706 0.24392451 -0.24052002 -0.09799878 0.3900445 0.10813457 -0.6685071
0.27954224 -0.2332465 -0.3006909 -0.70956403 0.26303938 -0.39888495 0.0036365325 0.11101695
0.16860342 0.19639103 -0.29356775 0.23219979 0.050444536 -0.222409 -0.03016445 -0.07808399
0.07103605 0.14936978 0.15466556 0.4247341 0.73698205 -0.56143254 0.07634106 -0.277818
-0.38076034 0.01885557 -0.8345945 -0.34083813 0.21425417 0.013826753 -0.27506295 -0.21661675
0.20998946 0.32449213 -0.3258131 -0.54743975 -0.09586441 0.43591735 -0.61403584 -0.37262785
00000000: 4a73 ea3d 80d0 a6bc abfb 69bd 6609 af3e
00000010: 2c0b 7dbe 4d51 213d d5b0 8bbe ced4 243e
00000020: fac2 ff3e 8306 2fbe 612c 7dbe 1e8e 483c
00000030: 03f7 cd3e 5328 30be 95d4 aebd 94b0 983e
00000040: 2a3d b73a aca2 e1bd 1232 45bd 33c0 c2bd
00000050: 1943 d43d c3c5 53bc 4d80 17be 4bab 18be
00000060: e700 d23d ebcf 9dbd 6eeb 593e 742a a1be
00000070: ca7c b93c 7342 6d3e f48c 6f3e 6db1 643e
00000080: 51e7 2dbc 4b76 aabd 204c c73e a1a1 d1bc
00000090: 6201 d5bd 3ebc 053f af24 26be a1da 733d
000000a0: 9ee6 d6bd ef7c c63d 744d 4fbe a972 c43d
000000b0: 2266 123e 15f0 b33c 20c0 46be 631d ef3d
000000c0: e4ad cfbd 218a b9bc a48a 0b3e e5b2 bebe
000000d0: 493b c0bd 177a e23d c3a1 a8be ca42 1cbe
000000e0: cb3c 5b3e 704a 2a3e 408a 9ebe 6833 96be
000000f0: b8c7 b63e e77a afbd 0794 9cbe a2e0 8ebe
00000100: 158d bcbe 85fb 58bf 4666 6ebd 1f4d e23d
00000110: acec 27bd 63e9 d7be 9364 ac3e 5854 65be
00000120: f010 36bd 5b3e 2c3e 6e95 a23d 1562 973e
00000130: 44b3 813d 5134 e5bc f851 dbbd ad71 003e
00000140: dac2 50be 057d cfbe 67c8 a8bd 751b d4be
00000150: 00af 4e3e b432 27be 25e0 003e 038e eabd
00000160: e369 9abc 215c 2e3c 5384 413d ebe5 93bd
00000170: 09a9 98be 57a9 67bf 2a73 473c 0aaa 4a3d
00000180: 056a b1be c19b 86be 06f1 863e ae8c 0a3e
00000190: 78d0 ce3d efd1 8e3e 6ab9 823d db42 9dbe
000001a0: 415a a7bc c593 5bbe 7419 9c3b fde2 a6be
000001b0: 514a 22bb d2fe 4ebc 826e e13d bbff 20be
000001c0: 160a 73be 4a77 413e a303 313e bc85 e9be
000001d0: a1f2 eabd 2084 06be 8f20 a63d 014b d9be
000001e0: 5f22 a33e 5b83 ffbd 358e e3bd f1c2 1e3e
000001f0: 1150 01be 6bec f53d a3a5 4dbe 7868 b33c
00000200: 712a e53c aebb 54be a591 9bbb 8b90 7bbe
00000210: 97de 20be 22aa 2e3e 150a d3bd f2d9 243e
00000220: 03a9 2fbe 9cbe 493e 96f7 0dbe a4d0 8ebe
00000230: 3ccc f6bd f278 073e 12da b7be 82f3 9e3d
00000240: a8ab f3bc a3e9 0fbc 8872 81be 5d3a 033e
00000250: 9aaa 02be 1b7e 713d 61f7 0ebd e9ae ffbe
00000260: 52b0 aebe ebe9 0b3f 3ff7 88be 9e00 cb3e
00000270: bddd f83c 4a02 903e f1ce 933e 0ba0 eabe
00000280: 102c 27bf 5564 b1bd f0eb 10bf 9d2d b6bc
00000290: b31b ac3d bbca d7be 1d04 a03e 8bbd b93e
000002a0: bb23 8cbd 27db 2abf 2caf fc3d 1b2b 70bf
000002b0: 972a 023e 4037 283e 4662 b3be bd4d 243e
000002c0: de8e dc3e 6f56 8cbe 3748 1cbe 955f 1e3e
000002d0: 519e a33e db9b 35bf f056 6ebe c160 2b3f
000002e0: c65a 6c3d f51e ed3e af5f 1f3f 7cb2 32be
000002f0: 808d 1dbf 5d66 4fbe 3178 80be 9089 823e
00000300: 99a2 0fbf 9f90 c2be e004 ea3d 28aa 103f
00000310: 48d9 d9be 130c 11bf c0ae 59be 68f8 dfbd
00000320: 4c10 653e 171f 7fbd b9e1 91be abb7 04be
00000330: b342 9abe 75fc 523f ea6c 023d 4b05 8c3d
00000340: 4761 02be 48cb 0bbf 59c7 793e e14a 76be
00000350: 96b3 c8bd eab3 c73e a875 dd3d 4823 2bbf
00000360: 2920 8f3e 2cd8 6ebe 28f4 99be fda5 35bf
00000370: 19ad 863e a63a ccbe e452 6e3b db5c e33d
00000380: 60a6 2c3e bb1a 493e 834e 96be c8c5 6d3e
00000390: ee9e 4e3d 2fbf 63be 701b f7bc 80ea 9fbd
000003a0: 597b 913d 64f4 183e a660 1e3e bf76 d93e
000003b0: dbaa 3c3f 0bba 0fbf b458 9c3d 293e 8ebe
000003c0: 05f3 c2be ff76 9a3c fca7 55bf 5682 aebe
000003d0: 7265 5b3e 9b89 623c 0dd5 8cbe c8d0 5dbe
000003e0: 7a07 573e d523 a63e fad0 a6be 0325 0cbf
000003f0: 8f54 c4bd 8f30 df3e 7431 1dbf 14c9 bebe

lstm.bias_ih_l1 f4 [200]
-0.08370301 0.06538272 -0.057374272 0.0606879 -0.43798766 -0.1295127 -0.087735504 -0.060254987
0.071922936 -0.17833462 -0.0066883177 -0.011768312 0.31962708 0.058205966 -0.01586064 0.2020349
-0.20880602 0.1495812 0.028959816 -0.19766854 0.09030066 0.20857632 -0.10352823 0.06334772
0.2375427 0.059619877 -0.021850204 0.19029796 0.075312294 -0.13642071 0.0592551 0.34297356
0.044837415 0.45083365 0.19033137 -0.023643596 0.67758936 0.6349324 -0.04044121 0.019337518
0.028753707 0.13881017 -0.26895797 0.14837894 0.107331865 0.051597428 0.046507925 0.12633245
0.18534948 -0.06136846 0.08192573 -0.08180463 0.12991273 0.03830777 -0.24624614 0.039956033
0.16284737 0.016557494 -0.10817922 -0.22890894 -0.2398391 0.099858545 0.14839648 -0.15631853
0.123739414 -0.22297421 -0.20536993 -0.046230562 -0.025544384 -0.1022308 0.1734258 -0.26706097
-0.04561302 0.014980655 0.10536528 -0.11252176 0.030505646 0.11275455 0.0045424225 -0.077421054
-0.023968156 0.090330124 -0.10138084 -0.36457187 0.06925354 0.05199553 -0.35096636 -0.12277102
0.2614779 -0.0074730082 0.12187726 -0.0062690387 -0.15489133 -0.09494934 0.15631346 -0.22983177
0.04295198 -0.26761243 0.13981076 -0.05795404 -0.022966556 0.06943967 -0.024577232 -0.019366566
-0.038554516 0.15097848 0.051488124 0.014009392 0.08829515 -0.01785688 -0.035553534 -0.028685171
0.015149817 0.10364496 -0.10919137 -0.097151965 -0.011233776 -0.0016977137 0.11551387 -0.060536236
-0.1611433 -0.008267889 -0.118181385 0.13411963 -0.04782219 -0.08801312 0.06472532 -0.0074580465
-0.16247663 0.062292106 0.042466383 0.08627675 0.010142403 -0.011832628 -0.15177716 -0.13494809
-0.027886827 0.06000143 0.06447897 -0.09160042 0.06301732 0.012551316 -0.09791045 -0.053558752
-0.03631272 0.13472985 -0.0331924 -0.14013514 -0.029844068 -0.10784827 0.10103817 0.11868141
0.11135561 -0.006929075 -0.24816641 0.1457492 0.101709686 -0.040225603 0.12493438 -0.18486255
-0.07235998 -0.23822008 0.32289347 0.09507679 -0.13850775 0.22936593 -0.22263369 0.031077435
0.18252133 -0.30362126 0.13683507 0.1774146 0.016004939 0.029840766 -0.03662776 0.0029771167
0.23429784 0.37544248 0.00039532894 0.004120985 0.024443053 0.36650994 -0.14487532 0.47515193
0.31154582 0.14194788 0.49908888 0.6154503 0.14054851 0.1109076 -0.09390124 0.07388553
-0.1486381 -0.09019386 -0.030438242 -0.14868309 -0.15949047 0.03585608 0.029677538 0.039023757
00000000: 7c6c abbd 60e7 853d 4901 6bbd e093 783d
00000010: eb3f e0be fa9e 04be acae b3bd efcd 76bd
00000020: 554c 933d 5a9d 36be ad29 dbbb e1cf 40bc
00000030: 29a6 a33e 6169 6e3d 2cee 81bc 3de2 4e3e
00000040: 3fd1 55be d02b 193e 233d ed3c 9f69 4abe
00000050: 8def b83d 0895 553e 9c06 d4bd 73bc 813d
00000060: 653e 733e f933 743d 33ff b2bc 78dd 423e
00000070: 553d 9a3d dfb1 0bbe 7ab5 723d 3b9a af3e
00000080: 70a7 373d abd3 e63e 3ae6 423e 37b0 c1bc
00000090: 7f76 2d3f ee8a 223f afa5 25bd b769 9e3c
000000a0: e58c eb3c 4124 0e3e dcb4 89be a6f0 173e
000000b0: cfd0 db3d d357 533d 187f 3e3d 4b5d 013e
000000c0: 41cc 3d3e 7f5d 7bbd adc8 a73d 3089 a7bd
000000d0: d807 053e 9ce8 1c3d f327 7cbe f0a8 233d
000000e0: 76c1 263e 95a3 873c 118d ddbd 1b67 6abe
000000f0: 6298 75be a382 cc3d 3ff5 173e f711 20be
00000100: 176b fd3d 5a53 64be 7f4c 52be 425c 3dbd
00000110: 7542 d1bc 625e d1bd 8896 313e 37bc 88be
00000120: b8d4 3abd 6c71 753c c0c9 d73d cf71 e6bd
00000130: fae6 f93c dceb e63d 9ad8 943b ee8e 9ebd
00000140: de58 c4bc 00ff b83d c2a0 cfbd 2aa9 babe
00000150: cdd4 8d3d 44f9 543d ddb1 b3be 5f6f fbbd
00000160: 6ee0 853e 23e0 f4bb c99a f93d 826c cdbb
00000170: d59b 1ebe cd74 c2bd a310 203e 0559 6bbe
00000180: 6aee 2f3d 7f04 89be 8d2a 0f3e 3761 6dbd
00000190: 5c24 bcbc 6336 8e3d 3156 c9bc a2a6 9ebc
000001a0: 57eb 1dbd 1a9a 1a3e 36e5 523d a687 653c
000001b0: 16d4 b43d 9748 92bc 95a0 11bd 2afd eabc
000001c0: f036 783c cf43 d43d ba9f dfbd 9cf7 c6bd
000001d0: df0d 38bc d285 deba 8992 ec3d d8f4 77bd
000001e0: c002 25be 0a76 07bc 1509 f2bd a856 093e
000001f0: 33e1 43bd 3940 b4bd b58e 843d a162 f4bb
00000200: 4660 26be 0226 7f3d 3bf1 2d3d ddb1 b03d
00000210: 522c 263c a4dd 41bc 796b 1bbe d52f 0abe
00000220: ea72 e4bc 0fc4 753d 8d0d 843d 0099 bbbd
00000230: 3a0f 813d 09a4 4d3c 4685 c8bd 6c60 5bbd
00000240: a6bc 14bd 9ff6 093e c1f4 07bd 967f 0fbe
00000250: 8c7b f4bc 8edf dcbd 1aed ce3d 3d0f f33d
00000260: 690e e43d 4b0d e3bb 561f 7ebe 473f 153e
00000270: 2b4d d03d 9ac3 24bd 99dd ff3d 9c4c 3dbe
00000280: 7831 94bd f7ef 73be 4b52 a53e 9fb7 c23d
00000290: fad4 0dbe e7de 6a3e 16fa 63be 1b96 fe3c
000002a0: dfe6 3a3e 3f74 9bbe 7e1e 0c3e 2cac 353e
000002b0: ca1c 833c 9f74 f43c fd06 16bd bb1b 433b
000002c0: c6eb 6f3e ff39 c03e 2744 cf39 5409 873b
000002d0: cc3c c83c 31a7 bb3e 325a 14be 1d47 f33e
000002e0: ef82 9f3e c95a 113e 9488 ff3e 278e 1d3f
000002f0: f3eb 0f3e 8623 e33d 4b4f c0bd 4c51 973d
00000300: 9634 18be 8fb7 b8bd 9f59 f9bc 6140 18be
00000310: 7851 23be d3dd 123d 4f1e f33c 60d7 1f3d

lstm.bias_hh_l1 f4 [200]
0.12569183 0.17251253 -0.06198651 -0.08529415 -0.30402288 -0.092970185 -0.07338286 0.07406436
-0.057282776 -0.080158815 0.09531022 -0.06749446 0.13789545 0.1552979 0.02387249 0.3452658
0.005395857 0.2141193 -0.014390386 -0.20987952 0.19201371 0.2689211 -0.071918994 -0.010560603
0.20632856 -0.13642061 0.047453158 0.18759951 0.119921975 0.093294315 0.14126648 0.16408569
0.009940951 0.59815174 0.1353431 0.045354363 0.4973092 0.5538149 0.09452437 0.019061144
0.11123329 -0.037469625 -0.18187448 0.058494635 0.14272441 -0.076467976 -0.041043658 0.16654818
-0.014601466 -0.0723045 -0.033156257 -0.08203194 -0.01755843 0.050140765 -0.14697623 0.18162553
-0.04616282 -0.11259821 -0.057576593 -0.18004368 -0.12977557 -0.13341658 0.20131698 0.06909094
0.081334755 -0.21715902 -0.21359219 -0.17549543 0.13289048 -0.103353366 0.12960148 -0.22235395
0.16105133 -0.11188063 -0.046324532 -0.10762201 -0.025022034 -0.007509905 0.076799504 -0.063343756
-0.07292701 0.08018174 -0.0008290971 -0.3482846 0.273891 0.013161656 -0.18721962 -0.02683381
-0.017790794 -0.09075376 0.11559527 -0.091645665 -0.32149273 -0.0062891226 0.1566196 -0.063846186
-0.03135457 -0.34448805 -0.06587134 0.021574207 -0.045876373 -0.02718902 -0.0108495755 0.058705468
0.015547892 0.036559515 0.020434324 0.06693773 0.12654442 -0.019685509 -0.05264543 -0.09412268
-0.013205863 -0.16594677 -0.059100367 -0.07440245 0.09005704 0.115820736 0.03186265 -0.044930983
0.051663168 -0.09590468 0.01300775 -0.12837173 -0.053230096 0.08795248 0.07919763 -0.13699408
0.081260085 -0.005629324 0.011137262 -0.004228409 -0.089852735 0.16362423 -0.0071699624 -0.030147579
0.16556996 -0.107567124 -0.008801993 -0.07007946 0.111175284 0.089635246 0.014040979 -0.11320373
-0.09372681 -0.11536459 0.05177364 0.0714975 -0.07865736 -0.027312685 0.034549974 0.14391351
0.029860768 -0.11278556 -0.4033723 0.07557655 -0.11973228 0.08533142 0.16038758 -0.3249581
-0.11486415 -0.13218227 0.4818438 -0.07787924 -0.08463191 0.033939216 -0.020754414 -0.044157427
0.2326843 -0.31721914 -0.047888257 0.20375031 -0.06031186 0.20258981 -0.06945016 0.20959932
0.20706227 0.20722492 0.007958706 -0.024921305 -0.020945538 0.2503879 -0.12639117 0.56977195
0.28143695 0.103497684 0.41511384 0.56096435 0.00651216 0.037198734 -0.113526136 0.0994219
-0.39512572 0.01080009 0.13363995 -0.1080461 -0.0643953 0.13578987 0.0268591 0.14008315
00000000: 5cb5 003e 20a7 303e 91e5 7dbd b3ae aebd
00000010: e3a8 9bbe 2767 bebd c149 96bd 0eaf 973d
00000020: 58a1 6abd 4e2a a4bd 0132 c33d 893a 8abd
00000030: 7734 0d3e 6a06 1f3e 3d90 c33c aec6 b03e
00000040: bbcf b03b 1742 5b3e a7c5 6bbc a8ea 56be
00000050: 3e9f 443e 07b0 893e 444a 93bd 6106 2dbc
00000060: cb47 533e d8b1 0bbe 3e5e 423d 161a 403e
00000070: a799 f53d 1711 bf3d 29a8 103e 1406 283e
00000080: 5fdf 223c 7920 193f 6297 0a3e 7fc5 393d
00000090: 509f fe3e d0c6 0d3f fe95 c13d 1e26 9c3c
000000a0: 47ce e33d c079 19bd 4e3d 3abe 1298 6f3d
000000b0: 5926 123e 3e9b 9cbd 651d 28bd 9b8b 2a3e
000000c0: fd3a 6fbc 6214 94bd dbce 07bd 5d00 a8bd
000000d0: b2d6 8fbc 6760 4d3d f080 16be 0bfc 393e
000000e0: 3a15 3dbd e499 e6bd 6fd5 6bbd 5f5d 38be
000000f0: e3e3 04be 5b9e 08be 0a26 4e3e 8d7f 8d3d
00000100: d692 a63d ef5e 5ebe e9b7 5abe 13b5 33be
00000110: 7114 083e eeaa d3bd 40b6 043e c1b0 63be
00000120: a4ea 243e ac21 e5bd cbbe 3dbd ee68 dcbd
00000130: 02fb ccbc a615 f6bb 0f49 9d3d 5fba 81bd
00000140: c25a 95bd 5336 a43d c457 59ba 5c52 b2be
00000150: 713b 8c3e fda3 573c 80b6 3fbe 94d2 dbbc
00000160: 00be 91bc 1bdd b9bd 37bd ec3d b9b0 bbbd
00000170: b29a a4be fc14 cebb e360 203e cac1 82bd
00000180: a66d 00bd bd60 b0be 8ee7 86bd 64bc b03c
00000190: dde8 3bbd 82bb debc 6bc2 31bc 2575 703d
000001a0: 96bc 7e3c 6ebf 153d e265 a73c a616 893d
000001b0: dc94 013e 8143 a1bc bca2 57bd 64c3 c0bd
000001c0: 675d 58bc f3ed 29be 3a13 72bd 5060 98bd
000001d0: d36f b83d 6c33 ed3d 6982 023d 8d09 38bd
000001e0: c29c 533d ac69 c4bd 751e 553c e173 03be
000001f0: cd07 5abd 6e20 b43d 5e32 a23d 2d48 0cbe
00000200: b06b a63d 3176 b8bb 1079 363c 778e 8abb
00000210: b604 b8bd 1c8d 273e 01f2 eabb 0ef8 f6bc
00000220: 2c8b 293e 274c dcbd 3c36 10bc d285 8fbd
00000230: deaf e33d af92 b73d 220c 663c 5bd7 e7bd
00000240: d7f3 bfbd 4544 ecbd 9910 543d 486d 923d
00000250: 1c17 a1bd dabe dfbc 4684 0d3d 105e 133e
00000260: 929e f43c 1efc e6bd d086 cebe e1c7 9a3d
00000270: 3336 f5bd 3dc2 ae3d a43c 243e e860 a6be
00000280: e53d ebbd ca5a 07be 3bb4 f63e 277f 9fbd
00000290: 7f53 adbd d903 0b3d 2905 aabc 6bde 34bd
000002a0: cb44 6e3e 8c6a a2be 7a26 44bd eca3 503e
000002b0: 9209 77bd b473 4f3e e33b 8ebd 34a1 563e
000002c0: 2208 543e c532 543e 3b65 023c c427 ccbc
000002d0: fa95 abbc d832 803e b06c 01be 93dc 113f
000002e0: 8118 903e 98f6 d33d cd89 d43e 5c9b 0f3f
000002f0: f563 d53b b35d 183d 6480 e8bd b69d cb3d
00000300: eb4d cabe dcf2 303c e9d8 083e 4647 ddbd
00000310: afe1 83bd 800c 0b3e 9e07 dc3c f571 0f3e

lstm.weight_ih_l2 f4 [200, 50]
-0.048183832 -0.09995653 0.13975899 -0.03240132 -0.19001961 0.24861374 0.04747735 0.03790844
-0.13087702 0.064786114 -0.27051464 -0.06345959 -0.27301964 -0.09157889 -0.17413062 -0.15824991
-0.010890945 0.017728576 0.09976869 -0.116232574 0.033958856 -0.17751126 -0.13304931 0.123478584
-0.1333387 0.081418216 0.08516529 -0.075366475 -0.23389535 0.24996333 0.18358214 -0.21299756
-0.11359758 0.07627296 0.12322304 -0.020203864 0.1588498 -0.16244456 -0.24403489 5.8527403e-05
0.053711675 -0.019171176 0.19969206 0.10401039 -0.040044434 0.21278718 -0.072859906 -0.2889465
-0.19750181 0.10454618 -0.073171936 -0.037109356 0.14745378 0.13988088 0.3081433 0.20434755
-0.04807117 -0.0694629 0.06553341 0.20015134 -0.0591694 -0.06922035 -0.09608143 0.013316203
0.09978157 -0.12844375 -0.22287726 0.11338245 -0.17606014 0.042430177 0.012988018 -0.00995951
0.22125264 -0.0140691735 0.01804698 -0.1823841 0.20570888 -0.017935643 -0.06380827 -0.1489966
-0.12531535 -0.052184407 0.040438898 -0.08469638 0.10692778 0.12673365 0.029530374 -0.21424355
-0.17624797 0.07082402 -0.22413763 -0.061442584 0.18045305 0.19292834 0.09693955 0.0040537077
0.08328741 0.016721081 0.114288315 0.0352808 -0.11559446 0.12435204 0.15831812 0.038136173
0.18953843 -0.22373661 0.10244422 -0.03148576 0.22114307 0.11873725 0.043414373 -0.013925756
-0.1758845 -0.15339337 -0.21770805 0.12403462 -0.072387815 0.12761046 -0.010616919 0.3493655
-0.10655351 0.108564295 -0.26258498 0.2089683 -0.104841456 -0.056113396 0.061934408 -0.03887118
-0.12991208 0.12662509 0.2436325 -0.23997751 -0.22385612 0.04430455 -0.09292291 -0.32837927
0.024272762 0.071814165 0.06890245 0.16794558 0.14262861 0.36539018 0.18575206 0.20055883
0.049128428 -0.11596774 0.035273362 -0.06509098 -0.03285385 -0.27235198 -0.009785801 -0.6030894
0.022910986 0.38802463 -0.07078349 0.54737884 0.34599915 0.23152249 0.30300546 -0.1673464
-0.23520236 -0.21152483 -0.46318632 -0.3569966 -0.25910392 -0.40580687 0.07894083 0.41928717
0.18715648 0.1530542 0.038649242 -0.3797851 -0.12000794 0.1180629 -0.51109743 0.19272077
0.447678 -0.36456424 -0.20244218 0.16328406 0.03363435 -0.14163916 -0.32762676 0.27742606
0.3691866 -0.10824454 0.015662981 -0.35522452 -0.27219406 -0.0926476 -0.10109882 0.06758133
0.04297893 -0.23464768 -0.09280365 0.30526504 -0.28918803 -0.3802752 -0.3581377 -0.052930634
0.042615917 -0.2546569 -0.18555203 -0.114503406 -0.4509882 -0.260279 0.008293925 0.13756666
0.005158433 -0.36000216 0.01183055 0.030173717 -0.046456028 0.06435822 0.061321422 -0.3345755
0.22876397 -0.21943276 -0.046736002 -0.32294852 -0.11410811 0.0042813825 -0.10259195 -0.07916207
0.12653077 0.22525735 -0.40621844 0.24659207 -0.0395655 -0.01673687 0.018493442 -0.16434988
0.06996892 -0.018646182 -0.21544616 0.06100034 0.35420084 -0.31736654 -0.06418504 -0.26994818
-0.0484312 -0.14832631 -0.45922425 -0.11717856 0.042469274 0.31467405 -0.27400652 -0.03236755
0.14680035 -0.038709678 0.025191814 -0.56045955 0.069680065 0.2131113 -0.50152284 0.3793509
00000000: 695c 45bd 02b6 ccbd fb1c 0f3e 3fb7 04bd
00000010: 8094 42be 9a94 7e3e 9c77 423d e145 1b3d
00000020: a004 06be 95ae 843d e580 8abe 1af7 81bd
00000030: 3bc9 8bbe b78d bbbd 4c4f 32be 440c 22be
00000040: ef6f 32bc 853b 913c 8753 cc3d 580b eebd
00000050: 7118 0b3d 83c5 35be 143e 08be 57e2 fc3d
00000060: f189 08be 98be a63d 246b ae3d bd59 9abd
00000070: 4382 6fbe 63f6 7f3e f5fc 3b3e 081c 5abe
00000080: d9a5 e8bd ff34 9c3d 5c5c fc3d 9382 a5bc
00000090: 86a9 223e de57 26be 48e4 79be 527b 7538
000000a0: c600 5c3d df0c 9dbc 137c 4c3e 6603 d53d
000000b0: a205 24bd e2e4 593e 9337 95bd ccf0 93be
000000c0: ea3d 4abe 4f1c d63d 2bdb 95bd fbff 17bd
000000d0: 20fe 163e ef3c 0f3e f5c4 9d3e 7c40 513e
000000e0: 46e6 44bd 9142 8ebd 6136 863d 79f4 4c3e
000000f0: 9d5b 72bd 66c3 8dbd 57c6 c4bd 342c 5a3c
00000100: 485a cc3d c286 03be f039 64be 0f35 e83d
00000110: 1c49 34be 44cb 2d3d b2cb 543c 362d 23bc
00000120: 0d90 623e 6482 66bc 43d7 933c e6c2 3abe
00000130: 59a5 523e c5ed 92bc e9ad 82bd 9192 18be
00000140: ab52 00be 51bf 55bd 42a3 253d 4c75 adbd
00000150: f4fc da3d 77c6 013e afe9 f13c a962 5bbe
00000160: 597a 34be 2f0c 913d 5684 65be 38ab 7bbd
00000170: afc8 383e 028f 453e 3e88 c63d f7d4 843b
00000180: 9792 aa3d a6fa 883c fe0f ea3d 9a82 103d
00000190: cabc ecbd 48ac fe3d 251e 223e ad34 1c3d
000001a0: 5d16 423e 361b 65be 46ce d13d 36f7 00bd
000001b0: 5473 623e 842c f33d 45d3 313d db28 64bc
000001c0: 111b 34be 2713 1dbe dcee 5ebe dd05 fe3d
000001d0: 1040 94bd 51ac 023e 96f2 2dbc 09e0 b23e
000001e0: ba38 dabd f556 de3d 8a71 86be c9fb 553e
000001f0: 1eb7 d6bd 29d7 65bd efae 7d3d 6337 1fbd
00000200: ac07 05be 02aa 013e cc7a 793e aabc 75be
00000210: 8a3a 65be b078 353d 5e4e bebd 5421 a8be
00000220: acd7 c63c 4e13 933d ba1c 8d3d edf9 2b3e
00000230: 3c0d 123e 6c14 bb3e ca35 3e3e 4b5f 4d3e
00000240: e43a 493d 7f80 edbd cd7a 103d 6b4e 85bd
00000250: c291 06bd b871 8bbe a054 20bc 1164 1abf
00000260: d2af bb3c 2aab c63e eff6 90bd 0521 0c3f
00000270: cd26 b13e 3b14 6d3e 8823 9b3e db5c 2bbe
00000280: e3d8 70be f799 58be c226 edbe 42c8 b6be
00000290: 45a9 84be ebc5 cfbe bbab a13d cfac d63e
000002a0: f3a5 3f3e 3dba 1c3e ab4e 1e3d 3173 c2be
000002b0: b9c6 f5bd f6ca f13d 48d7 02bf 9858 453e
000002c0: 0d36 e53e 2aa8 babe 014d 4fbe f033 273e
000002d0: 2cc4 093d db09 11be b2be a7be ca0a 8e3e
000002e0: 0706 bd3e 50af ddbd a74f 803c fddf b5be
000002f0: 055d 8bbe 06be bdbd e60c cfbd 1568 8a3d
00000300: ad0a 303d 7b47 70be d70f bebd b34b 9c3e
00000310: 7410 94be 6eb3 c2be d35d b7be cbcd 58bd
00000320: 078e 2e3d 6462 82be 5a01 3ebe c380 eabd
00000330: ede7 e6be 4a43 85be 3ee3 073c 46de 0c3e
00000340: 1308 a93b 3452 b8be ecd4 413c df2e f73c
00000350: ad48 3ebd 3ece 833d 2c2c 7b3d 7b4d abbe
00000360: 1a41 6a3e fbb2 60be 406e 3fbd 8259 a5be
00000370: 83b1 e9bd d74a 8c3b ba1b d2bd b91f a2bd
00000380: 4891 013e dda9 663e ddfb cfbe a282 7c3e
00000390: 6f0f 22bd c31b 89bc 8f7f 973c 564b 28be
000003a0: dd4b 8f3d e1bf 98bc eb9d 5cbe 7edb 793d
000003b0: d059 b53e de7d a2be 7273 83bd a636 8abe
000003c0: cb5f 46bd dae2 17be 711f ebbe 50fb efbd
000003d0: 43f4 2d3d f51c a13e 954a 8cbe d693 04bd
000003e0: d552 163e 0a8e 1ebd 105f ce3c 477a 0fbf
000003f0: 6cb4 8e3d d939 5a3e cd63 00bf 483a c23e
