mlartifacts/759092558940040237/3bc541625476456786273ebd0e224b12/artifacts/iris_model/data/model.pth (torch, 374607 bytes, 21 tensors)

weight_ih_l0 f4 [200, 1]
0.4904277 -0.117869265 0.16136236 -0.1770399 -0.07714078 -0.14503571 -0.27075922 -0.07090609
0.033192314 -0.3242638 0.12389428 0.66906923 -0.260736 0.48057175 0.43850535 0.3146746
-0.24732938 -0.18618268 -0.24381925 -0.2485719 -0.34139955 0.27013522 -0.08830481 0.28358608
-0.018537937 -0.111616865 0.4170554 -0.13131464 -0.076693796 -0.22076242 -0.005064195 -0.094342016
0.23909777 -0.1020377 0.45678768 -0.07602688 0.04717352 -0.10594079 0.24324788 -0.20516664
0.15068802 0.13199693 0.53713596 0.2149453 -0.36669695 0.05139451 -0.119967885 -0.07057397
0.05814119 0.39550024 0.35656318 -0.21946405 0.3444298 -0.23940194 -0.07081677 -0.3657996
-0.35469836 -0.09996664 -0.17181183 -0.45699832 0.08631382 0.71213925 -0.22478724 0.5116615
0.5240327 0.23931623 -0.1732131 -0.31040332 -0.3667357 -0.32693976 -0.43783545 0.2329358
-0.2747426 0.46102005 -0.173947 -0.42345172 0.34793934 -0.12009292 -0.22466238 -0.16422427
-0.27750388 -0.2132957 0.39391327 -0.102411695 0.28769433 -0.11045824 0.17049159 -0.2651483
0.17582498 -0.103220575 0.159564 0.19738151 0.57033515 0.10011924 -0.44972074 -0.14666933
-0.16116463 0.03937586 0.14093544 0.48811176 0.45193803 0.35557377 -0.40587863 -0.38006562
-0.051821534 -0.40281475 -0.22986807 -0.23360279 0.4147527 0.31343836 0.36558425 -0.47539607
-0.3477801 0.44438303 0.44036156 0.48898748 -0.096575044 -0.2901251 -0.4154751 -0.14984378
-0.3267352 -0.37634945 -0.2439619 0.41885254 0.34327748 0.38617858 -0.10170136 -0.38285503
-0.41660154 -0.38869897 -0.33252978 0.34875712 0.25760773 0.38942665 0.056261826 0.4242783
-0.13332365 0.35690176 -0.14435424 0.2968001 0.3595052 0.31673792 -0.534298 -0.25448197
-0.21541162 -0.4205747 -0.3565952 -0.2403627 -0.503241 0.58761674 0.5045442 0.008092642
0.25405636 -0.19584209 0.030827494 -0.04792435 -0.28127077 -0.21623413 -0.12438125 -0.4835971
0.09374176 0.57761747 -0.37989047 0.5186967 0.5091552 0.288748 -0.22366975 -0.22315757
-0.24421848 -0.24858065 -0.39826286 0.32265928 -0.2716685 0.37476102 -0.1415841 -0.23609383
0.24913934 -0.16484874 -0.23790969 -0.19839828 -0.06094642 -0.16237393 0.3573571 -0.270281
0.26085287 -0.029114075 0.1444321 -0.039420966 0.2407906 -0.03847988 -0.011845808 0.077541195
0.5128221 0.3313606 -0.4982439 0.01111776 -0.08856773 0.033548545 0.111204326 0.37335995
00000000: 5719 fb3e 7165 f1bd 2d3c 253e f349 35be
00000010: fcfb 9dbd 3e84 14be f4a0 8abe 3637 91bd
00000020: aaf4 073d e805 a6be 49bc fd3d 1f48 2b3f
00000030: 307f 85be 800d f63e c683 e03e 071d a13e
00000040: ea43 7dbe aca6 3ebe c1ab 79be a289 7ebe
00000050: eccb aebe 2a4f 8a3e 27d9 b4bd 3232 913e
00000060: dfdc 97bc 6297 e4bd 4988 d53e 5877 06be
00000070: a311 9dbd 8b0f 62be 8cf1 a5bb 6336 c1bd
00000080: 0cd6 743e 24f9 d0bd 13e0 e93e fbb3 9bbd
00000090: 0539 413d 7cf7 d8bd f915 793e 3417 52be
000000a0: f64d 1a3e 342a 073e be81 093f 9f1a 5c3e
000000b0: b4bf bbbe 0d83 523d b9b1 f5bd 1689 90bd
000000c0: 7525 6e3d 027f ca3e 738f b63e 2fbb 60be
000000d0: 1a59 b03e c825 75be 6208 91bd 164a bbbe
000000e0: 069b b5be 4fbb ccbd 71ef 2fbe affb e9be
000000f0: 4dc5 b03d c24e 363f a02e 66be 40fc 023f
00000100: 0227 063f 500f 753e c65e 31be 2fed 9ebe
00000110: c8c4 bbbe a664 a7be f82b e0be b986 6e3e
00000120: 10ab 8cbe d20a ec3e 2a1f 32be aace d8be
00000130: 1b25 b23e 47f3 f5bd e50d 66be 682a 28be
00000140: fd14 8ebe 306a 5abe 00af c93e 39bd d1bd
00000150: ac4c 933e ee37 e2bd 5995 2e3e 85c1 87be
00000160: 770b 343e 4f65 d3bd bf64 233e 611e 4a3e
00000170: 7c01 123f 510b cd3d cc41 e6be 7c30 16be
00000180: 5708 25be 9548 213d 6151 103e c9e9 f93e
00000190: 6c64 e73e c40d b63e 53cf cfbe f697 c2be
000001a0: d142 54bd bc3d cebe 8962 6bbe 9235 6fbe
000001b0: 775a d43e fe7a a03e dc2d bb3e 1d67 f3be
000001c0: 3c10 b2be 2c86 e33e 1277 e13e 915c fa3e
000001d0: 23c9 c5bd 478b 94be 27b9 d4be a670 19be
000001e0: d649 a7be e0b0 c0be 26d1 79be d773 d63e
000001f0: 11c2 af3e 33b9 c53e cd48 d0bd 9305 c4be
00000200: cc4c d5be 8d03 c7be 5841 aabe 4b90 b23e
00000210: 29e5 833e ee62 c73e cd72 663d 013b d93e
00000220: ff85 08be d4bb b63e 99d1 13be 2ff6 973e
00000230: 1111 b83e 792b a23e c1c7 08bf 764b 82be
00000240: dd94 5cbe 9155 d7be a593 b6be a421 76be
00000250: 67d4 00bf 0d6e 163f cf29 013f 0097 043c
00000260: ad13 823e d48a 48be f189 fc3c 534c 44bd
00000270: b902 90be 7b6c 5dbe 99bb febd 0a9a f7be
00000280: aefb bf3d bdde 133f 0181 c2be 4fc9 043f
00000290: ff57 023f c7d6 933e af09 65be 6b83 64be
000002a0: 6914 7abe ed8b 7ebe 1ce9 cbbe 9933 a53e
000002b0: 2218 8bbe ade0 bf3e 6cfb 10be 95c2 71be
000002c0: 621e 7f3e 1cce 28be 999e 73be eb28 4bbe
000002d0: f4a2 79bd 5a45 26be 83f7 b63e 4562 8abe
000002e0: 828e 853e a480 eebc 02e6 133e e177 21bd
000002f0: d091 763e 149d 1dbd eb14 42bc ebcd 9e3d
00000300: 4f48 033f 19a8 a93e d319 ffbe 4427 363c
00000310: ff62 b5bd 336a 093d 18bf e33d 0929 bf3e

weight_hh_l0 f4 [200, 50]
-0.01808568 -0.010127844 0.123680465 -0.004467423 0.07284584 -0.22242472 -0.120147906 0.03980244
0.20070925 -0.112062864 0.11367673 -0.15708797 -0.018935122 0.03271885 0.09060722 0.12302971
-0.058397993 -0.08673202 -0.264077 -0.11747474 -0.23956318 -0.014243514 -0.10324309 -0.018265618
0.1017488 0.13956645 0.118588045 0.089075215 -0.20983425 -0.042276077 0.030282347 0.2684982
0.01710883 0.13019934 2.946565e-05 0.20240961 -0.11005971 -0.05413865 0.11649235 0.025983062
0.15566434 -0.03426967 0.027902197 -0.04140155 0.28292647 -0.15892135 0.016284427 0.097975224
-0.37566128 0.15146846 0.34367523 0.1446477 -0.15364425 0.058399573 0.1673129 0.12886605
-0.004434887 0.23496622 -0.0039777053 -0.17996225 -0.011977401 -0.35843098 0.14919458 0.48036608
0.27833247 0.089542225 0.09609977 0.17821582 -0.013453405 0.18531519 -0.0070906463 0.026385542
-0.06708239 0.33512747 -0.031434346 0.047030583 0.051214583 -0.08247112 0.19517066 0.04902798
0.15423922 -0.049140066 0.20661297 0.081553504 0.22314535 -0.18474314 0.06831439 -0.032323726
0.15367845 -0.14316076 0.0869742 0.12503524 -0.38528502 -0.027272152 0.42076358 -0.09552657
0.07602405 -0.06931626 -0.15430912 0.14709029 0.21621831 -0.06305201 -0.008660312 -0.08351809
0.07099985 -0.10758402 -0.008478936 0.18098763 -0.0016333791 -0.07477877 0.032833006 -0.1036527
0.14158279 0.19750308 0.15341908 0.30115083 0.243429 -0.060290135 0.0692517 0.178954
0.19240141 -0.21735771 0.043590587 0.089628465 0.10220142 -0.052659098 -0.012246584 0.046262603
-0.080338635 -0.052505307 0.13991222 0.07829972 0.125311 -0.09816173 0.016261598 0.08530787
0.052114177 0.14644471 -0.012339677 -0.1489286 0.06982698 0.09818498 -0.28554112 -0.13313425
0.36408457 0.0034010352 -0.013939838 -0.15596612 -0.22975463 0.11933221 0.31245902 -0.03165446
-0.09001918 0.0111081535 0.05124358 -0.031459723 0.061195415 0.10265709 0.028046066 -0.32578656
0.05472553 -0.30030486 0.31943163 0.3921742 0.28319287 0.17971125 0.2474012 0.20451692
0.12159497 0.04511633 0.08570724 0.11034112 0.09208791 0.22040856 0.074193664 -0.18314852
0.05866788 0.14209107 0.019859603 0.06407804 0.1530519 0.019798959 0.26553926 -0.14394833
0.034981385 0.09884239 0.24983986 0.07405666 0.0841982 -0.31656596 -0.14762355 -0.12317695
-0.23874879 -0.036574814 0.4484898 0.04006889 0.061322905 0.039018895 -0.10784776 0.2422206
-0.022842268 -0.0680836 -0.045511715 0.00010152621 -0.07713049 -0.24172568 -0.30194047 -0.1374453
0.12250973 0.28280085 -0.09646002 0.10824612 -0.22069599 -0.043027136 0.020113297 -0.12641378
0.040403455 -0.13677634 -0.13979895 -0.10548417 -0.17238346 -0.1958738 -0.27854538 0.0679248
0.021557376 0.2530391 0.06975334 0.020774182 -0.04593267 -0.1945669 -0.0019752677 0.02973427
0.14526482 0.029243667 0.05841422 0.22012465 0.026473222 -0.083648264 -0.015400177 0.17332174
0.0011907704 -0.1704078 0.022755079 0.18700777 -0.108739816 -0.10904529 0.1388981 -0.0058056894
-0.22689833 -0.0027032048 0.42527676 0.08434136 -0.018564837 0.031083638 -0.16213441 0.11242916
00000000: 6c28 94bc 42ef 25bc 2f4c fd3d 7663 92bb
00000010: 3330 953d 4ec3 63be 1b10 f6bd e207 233d
00000020: ba86 4d3e 3781 e5bd 58cf e83d abdb 20be
00000030: d41d 9bbc 3304 063d 4790 b93d 00f7 fb3d
00000040: bc32 6fbd 8fa0 b1bd 1a35 87be 9996 f0bd
00000050: 0d50 75be a15d 69bc 1d71 d3bd c7a1 95bc
00000060: ad61 d03d 82ea 0e3e 4ade f23d 116d b63d
00000070: cade 56be ae29 2dbd af12 f83c 9978 893e
00000080: d127 8c3c fa52 053e 002d f737 7744 4f3e
00000090: fc66 e1bd 7dc0 5dbd 8b93 ee3d 6eda d43c
000000a0: 7966 1f3e 5a5e 0cbd 2693 e43c ac94 29bd
000000b0: bddb 903e 47bc 22be eb66 853c 3ca7 c83d
000000c0: ad56 c0be 8c1a 1b3e 33f6 af3e 871e 143e
000000d0: eb54 1dbe 6434 6f3d 1354 2b3e 76f5 033e
000000e0: 8752 91bb fc9a 703e 6957 82bb 0648 38be
000000f0: dc3c 44bc 4484 b7be 77c6 183e 8bf2 f53e
00000100: 9881 8e3e ea61 b73d f5cf c43d 357e 363e
00000110: ac6b 5cbc 44c3 3d3e a758 e8bb 7e26 d83c
00000120: 7e62 89bd d495 ab3e 4dc1 00bd 24a3 403d
00000130: 62c6 513d 9ee6 a8bd d1da 473e 90d1 483d
00000140: e3f0 1d3e 1847 49bd 5a92 533e 8605 a73d
00000150: 3780 643e 4e2d 3dbe 6ae8 8b3d e265 04bd
00000160: e25d 1d3e bc98 12be 881f b23d 3d09 003e
00000170: 1444 c5be d969 dfbc 536e d73e 6fa3 c3bd
00000180: 7fb2 9b3d aff5 8dbd 3603 1ebe d69e 163e
00000190: 5568 5d3e 6a21 81bd fbe3 0dbc 880b abbd
000001a0: 5f68 913d 0355 dcbd 3ceb 0abc d254 393e
000001b0: 1c17 d6ba 9d25 99bd e77b 063d de47 d4bd
000001c0: 14fb 103e 3f3e 4a3e e419 1d3e 7130 9a3e
000001d0: 7445 793e caf2 76bd d6d3 8d3d b83f 373e
000001e0: e004 453e 0593 5ebe 0b8c 323d 218f b73d
000001f0: fa4e d13d 11b1 57bd e5a5 48bc db7d 3d3d
00000200: 9588 a4bd ce0f 57bd 2645 0f3e 9b5b a03d
00000210: 8751 003e 0409 c9bd 0b37 853c e4b5 ae3d
00000220: ad75 553d 9af5 153e 5b2c 4abc bd80 18be
00000230: 7301 8f3d 3515 c93d 7232 92be 5854 08be
00000240: 4b69 ba3e e7e3 5e3b eb63 64bc 95b5 1fbe
00000250: cc44 6bbe 7264 f43d a1fa 9f3e 1ba8 01bd
00000260: fa5b b8bd f9fe 353c cae4 513d e9db 00bd
00000270: 0ba8 7a3d e13d d23d ddc0 e53c 7fcd a6be
00000280: e127 603d 8fc1 99be 8b8c a33e 0fcb c83e
00000290: a8fe 903e 3a06 383e bd56 7d3e e26c 513e
000002a0: c906 f93d e7cb 383d 4787 af3d 86fa e13d
000002b0: 9698 bc3d c8b2 613e d9f2 973d 498b 3bbe
000002c0: bb4d 703d 5280 113e 9bb0 a23c 593b 833d
000002d0: a3b9 1c3e 6d31 a23c c3f4 873e 3167 13be
000002e0: a448 0f3d e16d ca3d 05d6 7f3e 05ab 973d
000002f0: 1b70 ac3d ef14 a2be a12a 17be 3244 fcbd
00000300: 907a 74be 79cf 15bd 74a0 e53e 471f 243d
00000310: ba2d 7b3d 47d2 1f3d 49df dcbd ad08 783e
00000320: b51f bbbc 6a6f 8bbd 7e6a 3abd 78ea d438
00000330: 97f6 9dbd f086 77be f197 9abe 76be 0cbe
00000340: 62e6 fa3d 46cb 903e d58c c5bd 24b0 dd3d
00000350: 21fe 61be 393d 30bd a4c4 a43c 9d72 01be
00000360: 187e 253d 190f 0cbe 7527 0fbe 1608 d8bd
00000370: 4a85 30be 2493 48be 809d 8ebe 281c 8b3d
00000380: 1899 b03c 578e 813e d7da 8e3d 9e2e aa3c
00000390: e523 3cbd 8c3c 47be 7e73 01bb 4995 f33c
000003a0: 4dc0 143e 6a90 ef3c c043 6f3d 5b68 613e
000003b0: 5fde d83c c84f abbd 0651 7cbc 417b 313e
000003c0: a013 9c3a 627f 2ebe dc68 ba3c f77e 3f3e
000003d0: fbb2 debd 2353 dfbd 4e3b 0e3e a73d bebb
000003e0: 0958 68be 4028 31bb e0bd d93e 2abb ac3d
000003f0: 4915 98bc 1da3 fe3c 9006 26be 4241 e63d

bias_ih_l0 f4 [200]
-0.21795502 -0.071453646 0.040184032 -0.16911478 -0.03801512 -0.24385686 -0.1321173 -0.1613024
0.040726967 -0.21091956 -0.070734054 -0.18240081 -0.32164463 -0.1630979 -0.111588545 -0.17988811
-0.353913 -0.0060552126 0.01181501 -0.05694333 -0.00797764 -0.35312292 -0.13566932 -0.2548176
-0.043356236 -0.10188219 -0.38903216 -0.097725116 0.02474436 0.008068573 -0.18689968 -0.10531255
-0.10687389 0.004929135 -0.5173936 -0.15830049 -0.0921928 -0.062431972 -0.29317856 -0.064987525
-0.010235377 0.018985873 -0.16429827 -0.21772392 -0.24165665 -0.054618627 -0.034408964 -0.2605674
-0.15392005 -0.15118346 0.0048650424 0.07527975 -0.23486884 -0.10816502 -0.3283363 -0.14199291
-0.15347664 -0.28221023 -0.08671953 -0.13554254 -0.2720227 -0.14576828 -0.121285394 -0.24228944
-0.26872936 -0.14422055 -0.23857883 -0.16028742 -0.009084669 -0.08546642 -0.05259553 -0.22317797
-0.2996107 -0.13677329 -0.08320238 -0.18966898 -0.36380303 -0.13259664 -0.13696514 0.00798038
-0.22443132 -0.04035221 -0.000769226 -6.946953e-05 -0.32727608 -0.2916129 -0.33441246 -0.16604182
-0.57970256 -0.2909495 -0.053884998 -0.022253385 -0.1610161 -0.30311975 -0.23614466 0.020381097
-0.020213004 -0.2763893 -0.24519171 -0.10435561 -0.15202893 0.08553313 0.0042278124 -0.10328883
0.009655288 -0.040220845 -0.14869663 -0.04824415 0.033458345 0.088245064 0.055497892 0.08539026
-0.03310643 -0.15236425 -0.13511138 -0.18413937 0.031377383 0.04257471 0.04561577 -0.026464945
-0.08806211 -0.010390426 -0.11445609 -0.060294986 0.08466528 -0.05389985 -0.08076079 -0.028987346
0.08296546 -0.049497277 -0.036231805 -0.04765937 -0.13729933 -0.111805655 -0.018101929 -0.0045642736
0.016760457 -0.028031858 0.043506216 -0.021448711 0.032822207 0.06658084 -0.022549102 -0.00528231
-0.30122027 0.093637206 -0.13356856 0.089035675 0.08231079 -0.17272429 -0.12642589 0.13866648
-0.043478582 -0.061663337 -0.12138462 -0.070392124 -0.024253381 -0.17885417 0.0648493 -0.20218588
-0.025085133 -0.3425371 -0.2914094 -0.26973894 -0.23454364 -0.024391633 -0.23612654 -0.057010468
0.13903861 -0.06857553 -0.101448335 -0.27386746 -0.09394756 -0.124274194 -0.045505073 -0.14537573
-0.3661675 0.120434314 -0.12011721 -0.024433399 -0.28450546 -0.029051578 0.044726677 0.0012534139
-0.6002133 -0.23662455 -0.13826817 -0.039817415 -0.40069804 -0.053239282 -0.082109876 -0.043215252
-0.14107834 -0.31458935 -0.37424296 0.017935984 -0.07032656 -0.0804508 -0.16091931 0.030583147
00000000: 9a2f 5fbe 4a56 92bd 0398 243d 6d2c 2dbe
00000010: beb5 1bbd 9db5 79be c249 07be 752c 25be
00000020: 52d1 263d 4cfb 57be 04dd 90bd 47c7 3abe
00000030: 9bae a4be 2303 27be 8988 e4bd 9734 38be
00000040: 1634 b5be ce6a c6bb be93 413c 693d 69bd
00000050: a6b4 02bc 87cc b4be e6ec 0abe 7477 82be
00000060: 4f96 31bd 9ca7 d0bd 392f c7be 1b24 c8bd
00000070: afb4 ca3c 0c32 043c a162 3fbe 1bae d7bd
00000080: b3e0 dabd 9584 a13b e873 04bf 8619 22be
00000090: 94cf bcbd abb8 7fbd 801b 96be 2e18 85bd
000000a0: 48b2 27bc 4388 9b3c ce3d 28be 05f3 5ebe
000000b0: d774 77be c8b7 5fbd 6af0 0cbd 1769 85be
000000c0: 389d 1dbe d6cf 1abe ef6a 9f3b 452c 9a3d
000000d0: 7581 70be 9f85 ddbd b21b a8be 9766 11be
000000e0: fb28 1dbe dc7d 90be 029a b1bd aacb 0abe
000000f0: 8f46 8bbe 4844 15be 7a64 f8bd b91a 78be
00000100: e596 89be 8dae 13be 024e 74be 6322 24be
00000110: ddd7 14bc 0509 afbd 696e 57bd c488 64be
00000120: 9366 99be 4c0e 0cbe 0266 aabd 9638 42be
00000130: 6444 babe 6ac7 07be 9740 0cbe 24c0 023c
00000140: 53d1 65be 5c48 25bd e2a5 49ba 2cb0 91b8
00000150: bb90 a7be 494e 95be 1c38 abbe de06 2abe
00000160: 6367 14bf 55f7 94be 84b6 5cbd bb4c b6bc
00000170: 68e1 24be 8332 9bbe e8cf 71be 42f6 a63c
00000180: be95 a5bc e682 8dbe 8913 7bbe 65b8 d5bd
00000190: 79ad 1bbe fe2b af3d 7689 8a3b 1889 d3bd
000001a0: 3731 1e3c 9dbe 24bd ee43 18be a89b 45bd
000001b0: 9e0b 093d d4b9 b43d c251 633d 17e1 ae3d
000001c0: 9c9a 07bd 6005 1cbe a35a 0abe 088f 3cbe
000001d0: 9285 003d d262 2e3d 9ad7 3a3d 03cd d8bc
000001e0: e859 b4bd 9b3c 2abc f467 eabd e0f7 76bd
000001f0: fe64 ad3d 17c6 5cbd ea65 a5bd df76 edbc
00000200: cce9 a93d a8bd 4abd cd67 14bd 7936 43bd
00000210: 3298 0cbe 5dfa e4bd 7f4a 94bc e78f 95bb
00000220: 3a4d 893c 11a3 e5bc 9333 323d 35b5 afbc
00000230: 9470 063d 895b 883d e5b8 b8bc 3a17 adbb
00000240: 8b39 9abe ddc4 bf3d 32c6 08be 5658 b63d
00000250: 8f92 a83d a3de 30be ca75 01be 96fe 0d3e
00000260: 9916 32bd b292 7cbd 8098 f8bd bf29 90bd
00000270: 07af c6bc 8c25 37be b6cf 843d d109 4fbe
00000280: 567f cdbc 0661 afbe 9d33 95be 391b 8abe
00000290: 352c 70be f6d0 c7bc 28cb 71be cf83 69bd
000002a0: 2360 0e3e 5471 8cbd 25c4 cfbd 5b38 8cbe
000002b0: 9467 c0bd 7883 febd 8763 3abd 60dd 14be
000002c0: 4e7a bbbe 44a6 f63d 0300 f6bd 8d28 c8bc
000002d0: b3aa 91be 93fd edbc 5233 373d 9749 a43a
000002e0: 94a7 19bf b54d 72be 2c96 0dbe 9617 23bd
000002f0: 4b28 cdbe 6f11 5abd 3929 a8bd 7a02 31bd
00000300: d776 10be db11 a1be c69c bfbe 7cee 923c
00000310: 5f07 90bd 64c3 a4bd 08c8 24be 8289 fa3c

bias_hh_l0 f4 [200]
-0.09392596 0.108822584 -0.01629544 -0.16528279 -0.10792985 -0.17287725 -0.23879255 -0.19933183
0.05720486 -0.24945587 0.04219561 -0.22027051 -0.18966067 -0.13298754 -0.28765914 -0.18591249
-0.21306378 -0.072889864 -0.13403732 -0.18060434 -0.26263273 -0.25656474 -0.22797425 -0.121481135
-0.16378567 -0.08094072 -0.43435872 0.019930266 -0.11225507 -0.10045559 -0.17139077 -0.14374566
-0.021811644 0.0736861 -0.49332675 -0.06611283 -0.28452316 -0.07011654 -0.4128553 -0.12109778
0.057168327 -0.21576467 -0.026633974 -0.35902494 -0.2924147 -0.11749687 0.045175474 -0.12154075
-0.19529377 -0.111681335 -0.021800086 -0.056830313 -0.007242873 -0.01410493 -0.16305386 -0.22193867
-0.1876753 -0.20029111 -0.09502196 -0.09036923 -0.12706195 -0.20021124 -0.29659468 -0.17158982
-0.33104274 0.07992582 -0.3042468 -0.27643657 -0.008356644 -0.081541404 -0.101443306 -0.24098997
-0.13520965 -0.17067231 0.017629664 -0.09894086 -0.40055993 0.057794776 -0.24339014 -0.107631855
-0.08252897 -0.042041156 -0.039152898 -0.14100505 -0.3796719 -0.10903883 -0.116884425 0.021629497
-0.38897344 -0.08474149 -0.2560201 0.0051541147 -0.022757737 -0.30756083 -0.3737457 -0.068441086
0.060667057 -0.22829856 -0.23086953 -0.16772225 -0.002251885 0.0041413973 -0.05112143 -0.118487015
-0.0051686456 0.011986332 0.077341564 0.026095577 -0.020510467 0.18756418 0.002799797 0.24974477
-0.10740005 -0.1858788 -0.19182052 0.039318003 -0.057077274 -0.071143605 -0.09034658 0.007204781
0.03145032 0.099697545 0.08743786 0.01630248 0.03603142 0.11726956 0.04484392 -0.09076694
-0.112523705 -0.007935945 -0.017441303 0.050490964 -0.07649918 0.13210624 0.014092804 -0.027366282
-0.01953171 0.16220304 -0.04101922 0.018224984 -0.0027543558 0.04104036 0.17559713 -0.009505408
-0.12682737 -0.11932636 -0.030636359 -0.06677653 0.08958953 0.020455148 0.037858114 0.0024866674
0.0032533829 -0.120842546 -0.18199295 -0.10256159 -0.2052004 -0.17754377 -0.13318586 -0.42582622
-0.18597566 -0.33148366 -0.22972484 -0.22583625 -0.28717965 -0.14868842 -0.2572247 -0.050087724
-0.05361845 -0.25657213 -0.18217343 -0.26856714 -0.11436359 -0.24920978 -0.06384126 -0.073125795
-0.36117446 -0.10903767 0.0050843973 0.018523317 -0.19306903 -0.016624676 -0.09643167 -0.0035598453
-0.4469206 -0.0353847 -0.25538683 -0.1155329 -0.30281422 -0.031506263 -0.18286537 -0.024113825
0.057118572 -0.23358385 -0.3140513 0.11662082 0.08542479 -0.1722451 -0.0703855 0.0040402906
00000000: 415c c0bd 60de de3d 047e 85bc e43f 29be
00000010: 530a ddbd bc06 31be 0986 74be a51d 4cbe
00000020: a54f 6a3d 5c71 7fbe 4ed5 2c3d 988e 61be
00000030: 6836 42be e32d 08be 0f48 93be d85f 3ebe
00000040: 642d 5abe 4847 95bd 1441 09be 58f0 38be
00000050: cc77 86be 745c 83be 1572 69be 1acb f8bd
00000060: 6eb7 27be 40c4 a5bd 4464 debe cc44 a33c
00000070: fce5 e5bd a9bb cdbd 1081 2fbe 1032 13be
00000080: 55ae b2bc bde8 963d 5395 fcbe 2a66 87bd
00000090: 05ad 91be 4399 8fbd c561 d3be 1d02 f8bd
000000a0: 5629 6a3d 6af1 5cbe 7e2f dabc 1ed2 b7be
000000b0: 61b7 95be 33a2 f0bd eb09 393d 5bea f8bd
000000c0: 17fb 47be 2fb9 e4bd 1896 b2bc e7c6 68bd
000000d0: 9f55 edbb 5d18 67bc 97f7 26be e443 63be
000000e0: f42d 40be 1d19 4dbe e09a c2bd 8113 b9bd
000000f0: 871c 02be 2d04 4dbe 42db 97be 3eb5 2fbe
00000100: 6f7e a9be 26b0 a33d 3dc6 9bbe 1889 8dbe
00000110: 4eea 08bc 2eff a6bd 82c1 cfbd 13c6 76be
00000120: 6674 0abe b9c4 2ebe 166c 903c 81a1 cabd
00000130: 3116 cdbe 37ba 6c3d 443b 79be 176e dcbd
00000140: f304 a9bd 5933 2cbd ca5e 20bd a163 10be
00000150: 5b64 c2be c04f dfbd 1a61 efbd 5830 b13c
00000160: 8727 c7be f28c adbd 1115 83be d9e3 a83b
00000170: 6f6e babc 9d78 9dbe 995b bfbe d72a 8cbd
00000180: 057e 783d 19c7 69be 1069 6cbe 62bf 2bbe
00000190: 5c94 13bb 8fb4 873b b464 51bd 52a9 f2bd
000001a0: be5d a9bb 5262 443c 4165 9e3d 64c6 d53c
000001b0: 9105 a8bc d310 403e cd7c 373b 18bd 7f3e
000001c0: 8ff4 dbbd 0357 3ebe 996c 44be ea0b 213d
000001d0: dcc9 69bd bdb3 91bd a107 b9bd 1516 ec3b
000001e0: 0dd2 003d 3a2e cc3d 9f12 b33d c78c 853c
000001f0: af95 133d 062b f03d 42ae 373d 04e4 b9bd
00000200: d472 e6bd c405 02bc 10e1 8ebc 9dcf 4e3d
00000210: 9aab 9cbd dc46 073e 81e5 663c 412f e0bc
00000220: f700 a0bc 8e18 263e c503 28bd 904c 953c
00000230: 6c82 34bb f019 283d bccf 333e 92bc 1bbc
00000240: 09df 01be 6161 f4bd 1af9 fabc 22c2 88bd
00000250: b77a b73d 8e91 a73c 1c11 1b3d 5bf7 223b
00000260: b536 553b 4c7c f7bd 5c5c 3abe d00b d2bd
00000270: 0e20 52be 09ce 35be e061 08be e505 dabe
00000280: 6770 3ebe 3ab8 a9be fd3c 6bbe 9e41 67be
00000290: 3609 93be c741 18be f5b2 83be c928 4dbd
000002a0: 059f 5bbd 6c5d 83be ac8b 3abe a281 89be
000002b0: 7537 eabd d930 7fbe 35bf 82bd fac2 95bd
000002c0: dceb b8be 244f dfbd 049b a63b 36be 973c
000002d0: e3b3 45be 7930 88bc f87d c5bd 4b4c 69bb
000002e0: c7d2 e4be 8cef 10bd 10c2 82be 839c ecbd
000002f0: 770a 9bbe b60c 01bd 0f41 3bbe 5b8a c5bc
00000300: 2af5 693d 9b30 6fbe 55cb a0be e5d6 ee3d
00000310: 31f3 ae3d 0561 30be 4626 90bd 6a64 843b

weight_ih_l1 f4 [200, 50]
-0.0646942 0.10013711 0.020533334 -0.08791521 -0.03731111 -0.17067583 -0.21499138 -0.024472237
0.16061798 0.48838577 0.033004783 0.055899378 -0.37587196 0.0430355 0.22236164 -0.036239285
-0.21360898 -0.30706248 -0.29617587 -0.23281717 -0.107454985 -0.2164305 -0.08928478 0.14294869
0.05950804 0.16273296 -0.01419441 -0.05416829 -0.27218488 -0.285051 -0.13791843 0.18495707
0.10805521 0.13195466 0.36215267 0.12615436 -0.1254447 0.1693127 -0.1812529 0.29005554
0.045621872 0.11925704 -0.02230712 0.17417379 -0.44845554 -0.2752456 0.1336449 -0.13099301
-0.03971357 0.07311306 -0.030264335 0.30451056 -0.16790567 -0.5994979 -0.08080031 -0.21759145
-0.4915321 -0.32790253 0.33458075 0.2535105 0.28313524 0.30544868 -0.32419232 -0.35211435
-0.24614878 -0.1126174 -0.24126486 -0.21948358 -0.40633002 -0.21090628 -0.47844693 -0.16184947
-0.3221947 -0.065423384 0.4193686 0.29554525 -0.11195846 -0.5653735 -0.4000836 -0.36189312
-0.2756461 0.3491128 0.1654486 0.37828243 -0.17867598 0.2230331 -0.30638632 0.5563133
0.6432563 0.44999117 0.2746516 0.33624038 0.099540256 -0.24471359 -0.21944965 -0.34387708
-0.45482033 -0.07134548 -0.2325913 0.057708964 0.2809258 0.13492583 -0.008016886 0.19024445
-0.106012575 -0.29139438 0.03211006 -0.05802958 0.37775177 -0.41976547 -0.07665662 -0.39445764
-0.014846178 0.4331679 0.34049168 0.22633004 -0.0055559766 -0.21757421 -0.28396267 -0.078277834
-0.029785946 -0.596677 -0.23043689 0.2648695 0.11479472 0.2592212 0.09534505 0.020489449
-0.22847237 -0.21770102 0.033313416 0.08287699 0.36504906 0.29210997 0.27758917 0.5810591
-0.04930968 0.028208883 -0.40789565 0.18701103 -0.091689214 -0.09907317 -0.30166185 0.37400877
0.48967338 -0.33153197 0.1962896 -0.2543143 -0.5842894 0.18225962 -0.0056973672 0.075378746
-0.055122506 0.1184607 -0.16873273 -0.1395018 -0.06990154 -0.24177198 0.18914771 -0.004343944
-0.010969542 -0.11448437 -0.17305931 -0.0720088 0.006526952 0.028513461 -0.07121272 -0.13081387
-0.06227916 -0.23657943 -0.24615678 -0.22274628 -0.14353292 -0.0068600457 -0.021349885 0.038438898
-0.08734491 -0.09902664 -0.04330364 -0.11123795 -0.02250263 0.17927001 0.23039037 0.068198696
-0.059304893 0.22211206 -0.13264321 0.03439332 -0.21690223 0.0020567146 0.05265731 -0.20392174
0.029706284 0.08949237 -0.029525194 -0.07693911 0.166173 0.023477213 -0.09751962 0.09995023
0.3033643 -0.1120173 -0.004530064 0.095231876 0.11725706 0.0064869723 0.075808935 0.04408657
-0.07444803 -0.265845 0.009418792 -0.14188938 0.052424863 0.2282316 0.094093256 0.28409398
0.1900457 0.18344031 -0.09079576 0.16030347 0.19367434 -0.13529202 0.05128804 0.1590952
-0.08672623 -0.011474827 0.01752832 -0.13473669 0.030457826 -0.0083373 0.19479787 0.03979934
0.11782334 -0.04940114 0.1478211 0.14839967 -0.06548549 -0.14118351 -0.050911266 -0.074414715
0.08986334 -0.081588425 -0.3180485 -0.024279147 0.32179043 0.0048131137 0.08967151 -0.16673124
-0.04112177 0.19769782 0.13420337 0.16994058 -0.14013462 -0.036096267 -0.015962437 -0.3529843
00000000: 657e 84bd af14 cd3d 8635 a83c e40c b4bd
00000010: 89d3 18bd a5c5 2ebe b326 5cbe 007a c8bc
00000020: 0a79 243e b30d fa3e 0630 073d bff6 643d
00000030: 4a72 c0be fe45 303d c5b2 633e a56f 14bd
00000040: 50bc 5abe 4b37 9dbe 5da4 97be a067 6ebe
00000050: 5c11 dcbd f59f 5dbe f0da b6bd 2461 123e
00000060: b4be 733d 78a3 263e ac8f 68bc 92df 5dbd
00000070: d15b 8bbe 34f2 91be 7d3a 0dbe 6365 3d3e
00000080: 0d4c dd3d 1f1f 073e 136c b93e 9c2e 013e
00000090: 9374 00be 4f60 2d3e 5c9a 39be 2982 943e
000000a0: 00de 3a3d 093d f43d 6cbd b6bc 9d5a 323e
000000b0: f79b e5be feec 8cbe 35da 083e 0823 06be
000000c0: b2aa 22bd 4dbc 953d e9ec f7bc cfe8 9b3e
000000d0: 77ef 2bbe b278 19bf a27a a5bd 4bd0 5ebe
000000e0: 18aa fbbe d7e2 a7be 2b4e ab3e 21cc 813e
000000f0: 1af7 903e c563 9c3e 89fc a5be 5548 b4be
00000100: 6d0e 7cbe f4a3 e6bd 230e 77be 4ec0 60be
00000110: 7d0a d0be d1f7 57be fff6 f4be debb 25be
00000120: b4f6 a4be b2fc 85bd 7bb7 d63e b551 973e
00000130: 7a4a e5bd 51bc 10bf c2d7 ccbe 0e4a b9be
00000140: 7c21 8dbe eabe b23e 5c6b 293e 3cae c13e
00000150: d6f6 36be ca62 643e abde 9cbe 8c6a 0e3f
00000160: 72ac 243f 3e65 e63e 229f 8c3e b327 ac3e
00000170: c3db cb3d 3396 7abe 69b7 60be a810 b0be
00000180: 36de e8be 941d 92bd 6a2c 6ebe 3c60 6c3d
00000190: 82d5 8f3e ff29 0a3e 4259 03bc 71cf 423e
000001a0: 1f1d d9bd a531 95be d785 033d 6db0 6dbd
000001b0: ae68 c13e 80eb d6be 25fe 9cbd 5af6 c9be
000001c0: 623d 73bc 2fc8 dd3e ed54 ae3e 10c3 673e
000001d0: e90e b6bb c6cb 5ebe 8e63 91be 2150 a0bd
000001e0: a801 f4bc d3bf 18bf a6f7 6bbe fa9c 873e
000001f0: 7f19 eb3d a4b8 843e 4444 c33d 7dd9 a73c
00000200: a9f4 69be 04ed 5ebe a673 083d 69bb a93d
00000210: b6e7 ba3e 708f 953e 2b20 8e3e 4ac0 143f
00000220: f2f8 49bd 5116 e73c b3d7 d0be d27f 3f3e
00000230: 8ec7 bbbd e0e6 cabd 6c73 9abe 147e bf3e
00000240: 78b6 fa3e 8fbe a9be 2400 493e 7c35 82be
00000250: fd93 15bf 44a2 3a3e fbb0 babb 2c60 9a3d
00000260: 23c8 61bd 869b f23d 46c8 2cbe 8fd9 0ebe
00000270: 8a28 8fbd 1393 77be f0af 413e a557 8ebb
00000280: 98b9 33bc c876 eabd 7636 31be 5a79 93bd
00000290: 0be0 d53b 1095 e93c f9d7 91bd 12f4 05be
000002a0: 6f18 7fbd e141 72be 8610 7cbe 9a17 64be
000002b0: 4bfa 12be 3cca e0bb f4e5 aebc 1b72 1d3d
000002c0: e3e1 b2bd 7bce cabd 285f 31bd b9d0 e3bd
000002d0: 6f57 b8bc 8f92 373e 74eb 6b3e c2ab 8b3d
000002e0: b0e9 72bd 5871 633e 9fd3 07be 03e0 0c3d
000002f0: 9e1b 5ebe f2c9 063b 31af 573d dcd0 50be
00000300: 985a f33c c747 b73d d2de f1bc 4192 9dbd
00000310: 4129 2a3e 4953 c03c 5eb8 c7bd b5b2 cc3d
00000320: 9152 9b3e 5469 e5bd ee70 94bb ee08 c33d
00000330: 7824 f03d ab90 d43b b741 9b3d 1f94 343d
00000340: 3578 98bd d61c 88be 4751 1a3c 734b 11be
00000350: 74bb 563d 8bb5 693e f7b3 c03d c474 913e
00000360: 579b 423e c7d7 3b3e 21f3 b9bd 9826 243e
00000370: 9152 463e fe89 0abe 6813 523d dae9 223e
00000380: 869d b1bd ea00 3cbc 8d97 8f3c 6af8 09be
00000390: b182 f93c 2c99 08bc 1879 473e a204 233d
000003a0: 5d4d f13d da58 4abd 6a5e 173e 15f6 173e
000003b0: 421d 86bd 6992 10be 5588 50bd be66 98bd
000003c0: 450a b83d d517 a7bd 41d7 a2be 10e5 c6bc
000003d0: b7c1 a43e 53b7 9d3b b2a5 b73d 98bb 2abe
000003e0: 4d6f 28bd 4c71 4a3e 9c6c 093e e704 2e3e
000003f0: 737f 0fbe aed9 13bd a8c3 82bc 5cba b4be

weight_hh_l1 f4 [200, 50]
0.014146598 -0.087167725 -0.112593085 -0.003980109 -0.15810376 0.20188986 0.007117808 0.65189487
0.122124635 0.2622704 -0.21108685 0.20930195 0.2916826 -0.2830016 -0.32957408 -0.20450225
-0.14385827 0.12055344 -0.11310442 0.20067489 -0.023388376 0.042449705 -0.32086337 0.15982786
-0.060371496 -0.031550366 -0.033462815 0.70628774 0.14527684 0.15110524 0.079546146 -0.08614152
0.026689155 0.38391542 0.11396627 -0.052104313 0.16484588 -0.20896785 0.12781593 -0.31483334
0.11955094 0.055255357 0.18000504 0.33280525 -0.1226875 0.24692954 -0.19980481 0.17807047
-0.120765865 -0.22551335 0.0834056 -0.008870088 0.36314604 0.33466902 -0.1137932 -0.038281295
-0.11361418 0.38610944 0.22294722 0.15961525 0.073546104 0.12178025 0.12030584 0.011920308
-0.17644131 0.3003338 -0.053315304 0.059834577 -0.31256703 0.21905822 -0.15721214 0.02081129
0.06373666 0.13832238 -0.17968279 0.07281339 -0.122869834 0.3631043 0.333181 0.10616162
0.115947165 0.044588145 -0.019072585 0.10353907 -0.16585974 -0.14229593 0.08651317 0.011571093
-0.06863508 -0.06772756 0.18763839 -0.20141724 -0.06873622 0.037118696 -0.24895482 0.032837953
-0.10912752 0.07600784 0.21615848 -0.058158174 -0.14543058 0.10198891 -0.44955721 0.22028233
0.14195265 -0.10967186 -0.20254135 0.4944853 -0.029853188 0.18728988 -0.20745169 0.042952422
-0.15410511 -0.041315593 0.17562969 -0.32357392 -0.23296236 0.19796832 0.15622346 -0.050947003
-0.13144666 0.25122043 0.07984465 0.28927907 -0.43643025 -0.078142405 0.094821274 0.21452709
-0.058035284 0.14715666 0.005005044 0.12892114 0.0997121 -0.09677423 -0.22545893 0.1439672
-0.14366059 0.13289846 -0.019633714 0.22294648 0.019484691 0.023727786 0.42463344 -0.0089166695
-0.019912029 0.1975092 0.031309456 0.1291963 0.036215466 0.12270621 0.065172195 0.08470793
0.029660821 -0.14047347 0.017573416 0.2752166 0.06527242 0.40086648 0.08991546 0.07943558
-0.08183843 0.16973 0.29106188 -0.23485546 -0.16833934 -0.020657297 -0.21531333 0.009772521
0.31379277 -0.089225255 -0.03545467 -0.089030385 -0.13695775 0.10588425 -0.2529352 0.2465696
-0.14572123 0.60083073 -0.2211843 -0.14064284 -0.050820466 -0.06771965 0.067348346 -0.00273358
-0.13369064 0.066221364 0.10069702 -0.06761769 -0.08041865 -0.2125408 -0.07402359 -0.01595006
0.28396502 0.15137886 0.17995444 0.049883965 0.036410574 0.0708638 -0.031959783 -0.1104908
-0.20480387 0.11838686 -0.008523435 0.04147978 -0.018447816 -0.28454036 -0.064401604 0.23084159
0.11579537 -0.02310242 -0.042667296 0.028430939 0.18879177 0.019352723 0.13210207 0.18079439
-0.0044096983 -0.021821428 -0.10152482 -0.019651389 0.022358958 0.06450473 0.10065325 -0.034813724
-0.2847493 -0.115466595 -0.08567976 0.29358298 0.07952611 0.123797454 0.13119625 -0.056707036
-0.013342118 -0.118217684 -0.14023034 -0.124618836 -0.02767646 -0.027396327 -0.11640797 0.021542795
-0.018395202 -0.12079212 -0.07469823 -0.109364465 -0.05771148 0.12066966 -0.08967302 -0.2114066
-0.09302527 0.10528284 0.33985904 -0.09718396 -0.14164928 -0.06215513 0.04651578 0.3287703
00000000: 22c7 673c fe84 b2bd 3497 e6bd 936b 82bb
00000010: f4e5 21be 37bc 4e3e 803c e93b 95e2 263f
00000020: 7b1c fa3d 4e48 863e 2727 58be 4053 563e
00000030: 6c57 953e 96e5 90be efbd a8be 0a69 51be
00000040: 954f 13be b9e4 f63d 4aa3 e7bd b87d 4d3e
00000050: fb98 bfbc bedf 2d3d 3448 a4be eaa9 233e
00000060: 1a48 77bd f53a 01bd 4e10 09bd 46cf 343f
00000070: 74c3 143e 55bb 1a3e 17e9 a23d f76a b0bd
00000080: 37a3 da3c 9090 c43e 2667 e93d 556b 55bd
00000090: 5ccd 283e abfb 55be 2ee2 023e d631 a1be
000000a0: 20d7 f43d 7153 623d 3e53 383e 7365 aa3e
000000b0: 9643 fbbd 19db 7c3e a299 4cbe 1b58 363e
000000c0: 1854 f7bd f9ec 66be 8ed0 aa3d d853 11bc
000000d0: 47ee b93e bd59 ab3e 690c e9bd d9cc 1cbd
000000e0: 8dae e8bd 23b0 c53e 474c 643e 2e72 233e
000000f0: 579f 963d ec67 f93d e962 f63d 654d 433c
00000100: 08ad 34be 5ac5 993e 2661 5abd 1a15 753d
00000110: c908 a0be cc50 603e 38fc 20be 707c aa3c
00000120: 5e88 823d 62a4 0d3e c4fe 37be 301f 953d
00000130: 2ea3 fbbd cfe8 b93e b396 aa3e 436b d93d
00000140: b575 ed3d 0fa2 363d 1c3e 9cbc 4b0c d43d
00000150: 23d7 29be 06b6 11be d12d b13d af94 3d3c
00000160: 8c90 8cbd bfb4 8abd 4724 403e 5240 4ebe
00000170: 93c5 8cbd c609 183d 03ee 7ebe 1781 063d
00000180: 407e dfbd 00aa 9b3d a658 5d3e 4437 6ebd
00000190: c1eb 14be 90df d03d 5d2c e6be b191 613e
000001a0: 095c 113e a49b e0bd 0067 4fbe 2d2d fd3e
000001b0: ac8e f4bc ebc8 3f3e 376e 54be e1ee 2f3d
000001c0: bbcd 1dbe 8a3a 29bd 45d8 333e 7bab a5be
000001d0: af8d 6ebe 35b8 4a3e 0bf9 1f3e cead 50bd
000001e0: f499 06be f79f 803e 9885 a33d 631c 943e
000001f0: c973 dfbe 2009 a0bd a831 c23d fdac 5b3e
00000200: 68b6 6dbd 3cb0 163e 5a01 a43b e703 043e
00000210: dc35 cc3d 9131 c6bd b5de 66be 236c 133e
00000220: c31b 13be 8916 083e e2d6 a0bc 154c 643e
00000230: 5c9e 9f3c c660 c23c 8e69 d93e 3917 12bc
00000240: 8d1e a3bc da3f 4a3e 583e 003d 094c 043e
00000250: ab56 143d 654d fb3d 0079 853d 5a7b ad3d
00000260: 40fb f23c 47d8 0fbe 20f6 8f3c 31e9 8c3e
00000270: 8cad 853d 5f3e cd3e 9925 b83d 1faf a23d
00000280: e89a a7bd b3cd 2d3e 1006 953e f37d 70be
00000290: 2661 2cbe 7e39 a9bc 197b 5cbe ed1c 203c
000002a0: 72a9 a03e bbbb b6bd eb38 11bd 9055 b6bd
000002b0: a73e 0cbe d7d9 d83d b980 81be be7c 7c3e
000002c0: f237 15be 0bd0 193f 237e 62be ad04 10be
000002d0: 1f29 50bd 9ab0 8abd eeed 893d dd25 33bb
000002e0: 33e6 08be 119f 873d 3d3a ce3d 257b 8abd
000002f0: 88b2 a4bd 4ca4 59be ae99 97bd b3a9 82bc
00000300: dd63 913e 0f03 1b3e fa45 383e 2153 4c3d
00000310: 4123 153d 0a21 913d 43e8 02bd 0049 e2bd
00000320: 1bb8 51be cf74 f23d e1a5 0bbc b4e6 293d
00000330: e01f 97bc 46af 91be fde4 83bd bd61 6c3e
00000340: 1f26 ed3d 4941 bdbc e7c3 2ebd 00e8 e83c
00000350: a152 413e 9a89 9e3c c445 073e 2a22 393e
00000360: 3b7f 90bb dac2 b2bc 3fec cfbd f3fb a0bc
00000370: 222a b73c 0e1b 843d 4b23 ce3d d698 0ebd
00000380: a9ca 91be c079 ecbd df78 afbd 8250 963e
00000390: 96de a23d 8589 fd3d 4f58 063e a345 68bd
000003a0: e698 5abc 1d1c f2bd 8b98 0fbe 2938 ffbd
000003b0: beb9 e2bc 436e e0bc 4d67 eebd 847a b03c
000003c0: 89b1 96bc dc61 f7bd 63fb 98bd 7afa dfbd
000003d0: df62 6cbd a821 f73d 7da6 b7bd f97a 58be
000003e0: 0884 bebd 889e d73d 0102 ae3e 6208 c7bd
000003f0: 820c 11be 6196 7ebd 5587 3e3d 9554 a83e

bias_ih_l1 f4 [200]
-0.123746954 0.12020445 -0.57333934 -0.57684857 -0.122634515 0.17218898 -0.09528329 -0.12905245
-0.40312624 0.029032433 -0.020136423 -0.018670542 -0.34696308 -0.040505487 -0.07126644 -0.14127192
-0.0573772 -0.19864318 -0.1510421 0.13981263 -0.19859552 -0.18126358 -0.08849198 0.004386456
-0.52968234 -0.2389266 0.042260047 -0.016301326 -0.03035416 -0.021169513 -0.15511872 -0.046568528
-0.12388654 -0.2993422 -0.17548439 -0.38811067 0.08478857 -0.15653367 -0.033162154 -0.22862123
-0.24321024 0.023495985 -0.23406512 -0.14508037 0.1755663 0.10043238 -0.079014614 -0.10489158
0.024349933 -0.28791636 -0.14636357 0.1277157 -0.565432 -0.44966042 -0.12691052 -0.16110928
-0.11614227 0.0024490352 -0.44885266 -0.04446278 -0.35461515 -0.046852186 -0.21472465 -0.027955426
-0.12422479 -0.37888086 -0.2558095 -0.12082475 -0.25187007 0.022561593 -0.19912174 -0.22189645
-0.018487787 0.045613565 -0.31048787 -0.36290124 -0.31963494 -0.1977729 -0.13208978 0.10060389
0.04704556 -0.14031371 -0.2736926 -0.21204127 -0.18431062 -0.3868664 -0.19028479 -0.06638396
-0.15702653 -0.17863981 -0.090497814 0.0035870483 -0.36931565 -0.0810825 0.08788342 -0.14310463
0.023376195 -0.2374551 0.047088385 -0.115317725 0.03721226 -0.015136571 0.19393164 -0.02769794
-0.09247043 0.00674063 -0.034636643 -0.08103576 0.122922435 0.095713094 -0.08703306 -0.09687497
-0.0054379087 -0.0052626105 -0.042469583 0.08045956 0.060306266 -0.006778691 0.04274929 -0.15501726
0.025424995 -0.03398701 -0.11004352 0.12819883 0.13044634 0.054528844 0.1146091 0.11405178
-0.02225884 -0.040079504 0.11818777 -0.0693806 -0.041525736 0.055067547 0.0007904658 -0.0040954826
0.06934106 0.0788275 0.059903998 0.008831121 0.04272574 0.015079614 -0.0069388933 -0.04352805
-0.057400167 -0.04765155 0.019137546 -0.05735727 -0.058591284 0.008257676 -0.12558281 0.0016211726
-0.72238755 -0.37215206 -0.06494132 0.2218366 -0.030398732 -0.14653674 -0.35488787 -0.17278954
-0.10252372 -0.16581672 -0.3700648 -0.13425086 -0.24151072 -0.2491384 -0.2394836 -0.057096563
0.023857314 -0.12718697 -0.08873665 -0.2600308 0.046472088 -0.00014864354 -0.38905308 -0.23304793
-0.036535554 0.014224635 -0.16601801 0.03411077 -0.14449117 -0.07944579 -0.095895246 -0.081895374
-0.4109092 -0.43686873 -0.11205672 -0.10983207 0.0459847 -0.19448365 -0.02956561 0.16385573
-0.18443686 -0.028266622 0.07860409 -0.020291537 -0.10282387 -0.14460477 0.17763735 -0.09026478
00000000: 0b6f fdbd c02d f63d 5ec6 12bf 59ac 13bf
00000010: ce27 fbbd 4f52 303e e323 c3bd 5326 04be
00000020: 9066 cebe 6dd5 ed3c 24f5 a4bc f7f2 98bc
00000030: 25a5 b1be 15e9 25bd 24f4 91bd 96a9 10be
00000040: 5b04 6bbd 1e69 4bbe c8aa 1abe 0b2b 0f3e
00000050: a05c 4bbe 299d 39be 493b b5bd 43bc 8f3b
00000060: 4399 07bf 2da9 74be df18 2d3d 5c8a 85bc
00000070: 4aa9 f8bc b06b adbc 71d7 1ebe a4be 3ebd
00000080: 3ab8 fdbd 6143 99be 2eb2 33be 71b6 c6be
00000090: a1a5 ad3d 5d4a 20be 0ad5 07bd af1b 6abe
000000a0: 1b0c 79be a77a c03c c4ae 6fbe f38f 14be
000000b0: a7c7 333e 7eaf cd3d 6ad2 a1bd 66d1 d6bd
000000c0: 8379 c73c c669 93be 55e0 15be e8c7 023e
000000d0: 27c0 10bf e439 e6be d5f4 01be d5f9 24be
000000e0: 00dc edbd fe7f 203b 04d0 e5be 9b1e 36bd
000000f0: 1e90 b5be 14e8 3fbd c7e0 5bbe c702 e5bc
00000100: 9169 febd acfc c1be 76f9 82be f772 f7bd
00000110: 1df5 80be 17d3 b83c 92e6 4bbe d338 63be
00000120: b373 97bc 4ad5 3a3d 44f8 9ebe 31ce b9be
00000130: 31a7 a3be fb84 4abe 8b42 07be 6a09 ce3d
00000140: d8b2 403d 66ae 0fbe 7021 8cbe 5921 59be
00000150: ecbb 3cbe 5a13 c6be 04da 42be 50f4 87bd
00000160: 90cb 20be 5bed 36be eb56 b9bd af14 6b3b
00000170: f116 bdbe 950e a6bd 39fc b33d 058a 12be
00000180: 6f7f bf3c 6e27 73be c0df 403d b32b ecbd
00000190: e26b 183d 61ff 77bc 0496 463e cae6 e2bc
000001a0: 2361 bdbd 81e0 dc3b 27df 0dbd 14f6 a5bd
000001b0: c2be fb3d 3a05 c43d 643e b2bd 6266 c6bd
000001c0: 7c30 b2bb fa71 acbb 96f4 2dbd fbc7 a43d
000001d0: b403 773d c81f debb e119 2f3d d8bc 1ebe
000001e0: 1448 d03c f735 0bbd 7f5e e1bd 8e46 033e
000001f0: ba93 053e a359 5f3d 2db8 ea3d fb93 e93d
00000200: 2c58 b6bc 682a 24bd 6e0c f23d 6a17 8ebd
00000210: e416 2abd 828e 613d 4337 4f3a 6633 86bb
00000220: b002 8e3d 5070 a13d e55d 753d 68b0 103c
00000230: 2f01 2f3d 7c10 773c a85f e3bb 784a 32bd
00000240: 701c 6bbd 462e 43bd 58c6 9c3c 75ef 6abd
00000250: 6afd 6fbd 344b 073c c898 00be 877d d43a
00000260: 64ee 38bf b78a bebe f4ff 84bd 2229 633e
00000270: c306 f9bc ba0d 16be ddb3 b5be beef 30be
00000280: f5f7 d1bd dccb 29be 2279 bdbe 0f79 09be
00000290: 964e 77be 231e 7fbe 303b 75be 16de 69bd
000002a0: 6a70 c33c 4d3d 02be 90bb b5bd c222 85be
000002b0: 8459 3e3d 32dd 1bb9 f731 c7be 1ea4 6ebe
000002c0: 4ea6 15bd 720e 693c a000 2abe bcb7 0b3d
000002d0: 7ef5 13be 79b4 a2bd ba64 c4bd c3b8 a7bd
000002e0: b162 d2be 42ad dfbe fe7d e5bd a3ef e0bd
000002f0: 745a 3c3d b926 47be 9433 f2bc ccc9 273e
00000300: 04dd 3cbe 678f e7bc 2efb a03d 703a a6bc
00000310: 5295 d2bd 4613 14be 91e6 353e bedc b8bd

bias_hh_l1 f4 [200]
-0.014472663 -0.062890634 -0.69422185 -0.36899105 0.047649115 0.09693231 0.12158488 -0.065719545
-0.51560724 -0.095740885 -0.1200655 -0.06444076 -0.21510237 -0.107891366 -0.22686982 -0.35650805
-0.28988808 -0.15826337 0.04846984 0.11416293 0.0012405147 -0.098090455 0.007976213 0.017560774
-0.37658596 -0.12202427 -0.08120001 0.041907158 0.07029471 -0.03929806 -0.11751262 -0.025082482
-0.19246027 -0.02831264 -0.3002168 -0.36763045 0.027989015 -0.15354088 -0.029325021 -0.20608106
-0.15614417 0.16201945 -0.18995506 -0.056960862 0.018927982 -0.16784729 -0.05174946 -0.05857362
0.14694387 -0.17122312 -0.26353484 0.11969917 -0.7020979 -0.57285994 -0.18136825 -0.118523896
-0.17464988 -0.11840083 -0.50757027 -0.07101263 -0.19645111 -0.20974444 -0.32343918 -0.20128354
-0.27453655 -0.3354921 -0.26539692 -0.21228866 -0.17448713 -0.08997013 -0.0572933 -0.29248166
-0.17020568 -0.10811024 -0.40283737 -0.366892 -0.18524611 -0.09580156 -0.23133035 -0.11262029
-0.17161356 -0.12941025 -0.16554876 -0.24812096 -0.1877609 -0.36476952 -0.076310664 -0.15833436
-0.044583566 -0.24131085 -0.21739912 -0.1331688 -0.30278757 -0.038359918 0.15877555 -0.052604783
-0.04630513 -0.2052432 0.19407447 -0.14645964 -0.031246403 0.05346133 0.06881257 -0.0057936986
-0.032443 0.009843483 0.047263283 -0.21341276 -0.1160421 -0.053331073 0.1155208 0.14925778
0.011182423 -0.021620367 -0.05153705 -0.08236447 -0.060042933 -0.03880911 -0.04483752 0.0069873454
-0.02501033 0.03222801 0.057153728 -0.034078237 0.0843196 0.0360483 -0.10910448 -0.071788244
-0.008410742 0.10253547 -0.15571982 0.028556364 0.08834436 0.0280889 0.11819967 0.009812389
-0.0149589125 -0.12633653 0.0025425828 -0.06460878 -0.012079822 0.012547707 -0.066803426 0.07149806
0.12071719 0.098920934 -0.12694477 0.13020037 -0.017311914 -0.04233651 -0.033106085 0.035904355
-0.6591747 -0.50380826 0.07729186 0.08108353 0.067643754 -0.3081128 -0.33799085 0.062067006
-0.19685274 -0.039984144 -0.35536823 -0.12606502 -0.26362887 -0.37428495 -0.09547862 -0.15855554
-0.12595156 -0.033966202 -0.051991288 -0.1560268 0.085601956 0.1542808 -0.56354094 -0.015369436
-0.15609421 -0.09906595 -0.12626271 -0.016045667 -0.036116738 -0.2677719 -0.08993843 -0.21017683
-0.366385 -0.4042733 -0.12812935 -0.063139446 0.040904917 -0.1774709 -0.05373617 0.11949816
-0.22180729 -0.1170934 0.06045039 -0.021674018 -0.10265186 -0.107783586 0.10224955 -0.041954413
00000000: c01e 6dbc cecc 80bd 86b8 31bf 65ec bcbe
00000010: b82b 433d 7284 c63d 7e01 f93d f897 86bd
00000020: d6fe 03bf cc13 c4bd e7e4 f5bd 84f9 83bd
00000030: cc43 5cbe 26f6 dcbd 9050 68be 3988 b6be
00000040: 366c 94be cb0f 22be 5088 463d 41ce e93d
00000050: c498 a23a a6e3 c8bd a9ae 023c 9ddb 8f3c
00000060: e0cf c0be dce7 f9bd 314c a6bd d7a6 2b3d
00000070: acf6 8f3d 01f7 20bd 75aa f0bd c779 cdbc
00000080: 4e14 45be e9ef e7bc 04b6 99be 0f3a bcbe
00000090: 3849 e53c d239 1dbe 073b f0bc ea06 53be
000000a0: 42e4 1fbe 6de8 253e 9483 42be cb4f 69bd
000000b0: db0e 9b3c 29e0 2bbe 3ef7 53bd e4ea 6fbd
000000c0: 7478 163e 1d55 2fbe 0aee 86be d724 f53d
000000d0: b0bc 33bf f3a6 12bf 99b8 39be a8bc f2bd
000000e0: 6bd7 32be 227c f2bd 20f0 01bf 126f 91bd
000000f0: 7b2a 49be 3fc7 56be d299 a5be 461d 4ebe
00000100: 0e90 8cbe 9fc5 abbe 1be2 87be 3362 59be
00000110: c1ac 32be 4242 b8bd 61ac 6abd 28c0 95be
00000120: 664a 2ebe e768 ddbd b340 cebe 45d9 bbbe
00000130: 28b1 3dbe 9c33 c4bd dde1 6cbe 77a5 e6bd
00000140: 77bb 2fbe 1f84 04be 9d85 29be 6c13 7ebe
00000150: 6544 40be 12c3 babe c448 9cbd 6722 22be
00000160: 429d 36bd 311a 77be e09d 5ebe 675d 08be
00000170: f906 9bbe 4a1f 1dbd 0f96 223e 1d78 57bd
00000180: 73aa 3dbd 462b 52be 75bb 463e 84f9 15be
00000190: 75f8 ffbc 44fa 5a3d 9bed 8c3d 11d9 bdbb
000001a0: f3e2 04bd 8f46 213c 2597 413d e088 5abe
000001b0: 7ba7 edbd af71 5abd 2b96 ec3d 08d7 183e
000001c0: 7b36 373c 321d b1bc 8418 53bd b4ae a8bd
000001d0: 94ef 75bd 4df6 1ebd 8ca7 37bd 1af6 e43b
000001e0: 77e2 ccbc 8501 043d 071a 6a3d 9f95 0bbd
000001f0: c1af ac3d 62a7 133d 2b72 dfbd b705 93bd
00000200: 35cd 09bc 1efe d13d 0475 1fbe 09ef e93c
00000210: e3ed b43d b11a e63c ab12 f23d 24c4 203c
00000220: 3a16 75bc 5d5e 01be 76a1 263b 9c51 84bd
00000230: 72ea 45bc e694 4d3c 3cd0 88bd 936d 923d
00000240: 933a f73d 0f97 ca3d cffd 01be 3f53 053e
00000250: b7d1 8dbc 0c69 2dbd 3f9a 07bd 7210 133d
00000260: acbf 28bf 94f9 00bf 324b 9e3d 1f0f a63d
00000270: cf88 8a3d f6c0 9dbe 230d adbe f939 7e3d
00000280: c493 49be 6ac6 23bd d3f2 b5be 3017 01be
00000290: 5dfa 86be 47a2 bfbe 4b8a c3bd 625c 22be
000002a0: 72f9 00be 2520 0bbd d1f4 54bd 7dc5 1fbe
000002b0: 1450 af3d c9fb 1d3e 3844 10bf 16d0 7bbc
000002c0: 29d7 1fbe 17e3 cabd 034b 01be 3472 83bc
000002d0: 25ef 13bd 6619 89be a431 b8bd 9838 57be
000002e0: d196 bbbe e9fc cebe 5734 03be 414f 81bd
000002f0: ea8b 273d eeba 35be 751a 5cbd 74bb f43d
00000300: 7321 63be aace efbd d49a 773d b68d b1bc
00000310: 233b d2bd a4bd dcbd 3668 d13d 64d8 2bbd

weight_ih_l2 f4 [200, 50]
-0.23984228 -0.08098968 -0.2575973 -0.052134365 -0.060335644 -0.075938314 -0.06533992 0.46882847
-0.15922497 0.047540642 0.024356276 0.07845182 0.12740205 -0.046297718 0.10728026 0.095352635
0.1530075 0.25933635 -0.21876043 0.19799231 -0.07604695 0.085174166 0.20825818 0.12595661
-0.35491338 -0.18002519 -0.109446466 0.11658491 0.21668068 -0.06821717 0.19638126 -0.00021789678
0.04708749 0.035367563 -0.19330354 0.06334967 -0.067422956 0.033150367 -0.12969093 0.12110139
-0.16654012 -0.102719545 0.20624761 -0.16610874 -0.22260273 0.07723154 -0.025380917 -0.12436354
0.17253594 0.28578025 0.13275485 -0.0936575 0.17204773 0.10949664 0.1975515 0.24347678
0.060524646 0.36630183 0.015466269 -0.16659637 -0.36034396 -0.006129633 0.4479015 -0.27536222
0.052521624 -0.04227173 0.07752108 0.089166366 0.0130389845 0.041116655 0.011530403 0.23984104
-0.24426146 -0.09933973 -0.18280862 0.15641655 -0.30391145 0.6108975 0.071800634 -0.059995018
0.026117671 -0.03838114 0.43738088 -0.115945294 -0.21411182 0.04142284 -0.15727821 0.040016104
-0.1545549 0.053921197 -0.24061686 0.022456119 0.014105563 0.059063204 0.0026980585 -0.030609254
0.23326983 -0.073503576 -0.037739154 0.029354552 -0.031376723 -0.019043246 -0.18549563 -0.05575655
-0.08208204 -0.046955872 -0.17792176 0.3153117 0.09139923 -0.060573168 0.09726607 0.13995838
-0.097351894 0.14243017 0.13374956 0.06898436 -0.060233213 0.24676049 -0.14697559 0.12615728
0.057639334 0.16641349 0.030958297 0.043728713 -0.21169123 0.0010605252 0.072900616 0.11385157
-0.062272456 0.054924477 0.10582792 0.08938275 -0.19257596 -0.09932519 -0.09028015 -0.052341457
-0.065774746 0.0856075 -0.028590105 0.16825731 0.076997325 -0.21694237 0.25972885 -0.2427714
-0.15979409 0.018866116 0.12785292 -0.17674403 0.019992864 0.26665545 0.30322978 -0.12190046
0.2382566 -0.014519783 0.17101398 0.21361858 0.3323831 0.3645638 0.177932 -0.008763195
-0.04077968 0.01895921 0.40455022 -0.38482547 0.25146145 0.17757975 0.006989215 0.019944705
0.08491477 -0.013921591 -0.024810137 0.06290549 -0.31093615 -0.07367562 -0.13165756 0.23710214
-0.10574589 0.29761103 0.070800796 0.05369952 -0.06604378 0.10874806 0.24565507 -0.17843857
-0.28611937 0.17625378 -0.14530495 0.20286602 -0.0535135 0.0022993358 -0.1822415 0.26615426
-0.09210467 -0.12752376 -0.1443024 0.012299014 0.06793657 -0.0072811595 0.32532397 0.04869174
-0.14508097 0.038042832 -0.3082218 -0.09550841 0.05678031 -0.1043785 -0.3332824 0.17453757
0.06923244 -0.103502855 0.13706939 0.020908661 -0.15784374 0.20393069 0.19044703 0.016005727
0.13245384 0.14963558 -0.15674624 -0.021006448 0.046441 -0.013551539 0.30243644 0.15621284
-0.34929928 -0.3159969 0.16582139 -0.2587781 0.17867744 0.15591815 0.25140825 0.16975196
-0.13616833 0.034678157 -0.12252866 0.08291349 -0.007440435 0.19580679 -0.040274102 0.09874978
0.12730634 -0.046222713 0.19424023 -0.056943703 -0.011660397 0.071888015 0.03272835 0.0072716777
0.21095058 0.285086 -0.097093254 -0.17655547 -0.044222984 -0.105963014 0.030200621 -0.11484376
00000000: 3799 75be ebdd a5bd cbe3 83be d88a 55bd
00000010: 8222 77bd 8c85 9bbd f0d0 85bd 490a f03e
00000020: df0b 23be fab9 423d d086 c73c 59ab a03d
00000030: af75 023e ada2 3dbd c1b5 db3d 3e48 c33d
00000040: 00ae 1c3e bcc7 843e bc02 60be 7fbe 4a3e
00000050: 81be 9bbd cb6f ae3d a241 553e c5fa 003e
00000060: 35b7 b5be 8658 38be 7825 e0bd 12c4 ee3d
00000070: 8ae1 5d3e 72b5 8bbd 2b18 493e 397b 64b9
00000080: d0de 403d 94dd 103d 5df1 45be 79bd 813d
00000090: 0c15 8abd aec8 073d b3cd 04be 0104 f83d
000000a0: 7e89 2abe a05e d2bd 9332 533e 6918 2abe
000000b0: f8f1 63be 922b 9e3d a4eb cfbc 50b2 febd
000000c0: 43ad 303e ca51 923e e3f0 073e 81cf bfbd
000000d0: 482d 303e c63f e03d f14a 4a3e fa51 793e
000000e0: b1e8 773d ea8b bb3e 3c66 7d3c 3d98 2abe
000000f0: 017f b8be 17db c8bb 5853 e53e 47fc 8cbe
00000100: ea20 573d 1f25 2dbd 5fc3 9e3d db9c b63d
00000110: 77a1 553c f069 283d 04ea 3c3c e498 753e
00000120: ad1f 7abe a172 cbbd 2f32 3bbe a92b 203e
00000130: 489a 9bbe c763 1c3f 360c 933d 56bd 75bd
00000140: baf4 d53c 8b35 1dbd 63f0 df3e ba74 edbd
00000150: 2140 5bbe ffaa 293d 8a0d 21be ede7 233d
00000160: a443 1ebe 79dc 5c3d 4464 76be e5f5 b73c
00000170: 051b 673c 42ec 713d e9d1 303b 42c0 fabc
00000180: 49de 6e3e 0b89 96bd 5f94 1abd f578 f03c
00000190: e184 00bd 9500 9cbc 91f2 3dbe fb60 64bd
000001a0: a11a a8bd cd54 40bd 1f31 36be 8970 a13e
000001b0: 852f bb3d 921b 78bd 6f33 c73d 4051 0f3e
000001c0: 6e60 c7bd 37d9 113e a5f5 083e ac47 8d3d
000001d0: 1ab7 76bd c8ae 7c3e c580 16be 602f 013e
000001e0: 3917 6c3d 4c68 2a3e 419c fd3c e11c 333d
000001f0: 96c5 58be 5201 8b3a eb4c 953d 032b e93d
00000200: 6711 7fbd 7df8 603d 4fbc d83d 4e0e b73d
00000210: a232 45be 016b cbbd cde4 b8bd ff63 56bd
00000220: e9b4 86bd fc52 af3d cc35 eabc a54b 2c3e
00000230: c6b0 9d3d 2426 5ebe 2efb 843e 1199 78be
00000240: 10a1 23be 1d8d 9a3c e0eb 023e 63fc 34be
00000250: 13c8 a33c 1087 883e ef40 9b3e f3a6 f9bd
00000260: 8af9 733e 62e4 6dbc 4a1e 2f3e d4be 5a3e
00000270: 1e2e aa3e 1ba8 ba3e ce33 363e 8193 0fbc
00000280: 9808 27bd 5850 9b3c 3521 cf3e d807 c5be
00000290: 8ebf 803e 77d7 353e c905 e53b 1463 a33c
000002a0: cce7 ad3d 6317 64bc a13e cbbc 98d4 803d
000002b0: 0633 9fbe 3ee3 96bd 3dd1 06be e7ca 723e
000002c0: 4d91 d8bd 7960 983e 0200 913d 07f4 5b3d
000002d0: f641 87bd 4eb7 de3d 018d 7b3e 9ab8 36be
000002e0: 3d7e 92be df7b 343e d2ca 14be 1cbc 4f3e
000002f0: f930 5bbd 74b0 163b 849d 3abe 5f45 883e
00000300: 60a1 bcbd 9795 02be 02c4 13be ce81 493c
00000310: 5422 8b3d cb96 eebb dd90 a63e fd70 473d
00000320: 1b90 14be cdd2 1b3d 3fcf 9dbe ea99 c3bd
00000330: 7892 683d 65c4 d5bd fea3 aabe fab9 323e
00000340: bdc9 8d3d 4ef9 d3bd eb5b 0c3e a448 ab3c
00000350: caa1 21be 35d3 503e 8c04 433e 711e 833c
00000360: fba1 073e 123a 193e 1682 20be b715 acbc
00000370: eb38 3e3d 4607 5ebc f3d8 9a3e 42f6 1f3e
00000380: 5bd7 b2be 58ca a1be 15cd 293e 907e 84be
00000390: 38f7 363e 02a9 1f3e 95b8 803e 75d3 2d3e
000003a0: b66f 0bbe af0a 0e3d 4ef0 fabd 8cce a93d
000003b0: e4ce f3bb 9381 483e 75f6 24bd 533d ca3d
000003c0: 985c 023e 0754 3dbd e9e6 463e cd3d 69bd
000003d0: 400b 3fbc 063a 933d 2a0e 063d 4147 ee3b
000003e0: 6e03 583e cbf6 913e d4d8 c6bd f5ca 34be
000003f0: 2923 35bd 2303 d9bd 4b67 f73c 3533 ebbd
