mlartifacts/314268758604296685/1ed04d79dedd42308bbb1bc14070f46c/artifacts/data/model.pth (torch, 374607 bytes, 21 tensors)

weight_ih_l0 f4 [200, 1]
00000000: dd11 0640 0b81 cfbd 16b9 393d 5544 bf3e
00000010: 4212 0b40 94de d1bc b695 84bf 4291 8bbf
00000020: 91e1 473f b318 9e3e 352a eebf b791 cd3f
00000030: 29fb 44bf 1a38 7d3f e63c b03f 72e1 69bf
00000040: 828c 8abe b046 573f 2501 c6bf ec03 e43e
00000050: 78e3 ae3f 1c5d a8be e26c a53f d8a5 02be
00000060: fbc8 9a3f d1b3 43bf e3d7 083e 030a 2dbe
00000070: d71c 76bf 89ba d03f fb8e 8b3f 7336 7e3c
00000080: e609 253e fac2 6e3b 11e5 b5bf 680b 923f
00000090: 5c50 adbd 847b 62bf ba04 00bf dced 0f40
000000a0: 0dc9 51bd a3fa 69be 5eeb c93f 1f21 07be
000000b0: 36e4 803f 5e1c 8d3e 27de 913e 3264 eebe
000000c0: c496 7d3e 15b4 3a3f 203d ef3f 4846 913e
000000d0: a515 0f3f 237a 003e 200d 4140 2e45 b2bd
000000e0: d398 93bf d242 4cbe 44bf 833f a4c3 0c3f
000000f0: 4390 ffbd 6098 a63f aec2 ce3e e80c 3d3f
00000100: a84c 983f f224 bc3d 6500 683f 8c36 8a3f
00000110: 32d4 2a3f d860 043e e167 6e3f 95b8 983f
00000120: f485 ab3f 5181 9d3f f050 933f 7253 b43f
00000130: 2529 49be e7f0 843f 739a 07bf 06ff e53f
00000140: 14a9 853f 7525 de3f 0edc 5c3d 4adc a83f
00000150: 3be8 b2bc c4d7 583f 8627 603f 12a1 bc3f
00000160: 097a bb3f cbb7 813f 179b 563f 381c 6e3f
00000170: 8679 753f 1758 253f d4e7 7e3f 0118 423f
00000180: edaa 6a3f fcbf ac3e 7ca5 29be 66f5 8f3f
00000190: a88a 07c0 7419 9c3f 9565 9ebf 74db 363e
000001a0: fda0 d5bf 22df 7d3f 23fc 843f d602 a8bf
000001b0: 98af 96bf 8018 c43f 8c11 6f3f 6e6b c93f
000001c0: fa5d 5abf 5ed5 1ec0 a2e2 1ec0 0eed a73f
000001d0: 80f5 c7bf d739 cd3f 9bcd 8c3f e1ac 6bbf
000001e0: dc77 1d40 4c28 ab3f b5ef ea3f 1fee a23f
000001f0: 10ca 16c0 4ec8 aa3f 21f6 813f c0eb a43f
00000200: c827 82bf df12 dcbf 6016 f33f d03e a2bf
00000210: 843f 91bf 587c c5bf 1876 69bf 90ea 1cc0
00000220: b584 a0bf 56d2 a6bf 2c7a ab3f 6f91 a53f
00000230: 7b13 afbf d6f9 ac3f 004e 27c0 07b5 94bf
00000240: 321a 27c0 8457 cfbf bf0a 8e3f 208d 9cbf
00000250: 16dd 913f b054 49c0 a301 2940 9dc9 c8be
00000260: 81a7 e5bd d547 de3e df72 2940 ecab 013e
00000270: 5abf b6bf c45f a5bf 559f 753f b833 033f
00000280: afb7 f8bf f4b2 e13f 777e 44bf bf15 9d3f
00000290: 220d a73f 93ac 88bf fa40 39bd 7fc1 5e3f
000002a0: fc41 b6bf 4075 0d3f b983 c23f 486a b9be
000002b0: 8d67 c13f 7b7f 393d 7f1a b63f aebc 63bf
000002c0: 9426 373d 5dd9 82be fe1a a1bf 132b d43f
000002d0: ddbd 833f c7fb 423d d041 bd3e 9182 963e
000002e0: 7361 aebf 9e78 a13f f24b a0be 9958 79bf
000002f0: 7ff8 afbe 95a4 0b40 2976 1fbe a2fd cfbe
00000300: abc4 d93f 1a4e 0ebf 7cad 953f a682 f43d
00000310: a034 203d e9f8 1ebf 8cb1 703e 5b1f 903f
2.0948403 -0.10132035 0.045342527 0.3735682 2.1729894 -0.025618829 -1.0358188 -1.0903704
0.7807856 0.3087822 -1.860663 1.6060094 -0.7694574 0.9891373 1.3768585 -0.9135963
-0.27060324 0.84092236 -1.5469099 0.44534242 1.3663168 -0.32883537 1.2923853 -0.12758577
1.2092584 -0.76446253 0.13363604 -0.1689835 -0.96137756 1.6306926 1.0903009 0.015515911
0.16117057 0.0036432133 -1.421053 1.1409731 -0.08462593 -0.8846972 -0.5000721 2.2488928
-0.051217128 -0.22849517 1.5774953 -0.13196228 1.0069644 0.27560705 0.284898 -0.46560818
0.24764544 0.72931033 1.8690529 0.28373933 0.558924 0.12546591 3.016426 -0.08704601
-1.1531013 -0.19947365 1.0292745 0.54986024 -0.124786876 1.3015251 0.40382904 0.7384782
1.1898394 0.09186734 0.906256 1.0797896 0.66730034 0.12927568 0.93127257 1.193133
1.3400254 1.2305089 1.1509075 1.4087965 -0.19644602 1.0386018 -0.52970046 1.7968452
1.0442224 1.7355181 0.053920798 1.3192227 -0.021839252 0.8470423 0.8756031 1.4736655
1.4646617 1.0134214 0.838304 0.9301181 0.95888555 0.6458754 0.9957249 0.7581788
0.9166706 0.33740222 -0.16567034 1.1246765 -2.117838 1.2195268 -1.237475 0.17857152
-1.6689755 0.991686 1.0389446 -1.3125865 -1.1772337 1.5319977 0.9338615 1.573591
-0.85299647 -2.481773 -2.4825826 1.3119218 -1.5621796 1.6033276 1.1000246 -0.9206067
2.4604406 1.3371673 1.8354403 1.2728919 -2.356083 1.3342378 1.0153238 1.2884445
-1.016839 -1.7193259 1.8991203 -1.2675419 -1.1347508 -1.5428572 -0.9119582 -2.4518166
-1.2540499 -1.303294 1.3396659 1.2935008 -1.367782 1.3513744 -2.6141357 -1.1617745
-2.6109738 -1.6198583 1.109703 -1.2230568 1.1395595 -3.145794 2.640725 -0.3921632
-0.112135895 0.43414178 2.6476362 0.12663239 -1.4277146 -1.291985 0.95946246 0.5125079
-1.9431056 1.7632737 -0.7675547 1.2272261 1.3050883 -1.0677665 -0.045227982 0.87014
-1.4238887 0.55257034 1.5196449 -0.362139 1.5109726 0.04528759 1.4226836 -0.8895978
0.044714525 -0.2555646 -1.2586362 1.6575645 1.0292317 0.047603395 0.36964273 0.2939649
-1.3623489 1.2614934 -0.31307942 -0.97400814 -0.34369275 2.1819203 -0.15572418 -0.40623194
1.7013143 -0.55587924 1.1693568 0.11938982 0.039112687 -0.62098557 0.23505229 1.1259569

weight_hh_l0 f4 [200, 50]
00000000: 8b53 2d3e 7d0c 59bf e551 823e 809f 8d3e
00000010: 09ef 6abf 88e4 4dbf 6637 86bf 08a6 793f
00000020: 11f6 3e3e 7993 cfbe 80a6 b2bf 667e 1cbe
00000030: 52ef 9f3f 44cb 86be ec23 aa3e ff39 60bf
00000040: 93e0 8d3f 2de6 63bf 25da b9be 7ee1 493f
00000050: 2da0 cabd 5d60 35bf 77cd 83be 6652 5ebf
00000060: 4441 4b3e beea 80bf 3a60 45bf c292 4ebf
00000070: 3499 b33f b3d2 7abf f352 0c3f bf48 783f
00000080: 6c0f 2f3f 2d6c 4a3f bdca ba3f f597 b53e
00000090: a333 3a3f 3c1e a73f e72e 34bf efcd f0be
000000a0: e6f9 4d3f 9070 5abf 64b4 a23e 42f3 a03b
000000b0: b5db ad3c e036 c03f a5a2 3ebf ab1c fd3e
000000c0: 621b 25bf b667 23be 48ed 333e 805b 9c3d
000000d0: 3b96 53bd 99a0 d7be 3162 a53e 63d5 823f
000000e0: 6e39 c1be 832d 1c3d d409 8cbe f5c3 a33e
000000f0: 833b ca3e ddcd 1abd fe88 a8be b5a3 8d3e
00000100: c110 0a3f a219 68be 5aa6 653c d02a a43e
00000110: f29b 06bf 5b07 1cbf 0020 bcbe 5c09 9f3c
00000120: 007b 54be 40ae ab3c 4e8f 9d3e 5159 94be
00000130: 6f39 1a3f f9f8 073e 5714 8c3e 5f57 163f
00000140: 4fa5 bdbe 3b63 cebd 0d05 a8be e877 103f
00000150: e874 a53d 88f2 023f 1ae6 03bd 33f8 d73d
00000160: af03 0a3e c9d8 c93e a860 d73d 9519 c23d
00000170: 505f 383f 4fbb 703e 46cf ea3e 5e86 b8bd
00000180: 13ac 513e 7679 233d 655d 7a3e e4c1 b23e
00000190: b754 2dbf f275 233e 3a6c 8f3c 113c 3dbf
000001a0: 8baa 9dbf 0dd8 0abd a7ea 0bbf 85c4 d13c
000001b0: e268 b33e 73d9 a2be 094c 8e3e de6b 6a3c
000001c0: 672b ccbd 6399 26be d9c2 473e efd4 8ebd
000001d0: 508d 61bd dd7f 3dbd eaf2 7fbf 231f 023e
000001e0: b94f 1d3f ff0a b6be 1dfe cfbe e9ee 3b3e
000001f0: 21e8 cabe efa2 bdbd cdc2 d83e 457a 563e
00000200: f80e 363f 3187 eabe a405 dbbe e479 74be
00000210: e949 203d 0f97 24bf c5fb d83e d9a4 273f
00000220: f139 4f3d 98bf 223e c33a a33b 1659 9abe
00000230: d9fd af3c a622 54bd 1f41 39be a5a2 b53e
00000240: 7dc7 0f3f 682d 7abe b8c1 7fbe bbfb c63d
00000250: 2efb 973e 7076 863f 6e56 723f 8706 aabe
00000260: b6bc 5a3d 2a48 7a3e 0dd5 2c3f 1e87 953e
00000270: e0b3 673d 899a 20bf e1ab d73e 4a5b a8be
00000280: 29e6 393e 2e85 87bf ffc5 7d3f e8ec 87be
00000290: 27b3 d53e f4e7 f33e 1279 1bbe 0320 2e3d
000002a0: b812 dabe d3e5 b2bd f3df 1cbf 86f3 9c3e
000002b0: a01a 81bf 434b ccbe f375 3a3f 49ec 333e
000002c0: 9102 243d 4245 41be 72e5 cdbd c6d1 ec3e
000002d0: 5170 1d3e 7571 0c3e db10 f43d e980 823e
000002e0: 794d ad3e 9cc7 1d3d f289 373e e740 72be
000002f0: c54d 20be 215a 90bf 6007 29be b833 5cbe
00000300: b0e0 6e3f 4811 be3e b7d2 98bd e3c3 ca3d
00000310: c852 97bd 6904 cfbd 8fd9 3cbe 0adf 0ebf
00000320: 17f2 863e 50b9 53bf bb83 2b3e f105 a23a
00000330: e09d af3d 1430 34be 2687 7ebf 9984 313f
00000340: 19d7 583e e195 22bf cf28 b23f 44ec 5ebe
00000350: 7c96 8e3e e35d 873e de31 a93e fa36 58bf
00000360: d968 0f3f 5e1b 9bbe 075a 51bf 1fcd fd3b
00000370: beb7 e9be 00a5 82be e343 c6be b67a d8be
00000380: a16a 363f 304a 71bf ed64 48be 91f0 34bf
00000390: 9a4f 373f 545e 823e 0842 03bf 4bd0 e13e
000003a0: bcfd 3f3e 8581 823f b9d8 fabe 8d3b 013f
000003b0: 698c 7b3e fec2 503f 6797 acbe 4320 f2be
000003c0: 235f 3a3e a79c b3be e662 133f fb56 b23f
000003d0: 080b ef3e 6aad 2a3e fd2d b5be 44be 083f
000003e0: 913b be3d 5c74 123f 58ed b23f 2d23 aa3e
000003f0: 4122 3dbf cf46 ba3d cc3d 193f fd85 4e3f
0.169264 -0.8478468 0.25453106 0.2766075 -0.9177099 -0.80426836 -1.0485656 0.9751897
0.18648554 -0.405422 -1.3957062 -0.15282592 1.249491 -0.26326954 0.3323053 -0.87588495
1.108416 -0.89023095 -0.36299244 0.788597 -0.09893832 -0.70850164 -0.25742695 -0.8684448
0.19849116 -1.0071638 -0.77099955 -0.80692685 1.4031129 -0.9797775 0.5481407 0.96986
0.68382907 0.79071313 1.4593121 0.35467497 0.7273504 1.3056102 -0.7038407 -0.47032115
0.8045944 -0.85328007 0.31778252 0.004911811 0.021222929 1.5016747 -0.74466926 0.49435934
-0.6449491 -0.15957531 0.17570984 0.0763464 -0.051656943 -0.42114714 0.32301477 1.022137
-0.37739128 0.03812934 -0.27351248 0.3198544 0.3949853 -0.037793983 -0.32917017 0.2766396
0.53931814 -0.22666028 0.014016712 0.32063913 -0.52581704 -0.60948724 -0.36743164 0.019413643
-0.20750046 0.020957112 0.30773395 -0.28974393 0.60243887 0.1327857 0.27359268 0.5872707
-0.37040183 -0.100775205 -0.32816353 0.5643296 0.08078939 0.51151323 -0.032201864 0.10545387
0.13477968 0.39423206 0.105164826 0.09477536 0.72020435 0.23508953 0.45861262 -0.090100035
0.20475797 0.039910756 0.2444969 0.34913552 -0.6770739 0.15962961 0.017507661 -0.7391978
-1.231767 -0.03389745 -0.54654926 0.025606403 0.35040957 -0.31806526 0.27792385 0.014307944
-0.09969216 -0.1626945 0.19507922 -0.069742076 -0.055066407 -0.046264518 -0.9998003 0.1270719
0.6144977 -0.35555264 -0.4062356 0.18352856 -0.39630225 -0.09259593 0.4233612 0.2094508
0.7111659 -0.45806268 -0.4277774 -0.23874623 0.039132986 -0.64293 0.42379585 0.6548591
0.050592367 0.158934 0.00498137 -0.30146092 0.021483349 -0.051790856 -0.18091248 0.3547565
0.5616377 -0.24431384 -0.24976242 0.097159825 0.29683822 1.0504894 0.9466313 -0.33208105
0.053402625 0.24441591 0.6751259 0.2920465 0.056568027 -0.627358 0.4212332 -0.32882148
0.18154205 -1.0587518 0.99130243 -0.26547933 0.41738245 0.47637904 -0.15182903 0.042510998
-0.42592406 -0.08735242 -0.6127922 0.30654544 -1.008625 -0.3990117 0.72836226 0.17570604
0.04004151 -0.18874076 -0.10053529 0.46253794 0.15374877 0.13715155 0.119172774 0.25488976
0.3384817 0.03852044 0.17923716 -0.23657571 -0.15654667 -1.1277505 -0.1650672 -0.21504104
0.93311596 0.3712256 -0.07462066 0.09900644 -0.07388836 -0.10108263 -0.18442367 -0.5580908
0.26356575 -0.8270464 0.1674947 0.001236139 0.08575034 -0.17596465 -0.9942497 0.6934295
0.21175803 -0.6350995 1.3918704 -0.21769816 0.27849185 0.26438817 0.33045858 -0.8445889
0.5601936 -0.30294317 -0.81777996 0.0077453996 -0.45647997 -0.2551651 -0.38723668 -0.4228112
0.7125645 -0.94253826 -0.1956975 -0.70679575 0.7160584 0.25462592 -0.5127263 0.44104227
0.18749136 1.0195776 -0.4899347 0.5048149 0.24565281 0.81547534 -0.3370926 -0.4729024
0.18200354 -0.35080454 0.5757278 1.3932794 0.46688104 0.16667715 -0.3538665 0.5341532
0.09288705 0.572088 1.3978682 0.33229962 -0.7388039 0.09095537 0.5985992 0.806732

bias_ih_l0 f4 [200]
00000000: 77ad 6abf c2c6 7fbf ebf2 5abf 1644 22c0
00000010: 6f8b 42bf 9db1 89be ad5b 6dbf 9923 62bf
00000020: fd07 cdbe 9b5a 32bf 4d9c 6cbf 7ecc cbbf
00000030: d48a 42bf 3933 dcbe 13c9 01bf 2b6a 8fbf
00000040: 1a06 b3be 84b1 9cbe 8a28 a4bf 0711 96bf
00000050: 1b01 12bf 32d3 e6be 413a 34bf 444d 2bbf
00000060: 0c12 2bbf 34ef 7bbf 036d 4dbf 034d 0cbf
00000070: fe7b b0bf 8987 2cbf c722 15be 1329 f5bd
00000080: 087a d5be 2c04 63bf 94e4 7abf d137 8bbe
00000090: 7c43 03bf 4237 71bf cf05 23bf 3fe7 98bf
000000a0: d628 bfbe 6f17 22bf 20d0 20bf 1e12 71bf
000000b0: 74d6 b7be 966e 04bf 30df 45bf 87da 74bf
000000c0: 26b6 4bbf 708b 723d 2319 05c0 d1ac e5bf
000000d0: 1ab8 03c0 5f6c b8bf 43ec 30bc 21af 4cbf
000000e0: aa3c 45be 0968 a2bf a0e1 08bf 6fc0 d9bf
000000f0: da64 babf 8255 b1bf e84c a8bf 60fd e8bf
00000100: 3935 b0bf 01d1 eebf 9ecc 0cc0 eaf5 84bf
00000110: b726 d1bf 28d4 58bf a7c3 fbbf bce2 0ec0
00000120: 59af 5bbf a28e 92bf a74e eebf 0dca 0dc0
00000130: da63 65bf 2846 e3bf 13e8 9bbf afb1 9dbf
00000140: f07d 643e ac78 06c0 2b06 89bf 65ae e9bf
00000150: 8237 a6bf 6819 c9bf a3be eebf 5082 fbbf
00000160: 871e c9bf 8ebd eabf b2b5 11c0 7b37 01c0
00000170: f888 c4bf c7b1 3ebf 910c 85bf 75ff 15c0
00000180: 7a18 d1bf a4df f2bf b6d4 91bf d8fd a53e
00000190: dfe0 433f d8b5 fa3e 3637 e4be 4d19 17be
000001a0: b3b5 f03e 8fc6 b33e 9392 4f3e 06ec dfbe
000001b0: 8ded 58be 3bbc b43e 25e9 3f3f cf9f eabe
000001c0: 2837 25bf 1863 e33e 87cf e13e 2957 cf3e
000001d0: 479e 08bf 64b0 883e 15cf 423f b2af b9be
000001e0: 0ad9 0cbf 9be8 d23e ba5a bcbe bf60 d83e
000001f0: ad1d 3b3f d84a fb3e b72c ca3e 1705 ec3e
00000200: 5f52 12bf b11c 3f3f 5eb9 be3b e3ea e2be
00000210: ed47 b6be 285a 0cbf daf8 28bf bfad f03e
00000220: 54b5 f6be 6f4d 1ebf 2f62 c53e 08eb 6f3f
00000230: 3ce2 d3be 0052 ce3e 5383 e93e 3481 dcbe
00000240: 50c9 873e afd5 08bf 38da b23e 21b9 10bf
00000250: 9d49 c23e eeee ba3c 3dae 84bf 0c8b 8cbf
00000260: 83d1 46bf 0802 20c0 7609 28bf 11e0 f5be
00000270: 0032 a1bf 9cf5 7abf 3e0a a5be 46cc c7be
00000280: 2278 87bf dd72 ebbf 3fd7 71bf 7e91 dcbe
00000290: 6771 02bf 8b18 8abf 2475 11bf b8b2 93be
000002a0: 8476 85bf e521 90bf bbb7 d9be 318d 1bbf
000002b0: e557 3cbf 84df 3cbf 338d a2be 1c73 8bbf
000002c0: e4a6 1ebf 3734 4cbf 1e24 c9bf 66fc 18bf
000002d0: 3572 54bd e002 8ebe de71 e7be e4ba 5fbf
000002e0: e36d 95bf 12d3 8dbe 3baf 0dbf 5bab 86bf
000002f0: 637e 02bf c45f 54bf c8d5 35bf c999 edbe
00000300: 219b f1be c179 18bf 0a7a 91be 6ee5 38bf
00000310: 2379 75bf dc55 84bf f084 17bf 2f79 c9bd
-0.91670936 -0.99912655 -0.85526913 -2.5354056 -0.7599401 -0.2689332 -0.9271801 -0.8833557
-0.40045157 -0.696695 -0.92425996 -1.5921781 -0.75993085 -0.4300783 -0.5069744 -1.1204275
-0.34965593 -0.30604184 -1.2824872 -1.1723946 -0.57032937 -0.45083004 -0.7040139 -0.66914773
-0.6682441 -0.9841187 -0.80244464 -0.5480501 -1.378784 -0.6739431 -0.14564048 -0.11970725
-0.41694665 -0.8867824 -0.9800503 -0.27191022 -0.5127485 -0.9422494 -0.6368074 -1.1945571
-0.37335843 -0.63317007 -0.62817574 -0.9416827 -0.35905802 -0.5173124 -0.7729368 -0.95645946
-0.7957481 0.05921501 -2.0796592 -1.7943364 -2.0581117 -1.4408072 -0.010798517 -0.79954726
-0.19261423 -1.2687999 -0.53469276 -1.7011851 -1.4562027 -1.385422 -1.314847 -1.8202324
-1.3766242 -1.8657533 -2.1999888 -1.0387547 -1.633994 -0.84698725 -1.9669083 -2.2325888
-0.85814434 -1.1449778 -1.8617753 -2.2154572 -0.89605486 -1.7755785 -1.2180198 -1.231985
0.22313666 -2.1011152 -1.0705007 -1.8256346 -1.298569 -1.5710878 -1.8651928 -1.9649143
-1.5712441 -1.8339097 -2.2767148 -2.0190113 -1.53543 -0.74490017 -1.039446 -2.3437169
-1.6335595 -1.89745 -1.1393039 0.3242023 0.76515 0.4896686 -0.44573373 -0.14755745
0.47013626 0.35112426 0.20270757 -0.4373476 -0.21184368 0.35299858 0.74965125 -0.4582505
-0.64537287 0.4441154 0.44103643 0.40496185 -0.5336651 0.26697075 0.7609723 -0.36266857
-0.55018675 0.4119309 -0.3678797 0.4226131 0.73092157 0.4908054 0.3948724 0.46097633
-0.5715694 0.74653155 0.0058204373 -0.4431983 -0.3560175 -0.5482507 -0.6600472 0.47007558
-0.48185217 -0.61836904 0.3855147 0.93718004 -0.4138354 0.40296936 0.45608005 -0.43067324
0.26520777 -0.53451055 0.34932113 -0.56532484 0.37946787 0.022819009 -1.0365673 -1.0979934
-0.7766344 -2.500124 -0.65639436 -0.48022512 -1.2593384 -0.9803102 -0.32234377 -0.39023036
-1.0583537 -1.8394428 -0.94469064 -0.43079752 -0.5095429 -1.078874 -0.5681937 -0.2884729
-1.0426793 -1.1260344 -0.42522988 -0.60762316 -0.73571616 -0.7377856 -0.3174835 -1.0894504
-0.61973405 -0.79767174 -1.5714147 -0.5976013 -0.05186673 -0.27736568 -0.4520406 -0.8739455
-1.167416 -0.27700096 -0.55345505 -1.0521044 -0.509741 -0.82958627 -0.7102933 -0.4640639
-0.47188666 -0.5956078 -0.2841342 -0.7222508 -0.95887965 -1.0338702 -0.5918722 -0.09837567

bias_hh_l0 f4 [200]
00000000: 6971 54bf 065d 59bf 23d3 49bf 609c 21c0
00000010: a7fc 44bf 7100 b2be 52bd 53bf 47e5 84bf
00000020: a83c eebe 6038 34bf 0b27 58bf 9973 c9bf
00000030: 7b0b 64bf 2124 95be 191c 41bf 3ca4 7dbf
00000040: 99ac 87be c368 5fbd 33ad 88bf 7528 89bf
00000050: 08f4 37bf 7349 dabe 6842 1cbf f100 01bf
00000060: c39d 2abf 26bd 89bf 3802 58bf 287c 44bf
00000070: 6aea a0bf 3aae 52bf 9b42 a0be 0c0f a2be
00000080: bde1 a6be 55c1 81bf b528 8abf 5f93 a6be
00000090: 34d2 17bf 8675 50bf c1cb 0fbf c034 6fbf
000000a0: b18b cebe 4daf 38bf f601 01bf 0d24 6bbf
000000b0: fab1 66be e13b 00bf 61fe 58bf 926d 8dbf
000000c0: 2585 53bf 571a 133e 05cd febf 54bd dbbf
000000d0: c085 eabf a522 c5bf 5234 943d 43d9 2abf
000000e0: c0e2 babe da5f a3bf 2dfc d0be 7636 eabf
000000f0: ae82 adbf 71ab b4bf 5758 9ebf 5b6d cdbf
00000100: 48fb bebf 41ad ecbf dc66 0bc0 7bec a1bf
00000110: a193 debf 35fa 59bf f614 fdbf 4d7d 0fc0
00000120: 384b 81bf 4ed8 a9bf d23e ebbf 668b 13c0
00000130: 477a 60bf e3fb e7bf b6cf 88bf 335e 93bf
00000140: cd25 3e3e 89cf 07c0 72f3 73bf 1f27 fbbf
00000150: 5e7f bfbf e00d b4bf 9c73 edbf d059 0ac0
00000160: 33dd c2bf b3e9 f4bf 81a2 14c0 d524 06c0
00000170: 1a10 d4bf 98b9 40bf 29b7 a0bf 816b 07c0
00000180: f390 cdbf 8ea7 eabf ffda a7bf 98f6 503e
00000190: f861 5f3f 563a a03e 96c2 aebe 18a7 683d
000001a0: f486 043f 41b0 b43e dcc0 893e 594a e3be
000001b0: c74e 8ebe 1e0f c63e 8744 263f e1e2 9abe
000001c0: 6bc1 26bf e308 2c3f 7116 133f 3a15 e53e
000001d0: 8187 01bf fcc7 eb3e 4369 7d3f 6599 95be
000001e0: a612 11bf 7147 033f d990 18bf 39df cd3e
000001f0: 524b 2d3f 3cff f03e 7557 c03e 0003 f33e
00000200: 0ec5 02bf 5799 f33e b291 b53b 8d58 febe
00000210: 76f4 b9be efa0 b7be 733d 29bf 97d2 f03e
00000220: cdee bcbe aca5 f3be 30fe f83e 5b23 433f
00000230: fd5a e9be 9e77 1e3f 571b f93e fd57 c3be
00000240: 64da bf3e 4672 cdbe 72ae e93e 209d e4be
00000250: dcea 813e 7fed 153d 4794 8dbf 6fcc 79bf
00000260: 2b37 0ebf f145 1ec0 ae9b 10bf 2f59 babe
00000270: 23bf 95bf fe53 6bbf 9e35 64be 92eb d0be
00000280: e18e 89bf f4eb e6bf eeae 7fbf 1ab3 bfbe
00000290: d272 a1be 6543 9dbf d06b 0ebf 0a1b 99be
000002a0: dfd8 8dbf c247 80bf 7635 0dbf 7b0e 51bf
000002b0: b551 52bf c499 39bf d4dc 97be 2f11 89bf
000002c0: a20d c3be 0906 5abf 55c1 b4bf 1248 10bf
000002d0: b0b8 823b 6b06 aabe b590 03bf 614b 64bf
000002e0: cef5 7fbf b4a1 d2be 225b 92be f3fa 88bf
000002f0: 90ec adbe 6e2e 6cbf 6fde f8be fd80 14bf
00000300: 935a cbbe c40c 44bf ffaf 93be 9f72 63bf
00000310: abe6 3bbf be5c 92bf 0d70 dbbe d8cc 1fbc
-0.8298555 -0.8490757 -0.78837794 -2.5251694 -0.76948017 -0.34765962 -0.82710755 -1.038247
-0.46530652 -0.7039852 -0.84434575 -1.5738403 -0.8908002 -0.29129127 -0.754335 -0.99078727
-0.2649887 -0.054543268 -1.0677856 -1.0715472 -0.7185674 -0.42634162 -0.6103883 -0.5039206
-0.66646975 -1.0760849 -0.84378386 -0.7675195 -1.2571537 -0.822971 -0.31300816 -0.31652105
-0.325941 -1.0137125 -1.0793673 -0.3253431 -0.5930512 -0.81429327 -0.5617028 -0.93439865
-0.4034095 -0.7214249 -0.5039362 -0.91851884 -0.2252883 -0.5009137 -0.8476315 -1.1049063
-0.8262504 0.14365517 -1.9906317 -1.7167153 -1.8322067 -1.5401198 0.07236542 -0.66737765
-0.36501122 -1.2763627 -0.40817395 -1.829787 -1.3555505 -1.411482 -1.2370709 -1.6048998
-1.4920435 -1.8490373 -2.178153 -1.2650293 -1.7388803 -0.8514741 -1.9772022 -2.2420228
-1.010108 -1.3269136 -1.8378546 -2.3053832 -0.8768658 -1.8123745 -1.0688388 -1.1513122
0.18569107 -2.122042 -0.95293343 -1.9621314 -1.4960744 -1.4066734 -1.8550906 -2.1617317
-1.5223755 -1.9133819 -2.3224185 -2.095998 -1.6567414 -0.75283194 -1.2555896 -2.1159365
-1.605986 -1.8332384 -1.3113707 0.20406568 0.87258863 0.31294507 -0.34132832 0.056799978
0.5176842 0.3529072 0.26904953 -0.4439266 -0.27794477 0.38683408 0.64948314 -0.3025122
-0.6513888 0.6720106 0.5745612 0.44742757 -0.5059739 0.46051013 0.9898874 -0.29218593
-0.5666908 0.51280886 -0.5959602 0.40209368 0.67693055 0.47069728 0.37566724 0.47463226
-0.5108193 0.47577927 0.00554105 -0.49676934 -0.3631932 -0.3586497 -0.6610939 0.47035667
-0.3690094 -0.47587335 0.4863143 0.76225823 -0.4557723 0.6190127 0.4865367 -0.38153067
0.37471306 -0.40126246 0.45640904 -0.44651127 0.25374496 0.036603447 -1.1060876 -0.97577566
-0.5555293 -2.473019 -0.5648755 -0.36396167 -1.1698955 -0.91925037 -0.22286078 -0.40804726
-1.0746728 -1.8040757 -0.99876297 -0.3744133 -0.31532913 -1.2286192 -0.5563326 -0.29903442
-1.1081809 -1.0021899 -0.551597 -0.8166272 -0.82155925 -0.7250025 -0.29660666 -1.0708369
-0.3809634 -0.8516546 -1.41215 -0.5635997 0.0039893016 -0.33208022 -0.5139268 -0.8917752
-0.99984443 -0.41138995 -0.28585154 -1.0701584 -0.33969545 -0.92258346 -0.48607203 -0.5800932
-0.3971754 -0.7658198 -0.28845212 -0.8884677 -0.73398846 -1.1434553 -0.42858925 -0.009753428

weight_ih_l1 f4 [200, 50]
00000000: e182 c4bf 8315 f1be 653e 3a3f 352f 66bf
00000010: bd2d 46bf d44a 82bf 793d 6ebe c2c6 30bd
00000020: 2968 cb3e 7da6 a7bf a74d 23c0 0e8b 6d40
00000030: e0d7 1940 2c90 9cbe ec25 223c 2d08 30bf
00000040: b161 773f dbfd 95bf 1c87 4cc0 4738 c53f
00000050: b529 8cbe e0b5 36bf d40d 4b3f 3300 9dbf
00000060: bcf1 e1be a57c d2be 9b93 55bf 6808 87bf
00000070: 366f 333f f93b 0fc0 667a a33d d5f6 9c3f
00000080: 40fb da3f 0ce6 0940 6536 4640 e2ab 793e
00000090: 5efd af3f 48d4 1e3f fc7e 25bf 7a88 27c0
000000a0: 790b 943f 5d30 85bf 0256 ac3e f511 0f3f
000000b0: 0bf0 583e ae28 743f 611a d6bf b2d2 0f3f
000000c0: 54f9 aabf e784 16bc 6636 adbe 2a2e 92bf
000000d0: 392d 15bf 0aba 583d 0dd5 87be 221d 93bf
000000e0: 03a7 8dbd ff73 32bf 2252 64bf 341a bb3c
000000f0: 3d36 38c0 3573 dd3f 885d f33f 5a82 5f3f
00000100: a386 893f f9a9 bebe 19dd bdbe 5f79 04bf
00000110: fb7c 28bf c6cd a93f b714 46bf ded1 883e
00000120: fece be3f ec6a b8be 2687 053f 87d9 4bbf
00000130: f6f6 cfbe 9a5c 77bf a682 97be 79e8 efbf
00000140: f2be 073f 0158 303f 3360 bb3f 0b49 923e
00000150: 49d8 0b40 5b00 e83e 102a 0bbf bed1 283d
00000160: e721 633f 8b8d 1cc0 022a 09bd 66a7 003f
00000170: fe78 273f fcf8 6a3e cfbb cd3e d6ef ff3e
00000180: f75d 49bf cd27 11be 33bc 88bf c67e d4be
00000190: 0faf 963f 62e8 5040 d01f 15c0 b23a 773f
000001a0: 52f7 3940 9d2c 663e 099a 0abe 553c 51c0
000001b0: e9ab c6bf 1334 f53e 71ba 68bf 6124 98bf
000001c0: e79c 003e 6392 1d3f 9279 473f 667a 5b40
000001d0: 55ba 04c0 7de1 0a3f 7eb0 303f 2329 1cbf
000001e0: 7e43 6cbf 833c 3640 771d fbbe e4cf 1e40
000001f0: d698 b33e 898b 2e40 33ea 283f d21d 2840
00000200: b49d d3bf c4fe a73f b8fb 223f 417a c0bf
00000210: 7d80 cdbf eaa0 30c0 7be2 323f d0a7 533e
00000220: 198a fabf 8849 53c0 8a1c e63f be86 4f3f
00000230: ff78 debf 2be9 ba3f fd8d 193f 7cc3 4cc0
00000240: 9176 3ebd 4788 a1bf 868c 1440 5f1e 5dc0
00000250: 57a6 3a3f c9f8 03bf de71 89bf 6d1c 063f
00000260: 7754 c6be 0c34 c73c 58ab 07c0 735b cdbd
00000270: b546 183f 65d6 53bf 1bd9 b63f 88bc f53e
00000280: a719 0840 1d26 2d40 837c cdbf 975d 8fbe
00000290: e4be 9ebe 75d3 823f 80c9 103f 1a5e 9dbf
000002a0: 83a8 f43f e937 9abb 3bc4 583f f877 303e
000002b0: 6be2 73be e34d f73d 5be2 17bf 85b8 153f
000002c0: 006e d03e 0b94 143f daa6 a8bf 182b e4be
000002d0: 837a a5be 16af fd3e 6d61 513e 2b73 823e
000002e0: 39f1 06c0 2996 1ebe bcf1 333e 5234 0bbf
000002f0: cba2 8dbd a1a7 ccbf 4df8 8cb8 3916 e03e
00000300: d372 363e 226e 00bf 29a9 493c cf31 363e
00000310: f98b 883e 90c9 5dbf d671 11bd c4d9 1a3e
00000320: b2df 3abf c660 72bf 12c7 7f3f 9ecb 0e3f
00000330: aeac 7abe 4cc6 b3be 8767 5fbe 6924 123f
00000340: 2f58 babe f379 b1be e90d 96bf e19d 0740
00000350: a37a 42bd 0a79 abbe 740a c4be 8511 5bbf
00000360: b8ce 3f3f e39b a73e cc1f 61bf c50b 203f
00000370: dc66 e43e ccab 8bbf c28a fb3d c8ee b5bf
00000380: e738 5bbf 0df8 88bf b37f 61be 36f5 92bf
00000390: f15b 413f 8154 48bf 4b8a 86be aabc d13f
000003a0: 505d 8e3f 1418 3b3f e8da 893f 0250 49bf
000003b0: e3df ae3f 89a6 683f 7229 cabf ade4 a9bf
000003c0: 7056 a83f 29c7 52bf 0967 0cbf 9f67 803f
000003d0: d60f 04bf 822b d83e bbb4 7cbf 120d 2c3f
000003e0: 9e3d b6be 273b 1cbe 4776 a8bf a025 cebf
000003f0: 5d8a 4a3f 3429 943e 256c 39bf 9280 97bf
-1.5352441 -0.47086725 0.72751456 -0.8991578 -0.7741354 -1.0179086 -0.23265637 -0.0431583
0.39727905 -1.3097683 -2.5516145 3.7116122 2.403801 -0.30578744 0.009896737 -0.68762475
0.9663344 -1.1718096 -3.1957464 1.54078 -0.2737557 -0.7137127 0.79317975 -1.2265686
-0.4412974 -0.4111072 -0.83428353 -1.054944 0.7009157 -2.2380354 0.0798233 1.2262827
1.7107925 2.154666 3.09707 0.24381974 1.3749197 0.62042665 -0.6464689 -2.6177049
1.1566001 -1.0405384 0.3365937 0.55886775 0.21185319 0.9537457 -1.67268 0.5618087
-1.3357339 -0.00918696 -0.33830565 -1.1420338 -0.5827213 0.052911796 -0.26529732 -1.1493266
-0.069166206 -0.69708246 -0.89187825 0.022839643 -2.8783104 1.7300783 1.9012918 0.87308276
1.0744213 -0.37239054 -0.37082747 -0.517477 -0.65815705 1.3265922 -0.7737536 0.26722616
1.4906919 -0.36019075 0.52159345 -0.79628795 -0.40618104 -0.96625674 -0.29591864 -1.874282
0.53025734 0.68884283 1.4638733 0.28571352 2.185076 0.4531277 -0.5436106 0.04121565
0.88723606 -2.446139 -0.033487327 0.5025543 0.65418994 0.22946543 0.4018235 0.49987668
-0.78659004 -0.14175339 -1.0682434 -0.4150297 1.1772174 3.2641835 -2.3300667 0.96573937
2.9057202 0.22477956 -0.13535322 -3.2693074 -1.5521213 0.47891292 -0.90909487 -1.1886102
0.12559853 0.61551493 0.77919877 3.4293456 -2.0738728 0.5425032 0.69019306 -0.6100027
-0.92290485 2.8474433 -0.49045917 2.4814386 0.35077542 2.7272666 0.6598236 2.62682
-1.6532502 1.3124623 0.6366534 -1.5037309 -1.6054837 -2.7598214 0.6987683 0.20669484
-1.9573394 -3.301363 1.797746 0.81064975 -1.7380675 1.4602407 0.5998228 -3.1994314
-0.046499792 -1.2619714 2.3210769 -3.4549787 0.72910064 -0.5155149 -1.0737875 0.52387124
-0.38736317 0.02431681 -2.119833 -0.10027208 0.5948289 -0.82749015 1.4285005 0.479954
2.1265657 2.7054513 -1.6053623 -0.2800109 -0.31005013 1.0220782 0.56557465 -1.2294343
1.9113926 -0.004706372 0.84674424 0.17233264 -0.2381684 0.120754026 -0.59329766 0.5848468
0.40708923 0.58038396 -1.3175919 -0.44564128 -0.32320032 0.49547642 0.20447321 0.2547849
-2.108473 -0.15486969 0.17572683 -0.5437671 -0.06915816 -1.5988656 -6.72197e-05 0.43766955
0.1781724 -0.5016805 0.012308397 0.17792438 0.2666929 -0.86635685 -0.035508953 0.15122133
-0.7299758 -0.94678915 0.9991313 0.55779445 -0.24479935 -0.35112226 -0.21816836 0.5708681
-0.36395404 -0.34663352 -1.1722995 2.1190112 -0.047480237 -0.33490783 -0.38289225 -0.8557361
0.749248 0.3273612 -0.87939143 0.6251796 0.44609725 -1.0911803 0.12282325 -1.4213495
-0.856337 -1.0700699 -0.2202137 -1.1481082 0.75530916 -0.7825394 -0.26277384 1.6385701
1.1122227 0.73083615 1.076993 -0.7863771 1.3662075 0.9087911 -1.5793898 -1.3272911
1.3151379 -0.82335144 -0.5484472 1.0031623 -0.51586664 0.42220694 -0.9871327 0.67207444
-0.35593885 -0.1525694 -1.3161095 -1.6105232 0.79117376 0.28937685 -0.7243064 -1.1836112

weight_hh_l1 f4 [200, 50]
00000000: 47f4 bc3e 652a 18bf 8c67 063f 2e5f 68bf
00000010: 3aa1 743d 86cd 34be 291b 12bf 86e4 7cbe
00000020: f51c 3c3e 3356 553d 22d0 c43f 48c5 ebbe
00000030: ae2f 0bbe 72ee bf3e 31be 073f ade0 eebe
00000040: 7399 223d b49c 9b3f 5e0f 313e 71fe 7d3d
00000050: 14a0 883f 42e9 99bf a492 e6bc 49af 9fbf
00000060: fa72 0d3f c1ed 923e 328c d43e 0124 78bd
00000070: 5e7b 4abf 37cb d33d a6f3 c73e 0be9 203e
00000080: 3ca4 e4be 5520 76bd ee63 73be 3df7 433f
00000090: 37c5 ccbf 9929 c5be e9bf 3abf b0d2 2dbf
000000a0: defe 5bbf f66d 5ebf 641f fe3e da04 e4bd
000000b0: 01ab 7ebe d5e0 39bf 173e 4f3f 74dd 2f3f
000000c0: 43b6 8fbe af10 3e3f e3b6 4540 5ca2 853f
000000d0: d992 4f3f fd00 11bf e13a 73bd 3ebb cb3f
000000e0: 0a66 983f 879e a9bd 58ed c33f 631e b1bc
000000f0: 7687 1b3f fd98 d5bf 9c9d 4d3d 3394 d13f
00000100: e977 08c0 94c1 ba3f 92d5 ed3e 95a7 453e
00000110: babd ddbe e345 943f cca4 c33e 56ea d9bf
00000120: b8fc 053f cdea 00bf 7548 2fbe 17aa 2d3f
00000130: be7e 0fbf b78e a3bf abb7 ecbf e72b 153f
00000140: 68c3 96bf 96f3 33bf 15a5 1ebf 4c92 6ebe
00000150: 8c5a 1cbf 8ad9 3cbe e1bf 86bc dca4 4e3f
00000160: 0eb1 5f3f 3600 10be 69f0 4fbf 8d4c f4bf
00000170: 8c22 133f 161e 253f 3104 adbf 31a6 d3bf
00000180: 2b2e 8040 ae64 0440 537b 293f 59a8 d23f
00000190: 83a3 a93f e0f6 98be 4a03 a1bf 0788 95bf
000001a0: 86ac 99bf 97b1 67bf 1d14 f53e a088 9cbf
000001b0: 0db7 e63f d9ed 1bc0 c85a 703d b5eb 20bf
000001c0: 4d2a 94bf bada be3f 3d51 023e 3cbd fc3e
000001d0: 41ef 38bf 0e6b 883f 8b46 45bf f376 823f
000001e0: d697 14c0 474f 33bf 8ead 8b3f 9519 dbbe
000001f0: 9585 353f 7181 1540 7b52 3f40 af43 62bf
00000200: 9336 2ebf dd6a ee3f 55fc 0bbf 1fe4 1abf
00000210: dd45 f4bf 365f 0140 6955 b8bf 8ceb 0dc0
00000220: 2af7 0840 f86b 9f3e 2425 b9be d4a8 e3bf
00000230: fce0 2fbe 3bba 83bf 6cbd 543f d5d6 d33f
00000240: 95f5 9f3f 1c0b 62bf fca2 2c3f 621a 973f
00000250: 7b68 11c0 055a 433f 5700 f13e f78c 07be
00000260: cb7f 773f 5859 24bf dfce 783f faca eebd
00000270: 144d 29bf b6f2 103f 625b 1b3f 0965 a8be
00000280: 4850 2040 10ec 52bf 551c a33d febc ce3e
00000290: a4de 99bf 32a0 a4be 1e0d 3b3f cd5d bbbe
000002a0: b191 73be da74 98be 6b13 e5bd 1738 57bf
000002b0: 7f21 c43e ded6 11bf b138 7a3f 42b7 e33c
000002c0: 44cc 893e 35d2 153c be39 1dbe 3a79 103f
000002d0: 654d cb3e cca1 82be 6184 f53d 1b91 823f
000002e0: 85f2 483e 8b1e 58be 1c67 b83e 006e a43d
000002f0: 8b74 963f 5aca 073f df8f aa3d ce17 93bf
00000300: 240d 223e c1e0 2a3f acea 393f e065 8cbe
00000310: 9a28 c03e 677a fa3d fda1 b43e 7ef3 9b3f
00000320: 688c 2fbe 2cf8 24bf 26b9 4abf 7308 38bf
00000330: 08f3 a8bf 3e08 323e 9357 0a3f 2687 86bf
00000340: a8e1 2bbe cc50 9bbf 4979 df3f 06f2 03bf
00000350: b06f b0bf 8a23 563f 200e a13e bed3 2b3d
00000360: 257f 013e 7955 cd3f 72ac 9dbd 8a0f d23f
00000370: ca3c edbe 28d2 3dbe 4d8c 393d fe3e 77bf
00000380: 491e 0a3f 287a 373f 354f 653f f85f 063f
00000390: 2f8f 0cbf 1db9 3ebd f90f eabe 1d33 b7be
000003a0: 4008 073b a792 21bf 4464 13c0 a242 253f
000003b0: fb9e 483f cf65 2fbe 94b0 10c0 7eb0 093f
000003c0: ae21 81bf ede1 a3bf e6e7 973f 73ef 373e
000003d0: 1e68 e63e 4cc8 08bf 305b ef3e 7f72 613f
000003e0: f503 b5bf 4237 983f 556f 39bf 4885 fcbf
000003f0: 61d7 29bf b973 afbf 3236 543e d03d d8be
0.3690512 -0.5943969 0.5250175 -0.9077023 0.05972407 -0.17656526 -0.57072693 -0.2469655
0.18370421 0.05208416 1.5376017 -0.4604895 -0.13592407 0.37486607 0.53024584 -0.4665579
0.03969712 1.2157197 0.17291018 0.062010232 1.0673852 -1.202431 -0.028146096 -1.2475368
0.55253565 0.28697017 0.4151321 -0.06058121 -0.79094493 0.103414945 0.39053077 0.15713899
-0.4465655 -0.060089428 -0.23768589 0.7654913 -1.5997685 -0.385083 -0.7294908 -0.6789961
-0.8593577 -0.8688654 0.49633324 -0.11133738 -0.2486992 -0.7260869 0.80954117 0.68697286
-0.28068742 0.7424421 3.0892875 1.0440173 0.81083447 -0.56642133 -0.059382323 1.5916517
1.190614 -0.0828219 1.5306807 -0.021620935 0.6075357 -1.6687313 0.050199136 1.6373352
-2.1323187 1.4590325 0.46452004 0.19302209 -0.43308812 1.1583828 0.38211668 -1.7024639
0.52338743 -0.5035828 -0.17117484 0.6783766 -0.5605277 -1.2777928 -1.8493551 0.58270115
-1.1778383 -0.7029356 -0.61970645 -0.23297995 -0.61075664 -0.1844236 -0.016448917 0.80720305
0.8737954 -0.1406258 -0.8122621 -1.9085861 0.5747459 0.6449903 -1.3516904 -1.6535093
4.0056357 2.068645 0.662038 1.6457626 1.3253025 -0.2987585 -1.2579129 -1.1682137
-1.2005775 -0.90505356 0.47866908 -1.2229195 1.8024613 -2.436392 0.058680326 -0.6285966
-1.1575409 1.49105 0.12726302 0.49363124 -0.7224007 1.065767 -0.77060765 1.019255
-2.3217673 -0.7004284 1.091234 -0.42792955 0.70906955 2.3360255 2.9894092 -0.88384527
-0.68052024 1.8626362 -0.54681903 -0.60504335 -1.908382 2.0214362 -1.4401065 -2.2175016
2.1400857 0.3113706 -0.3616115 -1.7785897 -0.17175668 -1.0291208 0.83101535 1.6549937
1.2496821 -0.882982 0.67436194 1.1804926 -2.272002 0.76309234 0.47070572 -0.13237368
0.9667937 -0.6419883 0.9719066 -0.116598085 -0.66133237 0.5662035 0.60686314 -0.32889584
2.5049 -0.8239145 0.07964388 0.40378565 -1.202107 -0.3215347 0.7306689 -0.36595002
-0.23786046 -0.2977665 -0.11185344 -0.8406996 0.38306805 -0.56968486 0.97742754 0.027797345
0.26913655 0.009144356 -0.15354058 0.5643498 0.39707485 -0.25514066 0.1198814 1.0200533
0.19623764 -0.21105401 0.36016166 0.08028793 1.1754316 0.5304314 0.083282225 -1.149164
0.15825325 0.667492 0.72623706 -0.27421474 0.37530977 0.12230378 0.35279837 1.2183683
-0.17143404 -0.6444118 -0.79188764 -0.7188789 -1.3199167 0.17385957 0.5403988 -1.0509994
-0.167853 -1.2134032 1.7458888 -0.51541173 -1.3784084 0.8364798 0.3145609 0.04194998
0.12646158 1.6041709 -0.07698907 1.6410992 -0.4633544 -0.185372 0.045299817 -0.96580493
0.5395246 0.7167077 0.89573985 0.52490187 -0.5490598 -0.046563257 -0.4571531 -0.35781184
0.0020604283 -0.631144 -2.3029947 0.645548 0.78367585 -0.1712868 -2.2607775 0.5378493
-1.0088403 -1.2803322 1.1867645 0.17962436 0.4500131 -0.5343063 0.46749258 0.8806533
-1.4141833 1.1891863 -0.72435504 -1.9728174 -0.6634427 -1.3707191 0.20723799 -0.4223466

bias_ih_l1 f4 [200]
00000000: 52b2 f0be c2c1 49bf ad87 ffbe a82e f0be
00000010: e019 c43d 5def b0bd ee5d 0abf 462a acbe
00000020: c58b e73d 8543 bbbe ce3f a2bf 6acd 61bf
00000030: 4a16 53bf 75f9 bcbe d981 a43d 9b38 efbe
00000040: 7301 31bf aca3 00bf 7952 b9be ba34 7abf
00000050: 4c78 83be e0a1 1fbf 98b6 26be c0c7 85bf
00000060: 77af 4cbe c2dc 283e 6ad7 8bbe 6c1e 72be
00000070: 97fc 63bf 64a6 03bf 5348 64bf 5bf4 92bf
00000080: a1ec e5be f5b6 38bf ed87 b1be d1c3 fc3c
00000090: 7a56 f1be fa17 29bf 303f 75bf fafb 88bf
000000a0: cde0 e5bf f071 25bd 506e 19bf 9340 c4bc
000000b0: 2af7 67bf 8953 babe 3a8a 07bd 988c 1ebf
000000c0: 6ff9 fcbe cc4a febe 2631 89bf 3b3e 6abe
000000d0: 805f 31bf a2a3 c5bf 3bca 00bf 97fc fd3e
000000e0: c9b8 a2bf 6a75 51bf 315f 9abf 298c ffbf
000000f0: e03d 8fbf bb15 fabd 0d17 4abf c104 2f3e
00000100: 6f08 c5bf 1eb4 4cbf c0b9 b13d 62bd 90bf
00000110: b4e7 9bbf 7019 1cbf 926d 99bf f39d a4bf
00000120: ecf5 0ac0 1fd7 bcbf 4cf8 a4bf 589f 87bf
00000130: a037 30bf 269c ffbf 67c2 e5be c655 44bf
00000140: 5a12 3fbe a309 80bf 592e 86bf 4b16 733e
00000150: d799 b7bf 68a6 b0bf 17fb 8ebf caf8 32be
00000160: 0ef3 a5bf 73e7 abbf 4e8c 8dbf 9959 9cbe
00000170: 75a6 0abf e939 ccbf bf32 14be 3d84 62bf
00000180: a129 2fbf 8636 4dbf 745b ecbf 9ea6 87bf
00000190: b693 8c3d 140e abbe f9b5 e73d afea ab3e
000001a0: c957 7bbb 6a18 6b3e 6329 093e 032a 88bd
000001b0: 7a22 b5bd 98ee 06be 2e68 b5be 17d9 213e
000001c0: 36fc 17bd d168 a5bd 3bbf c33e 04ef 7dbe
000001d0: e0d8 b53d 4827 41bd d334 bc3e d2f6 303d
000001e0: 78a5 253d 6ce0 4e3d 7d03 7a3d f65f a33e
000001f0: 40b6 c8be 38af 993c d135 4a3e a2b4 a03c
00000200: f82a d53d f9a2 823c 9097 5a3d e618 8a3e
00000210: 5d65 53be 5662 903d c525 3abe a404 043e
00000220: cd24 d83d e91d 17bd f373 62bc 946d 293d
00000230: f8c8 a33e cb87 c73b ed38 0d3c 2ee7 afbd
00000240: 3bcb cd3d 19a9 8e3e 36e9 a33d 2dd8 d93d
00000250: ff7a 24be f237 3abd 1c6b 63bf e1af 6fbf
00000260: d4b7 b7be 19b7 f9be e0ca fb3e 1317 04be
00000270: b74c 9fbe 4cd3 cdbd 3504 543d cb4e c4be
00000280: 6fa5 51bf 5679 2dbf 68d8 2ebf 7dfb 5dbe
00000290: 7f42 2e3e 63b4 f5be af28 1cbf b41a 6fbe
000002a0: 2a37 73be be0a 84bf 040b 81be 8bbb dcbe
000002b0: 74af acbe 1d42 a3bf b093 31bf f96d 36be
000002c0: 9161 cabe 043a 9bbe 73db ffbe 6a70 17bf
000002d0: 397b 28bf 9e2b a9bf 5713 48bf ab8b 0bbf
000002e0: 7048 00bf 3081 37be 8e4f 2bbf fcb9 23bf
000002f0: dd50 85bf 0b3c a3bf 20e9 7abf 9b21 1cbf
00000300: e00b 98bf 441a a53e f47d e2bb 6302 12bf
00000310: b5f6 58bf 945a 01bf b62a a9be f721 aabd
-0.47011048 -0.78811276 -0.499082 -0.46910596 0.09575248 -0.08639405 -0.54049575 -0.33626002
0.11305956 -0.3657495 -1.2675722 -0.8820406 -0.82455885 -0.3690907 0.08032579 -0.46722874
-0.69142836 -0.50249743 -0.36195734 -0.97736704 -0.25677717 -0.62356377 -0.16280591 -1.0451584
-0.1998881 0.16490462 -0.27312785 -0.23644418 -0.89057297 -0.51425767 -0.8917286 -1.1480821
-0.44907096 -0.7215417 -0.34674016 0.030855091 -0.4713629 -0.6605221 -0.9579954 -1.0701897
-1.7959229 -0.040391862 -0.5993395 -0.023956573 -0.9061152 -0.36391857 -0.033090807 -0.6193328
-0.49409053 -0.4966644 -1.0718124 -0.22875302 -0.69286346 -1.5440562 -0.5030858 0.49606773
-1.2712642 -0.81819785 -1.20603 -1.9964648 -1.1190758 -0.12211176 -0.7894142 0.17091657
-1.5393199 -0.79962337 0.08678007 -1.1307795 -1.2180085 -0.60976315 -1.1986563 -1.2860702
-2.1712599 -1.475315 -1.2888274 -1.0595503 -0.68834877 -1.9969528 -0.4487488 -0.7669338
-0.18659344 -1.0002941 -1.0482894 0.23738973 -1.4343823 -1.3800783 -1.1170377 -0.17477718
-1.29648 -1.3430008 -1.1058443 -0.30537108 -0.54160243 -1.5955173 -0.14472483 -0.8848303
-0.68422896 -0.8016132 -1.8465409 -1.0597723 0.06864111 -0.33409178 0.113140054 0.33577487
-0.0038351885 0.22958532 0.13394694 -0.06648638 -0.088444665 -0.13176954 -0.35431045 0.1580547
-0.03710576 -0.08076633 0.38231835 -0.24798208 0.08879256 -0.047156602 0.36759052 0.043204136
0.040441006 0.050506994 0.061038483 0.3190915 -0.39201546 0.018760309 0.19747092 0.019617382
0.10408586 0.015946852 0.053367198 0.2697212 -0.20644136 0.07050006 -0.1817847 0.12892395
0.10553894 -0.03689376 -0.01382159 0.041364267 0.31989264 0.006089186 0.008619529 -0.08589016
0.10048529 0.27863386 0.08003466 0.106369354 -0.16062544 -0.04546351 -0.8883531 -0.93627745
-0.35882437 -0.48772505 0.4917822 -0.12899427 -0.31113216 -0.10050067 0.051761825 -0.38341364
-0.81893057 -0.6776327 -0.6829896 -0.21677966 0.17017554 -0.47989187 -0.6099958 -0.2335003
-0.23751512 -1.0315778 -0.25203717 -0.43111834 -0.3372761 -1.2754551 -0.6936598 -0.17815389
-0.39527562 -0.303177 -0.49972114 -0.59155905 -0.6581302 -1.3216436 -0.7815451 -0.5450999
-0.5011053 -0.17920375 -0.66918266 -0.63955665 -1.0415303 -1.2752699 -0.9801197 -0.6098878
-1.1878624 0.32246602 -0.0069119874 -0.5703489 -0.84751445 -0.50528836 -0.33040398 -0.083072595

bias_hh_l1 f4 [200]
00000000: 5b8f 0cbf 4541 6abf b343 2bbf fc4e 03bf
00000010: ebd6 de3c 918c 1ebe b5f1 1bbf a849 67be
00000020: 0087 fabc 1c07 bbbe 0277 a0bf ae36 31bf
00000030: f967 2fbf 039d edbe 5cef 633d a0b6 e6be
00000040: c6df 0ebf 8031 b9be 4739 96be 9f22 88bf
00000050: de7e 8bbe 4ece ecbe 46bf 6ebe 3c42 a5bf
00000060: 6a2c c9be 7b37 2b3d 254d ccbe acd2 c4be
00000070: 3ae3 52bf 9995 6fbe ef5b 43bf 6720 99bf
00000080: 18d8 17bf f0e9 5bbf ab5a c5be 815c 313d
00000090: d57d adbe b80a 3cbf d644 86bf a7e9 9fbf
000000a0: 5376 e9bf 08f1 c0bd 9c2c d0be 3f68 3ebe
000000b0: b452 6bbf fd4a bbbe 0d40 cb3b 7789 f3be
000000c0: d812 0abf c40a f2be fbf4 71bf ce8c 81bd
000000d0: 3025 17bf 2a44 d0bf 3259 c4be 37b4 ec3e
000000e0: 7dd3 a9bf bf9c 4fbf a16b 95bf 7c33 fbbf
000000f0: 0c2b a2bf 9966 96be c23b 5fbf 43df 9c3e
00000100: 584b cdbf 4d80 4bbf bcce 823e 9ceb 94bf
00000110: 09d0 88bf e3b3 19bf acf7 b9bf 35c5 9ebf
00000120: e944 07c0 28f3 b7bf 76b1 a7bf 68c6 93bf
00000130: 7b71 3bbf 0f7a 07c0 3cbd f8be a019 31bf
00000140: 67a7 5dbe 7d09 8cbf f8d4 6dbf 6978 723e
00000150: 98e7 c1bf 4363 b1bf 09fc a1bf 620f b6be
00000160: 9f90 a4bf 6263 9cbf 74ef 73bf f048 a5be
00000170: d077 23bf 40f4 dcbf 932f c1bd e797 59bf
00000180: 6e60 53bf b713 1dbf 3b44 e8bf e8aa a4bf
00000190: da50 1b3e 3745 72be 432a 1f3e 0e87 d63e
000001a0: 16e6 c8bd 908f cebb 9d0c 99bd 3d19 35be
000001b0: ea20 aabd 3785 82bd 7f48 7fbe bbb1 b03e
000001c0: 8b4c 7cbe eb21 ea3d ce15 843e 4827 6cbe
000001d0: 940e bdbd 353c a63d a9da 9c3e 33d4 b03d
000001e0: 748b 17bd 8981 333c f331 103d 60b9 b83e
000001f0: 0a25 bcbe bf02 2dbe 3932 de3d 936d 093e
00000200: 7358 db3d 84a5 0fbe 3321 b13d c34c 8d3e
00000210: a2da 1abe 5be5 b93d 02b7 903d 847c b33d
00000220: f052 ac3d 3249 62bc 3c1d 663d 43c3 a13d
00000230: f5a6 023f f7de edbc 13b1 463e 7efc eabb
00000240: d475 373d 3332 823e 1805 01bd 489e 543d
00000250: ce0c 3dbc 7b73 c3bd bde3 37bf 65c6 44bf
00000260: dcf1 e2be a31b e4be a41c 013f dc9b 0fbe
00000270: 18d1 cdbe 50c0 673d 3e07 973e dac4 9cbe
00000280: 5f1c 4ebf 9911 09bf 31d1 0fbf 89b6 e6be
00000290: eb0d a93d 607e 09bf af08 e8be 1603 f7bd
000002a0: 8924 7fbe 4ddd 94bf d13a e5be 15cc 00bf
000002b0: 540b 05bf 9637 9abf 257b 02bf 2ec8 a7be
000002c0: e64e 9bbe ce06 3abe cfcb 18bf 204a 37bf
000002d0: 5f66 3bbf a32b aabf cb75 3ebf 6bc3 31bf
000002e0: 78c2 03bf 0bf4 b2bd ce5d 09bf f622 20bf
000002f0: 7618 6dbf 4fc8 8dbf 6d33 8dbf c687 2dbf
00000300: 2043 84bf 0898 7d3e 8e10 3abd 32aa 0bbf
00000310: 64c0 3ebf a1e9 09bf ab2c 0ebf 346e 14be
-0.54906243 -0.91505843 -0.66900176 -0.51292396 0.02720209 -0.1548331 -0.6091569 -0.22586691
-0.030581951 -0.36528862 -1.2536318 -0.6922406 -0.68518025 -0.46408853 0.055648193 -0.45061207
-0.558102 -0.36170578 -0.29340574 -1.0635566 -0.2724523 -0.46251148 -0.23315153 -1.2910838
-0.39291698 0.041800957 -0.39902607 -0.3844198 -0.8237797 -0.2339691 -0.76312155 -1.1963013
-0.5931411 -0.85903835 -0.38545737 0.04330111 -0.33885065 -0.73453856 -1.0489757 -1.249318
-1.8239235 -0.09420973 -0.40659034 -0.18594454 -0.9192307 -0.3658065 0.006202704 -0.47565815
-0.53935003 -0.4727384 -0.94514436 -0.063256845 -0.5904112 -1.6270802 -0.383493 0.46231243
-1.3267666 -0.8109855 -1.1673471 -1.9625087 -1.2669387 -0.2937515 -0.8720056 0.30639085
-1.6038618 -0.79492646 0.2554835 -1.1634402 -1.0688487 -0.6004011 -1.4528708 -1.2403933
-2.113581 -1.437108 -1.3101032 -1.1544924 -0.7322003 -2.1168249 -0.48581874 -0.69179726
-0.2164589 -1.0940396 -0.9290309 0.23678745 -1.5148802 -1.3858417 -1.265504 -0.3555861
-1.2856635 -1.2217829 -0.9528725 -0.3228221 -0.63854694 -1.7262039 -0.09432902 -0.8499741
-0.82569015 -0.6135821 -1.8145822 -1.2864656 0.15167561 -0.23659216 0.15543465 0.41899914
-0.098095104 -0.006303735 -0.07473109 -0.17685409 -0.08307059 -0.06373065 -0.24929999 0.34510598
-0.24638574 0.114322506 0.25797886 -0.2306186 -0.09231296 0.08116952 0.30635574 0.08634224
-0.036998227 0.010956177 0.035203885 0.3607893 -0.3674701 -0.16895579 0.10849423 0.13420705
0.1071023 -0.14027983 0.086489104 0.27597627 -0.15122464 0.09076949 0.07066156 0.08763984
0.084142566 -0.013811396 0.056180224 0.07898571 0.51036006 -0.029036982 0.19403486 -0.0071712127
0.044790104 0.25428924 -0.031499 0.05190876 -0.011538697 -0.095435105 -0.71831876 -0.76865226
-0.4432515 -0.44552335 0.5043433 -0.140243 -0.40198588 0.056579888 0.29497713 -0.30618936
-0.8051204 -0.53542477 -0.56178576 -0.45061138 0.08254608 -0.5370846 -0.45319125 -0.120611355
-0.24916281 -1.1630036 -0.44771436 -0.50311404 -0.5197041 -1.2048213 -0.50969154 -0.32769912
-0.30333632 -0.18166658 -0.5968599 -0.7159748 -0.7320308 -1.3294567 -0.7439849 -0.6943881
-0.5146861 -0.08737954 -0.5365876 -0.62553346 -0.9261545 -1.1076754 -1.1031319 -0.677853
-1.0332985 0.24765027 -0.045425944 -0.5455657 -0.74512315 -0.53872114 -0.5553691 -0.14495164

weight_ih_l2 f4 [200, 50]
00000000: 05a1 1bbf f374 89be 801b 7e3d 979f afbe
00000010: b660 0abe b0e8 cd3e caa4 c93e 04f7 a03e
00000020: 35ae d63e 92a2 9f3e 593f edbf 966d 24be
00000030: 7d22 0c3f f4b2 f2bd 1c06 bbbe cddc d83e
00000040: 41d9 8c3e c617 4ebd a3c9 cdbe 437e c93e
00000050: f53d ee3e 6fb2 dfbf 17ec 75bf 8855 d3bf
00000060: 44cd 2bc0 a621 b63e 07df 803e 694a ad3e
00000070: a5e4 713f 2a60 a53d 5f41 c53f 4c84 0bbf
00000080: 52c7 453f 412b 863f 3f0f 8fbd c46f b6bd
00000090: 490c 84be a6bc 683f 80c3 1cbd 5e66 17c0
000000a0: c91c 46bf 6cc3 f1bf d46e 113c e850 593f
000000b0: 4be3 bf3e 519a 033e f0e5 e73f e8b2 bf3e
000000c0: 57aa 7abf 3c51 09bf 8101 723f 6998 75bf
000000d0: 329e e83d 27f2 9dbe a954 f7be 5eb6 6b3e
000000e0: c50b 33bf fb0c 82bf 6a74 af3e 1157 46be
000000f0: e0a9 acbf d595 01be acb9 01bf 314f 96be
00000100: 1c9d cdbe 4677 08bf 7cd5 123f d5e9 8abe
00000110: 68fd b8be a501 fc3f a271 193f 758c 943f
00000120: b6b0 463f 319e 893f ba09 2cc0 e91c 8f3f
00000130: 7578 a73f 5f23 89bf 84e1 4a3f 179c c53f
00000140: adbb 83be 2d80 1740 3141 dfbe 6d20 c43f
00000150: 5d38 2f3f 77f0 4abf 8fdf 703e 81c8 3e3f
00000160: 3312 6b3f c937 893f bee6 0840 abe6 ddbd
00000170: d7b6 353e 0586 233f 736f 35bf a2ed 703f
00000180: 1e0e 19bf ed15 f93e 01a7 4c3f ca64 4fc0
00000190: cdfc d2bf eeb9 ee3e a95c 01be ce46 173f
000001a0: c54c 713f 476b cd3e ccc5 53bf 3c4d d5bd
000001b0: 6837 b7be da01 113f 4a7d edbe 3b54 543e
000001c0: 9bf5 a23f 2660 c93d 4a00 133c 17e7 e43e
000001d0: b1b8 d23c 2a20 77be 6221 c8bd a433 a4bf
000001e0: ee78 a53f a698 36c0 b389 d2be 8514 3f3d
000001f0: d726 62bf b040 cebe 4160 97bf f629 943e
00000200: 8a6c 903d 512d 46be ae96 533e 8d5c dbbe
00000210: 6439 473e 3a6e f13e 1325 323f d736 1f3f
00000220: f7db 04c0 74fd d8bd 82cc 0abe b22e e43e
00000230: 4389 d4bf e73e f7be 9990 23bf aa35 0bbd
00000240: c60b 293f 591f 473f 8ea4 0640 5dfb 3b3e
00000250: cc9e 113f 69eb f23f 8a41 c4bf b976 cb3d
00000260: 5d75 85bf fec0 8d3e 7ad3 ed3e b41a 37bf
00000270: 00f2 e33e 76d0 883f e21f 7abf 7cb7 e3bd
00000280: acb6 3e40 5bd3 a5be 69d5 07bf e56d 073e
00000290: 3819 693f 3da4 42bd 7cfd b3bd 35ae 1abf
000002a0: e818 dd3d df32 d23e bd5a 693f 6e1c 07c0
000002b0: ea97 1dbf 6831 9bbf 4016 813f 952e 0fbf
000002c0: a456 d3be a207 3f3f 0fbc 04c0 d77d 98bd
000002d0: 1060 a5bf dfd3 a5bf a00f 773f b3b9 0f3f
000002e0: 0803 9cbf b298 ce3e fcb8 823f e3e6 44bf
000002f0: 3c34 a6bf db14 f1bd 426b 55bd 0bbd dcbf
00000300: bc9f d6be bc76 c8bf 8584 0840 8267 5b3f
00000310: 7142 1f40 40ec 0240 980c 823f 25d9 90be
00000320: c5f4 783f d609 933f 268f 3cbf d0c2 a8be
00000330: 327f 99be e619 b33f ca1c 063e b797 aabe
00000340: 8543 e63e f8b4 afbe 1bfa 513e 79f3 32be
00000350: 5a71 acbf 27cd a93e b356 c03e 4c47 62be
00000360: 2543 a7bf 3cc7 ba3d 87ad 4c3f 5211 be3f
00000370: 16c2 063f f55e e23f f1a6 193d 6a0b 83bf
00000380: 7123 acbf 4c8d cc3d 7165 9d3f bc02 cfbe
00000390: 1e95 5d3f 9d68 53be eb2a d63f 0114 233d
000003a0: 3544 aebe 10df bbbe 0469 48bf 19f4 32be
000003b0: f96d f13e c9cd 46bf f07e 32be 51da 18c0
000003c0: 0cd5 a4bf 1f8b 673f 19d5 b13e 2748 afbe
000003d0: fc46 273d 7fd6 10be ff3c e4bf 12b2 75be
000003e0: 132f 4d3f 8506 983f 6d67 f83c 5f9c 8e40
000003f0: b89f 1fbe 3be5 f4be 4b0b 9abf cd4c 8d3c
-0.6079257 -0.26847038 0.062037945 -0.34301445 -0.13513455 0.4021659 0.39383537 0.31438458
0.41929784 0.3117872 -1.8534957 -0.16057429 0.54740125 -0.11850539 -0.365281 0.42355958
0.27509502 -0.05031564 -0.401929 0.39354143 0.46531644 -1.7476329 -0.9606337 -1.6510477
-2.6844034 0.35572547 0.25170156 0.33845833 0.9448951 0.080749825 1.5410575 -0.54498744
0.77257264 1.048195 -0.0698533 -0.08908036 -0.25790623 0.90912855 -0.03827238 -2.365623
-0.7738767 -1.8887763 0.008876521 0.8488908 0.37478098 0.12851836 1.8117046 0.37441182
-0.9791617 -0.5363958 0.94533545 -0.95935684 0.11358298 -0.3084881 -0.48306778 0.23018786
-0.69939834 -1.0160211 0.34268504 -0.1936915 -1.3489342 -0.12654813 -0.5067394 -0.29357293
-0.40158927 -0.53306997 0.57357 -0.27131525 -0.36130834 1.9688002 0.59939015 1.1605364
0.7761339 1.0751401 -2.6880937 1.1180698 1.3083636 -1.0713919 0.7925036 1.543826
-0.25729123 2.3671982 -0.43604425 1.5322396 0.6844538 -0.7927317 0.23522781 0.74524695
0.91824645 1.0720149 2.1390834 -0.10835012 0.17745529 0.6387637 -0.70873183 0.941126
-0.59787166 0.4864954 0.7994233 -3.2405267 -1.6483399 0.46626228 -0.12633003 0.59092414
0.94257766 0.4012091 -0.8272369 -0.10415122 -0.3578446 0.5664345 -0.4638465 0.20735256
1.2731203 0.09832792 0.008972237 0.44707558 0.025722833 -0.24133363 -0.09771992 -1.282826
1.292753 -2.853067 -0.4112068 0.04665043 -0.88340515 -0.40283728 -1.1826249 0.28938264
0.07051952 -0.19353224 0.20662948 -0.42844048 0.19455487 0.4715441 0.6958782 0.62193054
-2.0759256 -0.10595217 -0.13554576 0.44566876 -1.6604389 -0.48290178 -0.63892514 -0.033986725
0.6603359 0.7778221 2.1037936 0.18357606 0.5688293 1.8978091 -1.5332501 0.09934754
-1.0426441 0.27686304 0.46450406 -0.7152512 0.4452057 1.0688617 -0.977049 -0.11118981
2.9798994 -0.32387814 -0.53060013 0.13225515 0.91054106 -0.04751991 -0.08788583 -0.6042207
0.10795766 0.41054437 0.9115408 -2.1111102 -0.6155993 -1.2124453 1.0084915 -0.55930454
-0.4127704 0.7462102 -2.0739782 -0.07445877 -1.2919941 -1.2955283 0.96508217 0.5614273
-1.2188425 0.40350872 1.0212703 -0.76914805 -1.2984691 -0.11771556 -0.052104242 -1.7245191
-0.41918743 -1.5661235 2.1330884 0.85704815 2.4884303 2.0456696 1.0160093 -0.28290668
0.9724849 1.1487377 -0.7365593 -0.3296113 -0.29979855 1.3992279 0.1309692 -0.33318874
0.44973388 -0.34317756 0.20505564 -0.1747569 -1.3472092 0.3316433 0.37566146 -0.2209751
-1.3067366 0.09120032 0.7995228 1.4849036 0.526399 1.7685229 0.037512723 -1.0237858
-1.3448316 0.09987888 1.2296582 -0.40431774 0.8655566 -0.20645376 1.6731848 0.039814
-0.34036413 -0.3669362 -0.7828524 -0.17475928 0.47154215 -0.77657753 -0.17431235 -2.388325
-1.2877517 0.90446657 0.34732893 -0.34234735 0.04083918 -0.14144324 -1.7831115 -0.2399371
0.80149955 1.187699 0.030322755 4.4565883 -0.15588272 -0.4783114 -1.2034696 0.017248536
