mlartifacts/938564954986362366/ec26be8aefda408294adb2452b187f9c/artifacts/mlartifacts/data/model.pth (torch, 374607 bytes, 21 tensors)

weight_ih_l0 f4 [200, 1]
00000000: 65a1 4d3f 706a fb3e b6c6 8f3d 44f7 ac3d
00000010: 050e 8d3f 0818 55bf 4b3a adbd 5888 5fbe
00000020: 5be1 3ebf eaa6 863f 6022 503f dc1e 513f
00000030: bb92 c93d 48e8 4c3d 52a3 23bf abc0 a63f
00000040: 9714 4abe 9591 953f cf0a 04bf 02d1 00bf
00000050: 09b3 953f 5008 a93f d41e 85bf a32c 9d3f
00000060: c00a 183f c7a1 d7be d42d 9fbe bea7 f43c
00000070: 22f0 02bf 950a f7be 607a b7be cb6f 16bf
00000080: 3e07 963f 77ac a63f 394d 423e ccd2 0fbf
00000090: e077 013f 1e59 043f aef9 debe 4132 d63e
000000a0: 894e 1e3e 1148 74bc 5c6e 8e3e 63e0 a43e
000000b0: d9a3 10bf 4f34 98be 8c64 bdbd 6be9 9e3d
000000c0: 78b6 bfbe a69f 983d 00d7 413f 276d 163f
000000d0: 8543 9c3d 3563 9ebe 6ad4 503f 07f3 fcbe
000000e0: 38a3 653e c526 50be 59c5 213f 7d6e 2a3f
000000f0: 43bf 553f f067 203f a83e d5bd acc3 9a3e
00000100: 169f 11bf 7555 933f 6bce 0ebf 8da1 8e3f
00000110: 6056 1b3c b998 c1be e09b 8f3f 30e0 813f
00000120: b812 823f 5d80 8d3f eb60 2e3d 4d72 a0be
00000130: cf5e 1c3f 9afd a33d dcff c9bc 6b39 a3bd
00000140: 1406 2fbf c1cb 063f 5b5d 4a3f 94af 8a3f
00000150: c3ac 613e 2708 34bf 459b a43e 6e93 a83e
00000160: a5b3 d83d c5aa 6d3f 09d5 14bd 91c2 de3e
00000170: 49d7 853c 831e 0bbe b6ba 5d3c 2f95 29bf
00000180: f545 81bd 3d36 c1bd 755e 653f 3a83 e3bd
00000190: fec1 f73f cb2a a83e 7405 6b3f e8c7 45bf
000001a0: c6ce d93f 9f6c 673f c738 6c3f d9b1 72bf
000001b0: 76fc 85bf bed7 803f 9dd0 d7bf 8944 3a40
000001c0: be47 863f 2acc 69bf 8d81 013f c9ad d7bf
000001d0: c0d7 553f ade2 c03f 1b58 5c3f f123 0c3f
000001e0: c9d2 debf 6b60 9f3f 899e 8c3f 97b2 993f
000001f0: 2702 48be dd27 4abf 1fe4 7fbf ae4b 5d3f
00000200: d3db 17bf 142b 743f c77c 413f b797 923f
00000210: 46a0 18bf f7c2 a33f 1155 693f 6a54 1bbf
00000220: fcd8 77bf d606 27bf 7403 75bf fc79 803f
00000230: dac9 79bf fe2f 6b3f 986c 61bf 292a 66bf
00000240: bdcd 803f 4286 3b3f 4dc9 7bbf feea 833f
00000250: 9189 883f ef5b 633f 9420 403f 4dc5 5c3f
00000260: 75bd 1cbe 8f70 93be 8435 923f bf3e 7ebf
00000270: 0de6 ebbd add7 06bf 3311 5fbf d8a2 8b3f
00000280: befd 633f b81d 723f 053b 80be 16bb 83bd
00000290: 166a 2fbf be9d c53f 53ba fdbe 344a a53f
000002a0: 9f88 1ebf 8e11 1ebf 7760 993f 7cc6 ac3f
000002b0: 4046 3dbf 8abf 943f ecff 293f ce45 ddbe
000002c0: d616 91bd 2048 d6bd 883d febe 782f 18bf
000002d0: 831c 3ebf f0dd 98be 2bb0 a53f 0208 8f3f
000002e0: ee8c 3d3e 4975 6dbf 3a71 0d3f 23d5 1e3f
000002f0: aec1 e6be d2cb f03e 30bb f43d d38a 563c
00000300: a792 4a3e b290 3f3e dd76 1fbf 0417 38bf
00000310: 2a16 abbd f122 843d 6b94 f9be 96ab 123c
0.80324394 0.49104643 0.07020323 0.084456 1.1019903 -0.83239794 -0.08458384 -0.21829355
-0.74562615 1.0519688 0.8130245 0.8168771 0.0984244 0.05002621 -0.6392108 1.3027548
-0.19734417 1.1685053 -0.5157899 -0.5031892 1.1695262 1.3205662 -1.0400033 1.2279247
0.59391403 -0.42115614 -0.31089652 0.029865142 -0.51147664 -0.4825026 -0.35835552 -0.5876433
1.172096 1.3021382 0.1897477 -0.56181026 0.5057354 0.5169848 -0.43549865 0.41835216
0.15459646 -0.01490976 0.27818573 0.32202443 -0.5650001 -0.29727408 -0.092476934 0.07759365
-0.374439 0.074523255 0.7571869 0.58760303 0.07630066 -0.30935064 0.8157412 -0.49404165
0.22425544 -0.2032729 0.63191754 0.6657484 0.8349497 0.62658596 -0.10412341 0.3022741
-0.5688337 1.1510454 -0.5578372 1.1143051 0.009481043 -0.3781183 1.1219444 1.0146542
1.0161963 1.1054798 0.042572897 -0.31337205 0.61082166 0.08007355 -0.024658136 -0.07969936
-0.6836865 0.52654654 0.790487 1.0834832 0.2203856 -0.7032494 0.3214971 0.3292498
0.105811395 0.928387 -0.03633598 0.43507817 0.016338008 -0.13585858 0.013533285 -0.6624326
-0.06312171 -0.09434173 0.89597255 -0.11109014 1.9356077 0.32845148 0.91805196 -0.7725816
1.7016227 0.9040012 0.92274135 -0.94802624 -1.046767 1.0065839 -1.6860539 2.910433
1.0490644 -0.91327155 0.50588304 -1.684991 0.83532333 1.5069176 0.8607194 0.5474234
-1.7408077 1.24513 1.0985881 1.2007626 -0.19532071 -0.78967077 -0.9995746 0.86443603
-0.593198 0.9537823 0.7558102 1.145255 -0.5961956 1.2793874 0.91145426 -0.6067568
-0.96815467 -0.65244806 -0.95708394 1.0037227 -0.97573626 0.91870105 -0.88056326 -0.8990808
1.0062786 0.73251736 -0.98354036 1.0306089 1.0666982 0.88812155 0.7504971 0.8623856
-0.15306647 -0.28796813 1.1422582 -0.9931449 -0.11518488 -0.52672845 -0.8713562 1.0909071
0.89059055 0.945766 -0.25045028 -0.06432168 -0.6852125 1.5438764 -0.49556217 1.291327
-0.6192722 -0.61745536 1.1982564 1.3498073 -0.7393532 1.1620953 0.6640613 -0.4321732
-0.07084434 -0.104629755 -0.4965632 -0.5944743 -0.74262255 -0.29856825 1.2944387 1.1174319
0.18510792 -0.9275709 0.55250895 0.6204397 -0.4506964 0.47030503 0.11949766 0.013094622
0.19782506 0.1870754 -0.62290746 -0.7191012 -0.08353837 0.06451977 -0.48746046 0.008952042

weight_hh_l0 f4 [200, 50]
00000000: 825a 1d3f f55a ab3f 4b0a 8d3e cff1 093e
00000010: 1f1e b63e 2afa 513e 4ed1 c73d 085d c5be
00000020: 9e82 383c bf10 943e 2d87 5cbf 23a3 553f
00000030: 6d15 debe b5ac 91be 57ce e2be a3fc 19bf
00000040: 5aca b43e f6f6 823f 4d9e 4b3e 6e94 edbe
00000050: 188e 19bf 76bf 853f 7c32 05be 6d78 503f
00000060: ef20 bdbe f07b 8cbc aafa 81bd 5e12 9b3e
00000070: cdf4 1d3f 3701 953e 5a4f 573e 33a7 b8be
00000080: 3b98 f03e 1284 993f 86eb e3be 9224 6ebe
00000090: 32d6 1bbe 07c8 79be db63 59bd 8be5 f6bd
000000a0: d2b1 c2bc 97db 40be e648 033d 2717 5cbe
000000b0: c8ba 783d 0dc9 233e a607 923d bdbb 993d
000000c0: 974d 00bd f467 863d 0811 233f 9c03 07bf
000000d0: a6b6 cb3b ce6d babc e0d9 d73e 7876 863e
000000e0: 29f9 a2bd a763 92b9 000e ae3d 8600 8e3f
000000f0: 876d bbbd e14c 003d 14bb 7cbd 89c1 7d3d
00000100: 060f b5be b04e 48bf 98d7 2e3e f795 bf3e
00000110: ac57 7fbd f282 b0be 995b 3cbf 2239 ec3e
00000120: 6cf4 e0bd 96e6 9e3e 4b80 d33e d5fb 013e
00000130: 967c c23d 1cf8 78bd 22bc 003f 08db 0dbd
00000140: cd01 d93d 6dbf 1ebd 57aa f0be cc86 993e
00000150: 1e8a 2f3f 6a73 183e 7baf 5dbf 4efd f03e
00000160: 74d7 adbc fd44 a33f 8055 0fbc daad 96bd
00000170: aa0a 63bd 6264 b93c 8dfe 323b ab81 d63d
00000180: 6914 79bd a6af f33d 503f 81be 36d3 0ebd
00000190: f613 353e 4e36 323f 85c3 14be 47c7 ba3e
000001a0: 7fc6 b6bd 9315 a9be 06c0 30bd 60ce 013e
000001b0: 7b7a a83a 2e0d debe f9f8 3b3e 7e55 85be
000001c0: 55a6 4fbe fb3b c9bd cf39 cebe ca33 aebe
000001d0: 21d2 81be d0d8 013f de8a c8be bfeb 0dbf
000001e0: 7c03 96bd c0ec 563f 7ab5 49bd d15c 243f
000001f0: a05c a3bd 7850 a43e 336d aabd 7436 0fbe
00000200: d8d9 bc3e 60ed 86bd b6b9 acbe 2174 33be
00000210: e44a ad3e 8128 1d3f e14c 1bbe db70 3d3f
00000220: f13f 813e a26e 86bd e683 963e a123 bfbe
00000230: 2540 903e 4c36 7f3d efc4 cc3d 2c61 b33e
00000240: a201 3ebe 8935 09bf 488d e63d 3033 44be
00000250: 3f2c a1bd f552 56be b92d ad3d 5852 2a3f
00000260: e6e4 293e a5c0 80be 49ba 99be c4fa 3abe
00000270: 5887 733e ef4b 753e e844 bcbc 7887 3ebf
00000280: e24a 703e ecdb 213e e7ac 1e3f 5829 b23b
00000290: 883d 1dbe 076b 3b3f c2a7 fe3c 5a02 19bf
000002a0: 30ce 983e 6058 9abe c788 863e 715c 29bf
000002b0: 2a09 883e 0a8f a2be f34f c3bf 7e78 e3be
000002c0: 30a8 cfbe 0531 c33e 233c dd3d 2714 f7bd
000002d0: 9edf 52bc 6b8a 863e 0bc5 253e e43b f4be
000002e0: f31d ed3e ce9d 353e 5af6 20be 2fdb 71bf
000002f0: 25f8 26bd 88a3 9f3d 71fc 42be 2e5f e73e
00000300: 8dfa cfbe 984b 0fbe f22b 5f3c 8429 2bbe
00000310: e5d2 31be 8e1c ec3d fdd3 d73e 5316 343e
00000320: fba1 0f3e ccc0 503f 8c90 57bd 2209 873e
00000330: 9e40 363c 1e13 febd 6cc0 b03c 7d94 a6be
00000340: 4bf9 fe3b fbb2 37be 2469 c8be 1328 9b3e
00000350: f446 b7be e4c3 a33c d73a 05bf 4b98 93be
00000360: 8d6e d83d 5c6f 1b3f fcda 81bc f624 20bf
00000370: 41eb e03d ee2e 883f d112 46be 2962 643f
00000380: ee18 edbe aff3 233e 9252 e03d e0d0 0c3d
00000390: a782 333f 4778 033e b925 f3bd eb0a ccbe
000003a0: 0490 613f 61c4 6f3f 1d4d 1cbf df73 203e
000003b0: e99a d83d 3c8c 583b 4d45 453e da8e 86be
000003c0: 4cf3 743e cd10 4fbe 8f42 523e be1f 6ebe
000003d0: 3ee4 91bc fa79 d2bd 88cc 0a3e 2cad 14be
000003e0: b184 d1bd dafe 7cbd aaa6 833e cf93 bbbe
000003f0: 05ca fb3d 1ffa 7cbe dca1 703c 9a36 953d
0.6146623 1.3387133 0.27546915 0.13471149 0.35569856 0.20505586 0.097567186 -0.3854754
0.01126161 0.28919026 -0.8614376 0.8345205 -0.43375722 -0.28452078 -0.4429805 -0.6015112
0.35310632 1.0231616 0.19884606 -0.46402305 -0.5998244 1.0449054 -0.1300754 0.81433755
-0.3693919 -0.017148942 -0.063466385 0.3028745 0.6170166 0.2910249 0.21026364 -0.36065063
0.46991143 1.199343 -0.44515628 -0.23256138 -0.15218428 -0.2439271 -0.053073745 -0.120555006
-0.023766432 -0.18833767 0.032051943 -0.21493207 0.060725003 0.15994664 0.07130365 0.07506511
-0.031323995 0.06562796 0.6369786 -0.5273988 0.0062168417 -0.022757437 0.42158413 0.2626226
-0.0795768 -0.00027921537 0.08498764 1.109391 -0.0915175 0.031323317 -0.06170185 0.061952148
-0.35363024 -0.7824507 0.1707443 0.37419102 -0.06233947 -0.34474903 -0.73577267 0.4613734
-0.1098412 0.31035298 0.41308817 0.12693723 0.09496419 -0.06078349 0.5028707 -0.034632713
0.105960466 -0.038756777 -0.4700496 0.29985654 0.68570125 0.14887777 -0.86595887 0.47068256
-0.0212209 1.2755429 -0.008748412 -0.07357378 -0.055430092 0.022630874 0.0027312369 0.10473951
-0.06081048 0.11898737 -0.25243616 -0.034869395 0.17683396 0.6961411 -0.1452771 0.36480162
-0.08924579 -0.33024272 -0.043151878 0.12676382 0.0012853885 -0.4336943 0.18356694 -0.26041788
-0.20278294 -0.098258935 -0.4027848 -0.34023887 -0.25355628 0.50721455 -0.39168447 -0.55437845
-0.07324883 0.83955 -0.049245335 0.64204127 -0.07976651 0.32092643 -0.08321609 -0.13985616
0.36884952 -0.065882444 -0.33735436 -0.17524768 0.338462 0.6138993 -0.15166046 0.7400033
0.25244096 -0.0656407 0.29397506 -0.3733187 0.28173938 0.06230764 0.099984996 0.35035074
-0.1855531 -0.53597313 0.11257416 -0.19160151 -0.078697674 -0.20930083 0.084559865 0.66531897
0.16591224 -0.25146976 -0.30024937 -0.18259722 0.23782098 0.23954748 -0.022982076 -0.7442546
0.23466066 0.1580655 0.6198258 0.0054370575 -0.15355504 0.73210186 0.031085853 -0.59769213
0.2984481 -0.3014555 0.26276228 -0.6615668 0.26569492 -0.31749755 -1.5258774 -0.44427866
-0.40558004 0.38123336 0.10802486 -0.12064391 -0.012870697 0.2627748 0.16188447 -0.47701943
0.46311912 0.17735979 -0.15718976 -0.9447507 -0.040763993 0.07794863 -0.19041611 0.45189804
-0.40620843 -0.1399368 0.013621317 -0.16715056 -0.17365606 0.11528884 0.42153922 0.17586641
0.14026634 0.81544185 -0.052628085 0.26374155 0.011123804 -0.1240599 0.021576129 -0.32535163
0.007781183 -0.1793937 -0.39142716 0.30304012 -0.3579632 0.019990869 -0.5204291 -0.28827128
0.10567961 0.60716796 -0.01585149 -0.625564 0.10982371 1.0639322 -0.19343115 0.8921228
-0.46308082 0.16010927 0.10953249 0.034378886 0.70121235 0.12838851 -0.118724294 -0.3985208
0.88110375 0.93659025 -0.61055166 0.15669201 0.10576422 0.003304257 0.19264717 -0.26280862
0.23920935 -0.20221253 0.20533203 -0.23254296 -0.01780903 -0.102771714 0.13554585 -0.14519185
-0.10230387 -0.061766483 0.25713092 -0.36636207 0.122943915 -0.24704789 0.014687028 0.07285805

bias_ih_l0 f4 [200]
00000000: 2ac4 7bbe 7898 a7bd ced2 04bf 05a1 fbbe
00000010: dcf9 50be d1d1 d6be 81c9 c3be dda4 04bf
00000020: 348a bbbe ba5a f6be 0466 3ebe cfd0 2bbb
00000030: 3a17 5fbc 2b97 f8be 6dc0 41bf cfd4 03be
00000040: c57d 13bf 8e62 b1be e262 37bf 08ea 15bf
00000050: 8b7e 92be 91f2 1bbf 30d2 383d 22e4 babe
00000060: f380 a1bf 44ff 47bf b891 01bf 2671 08bf
00000070: 3025 0fbf 7a7d 14bf 8c7e 20bf 05f5 143e
00000080: ca67 ecbf 1030 15bf 430d 15be 624a 3ebf
00000090: 999d 2fbe 7ba8 a2be c5f1 0abf bed5 8dbe
000000a0: 28ee 72be ee47 c7be b693 babe 2d0a 0bbf
000000b0: 042b c7be c1f3 16bf edaa 9cbe 4b7b e4be
000000c0: 59ec 62bd 966b a7be fe0d 9bbf a33f d23b
000000d0: 14bc 8fbf f99e 29bf 4bfc 59bf 87b7 4dbf
000000e0: 7628 bbbf 6112 5abf d200 93bf ecf1 07bf
000000f0: c340 d0be 5895 2e3d 61e3 a5bf 29c3 8bbf
00000100: 761b 50bf deb3 a3bf c672 12bf 935c 73bf
00000110: ac8a 9cbf 8936 0dbf 3d7a 8dbf 996c 03bf
00000120: ece3 e7bf ebfb 5fbe b617 7ebf bf26 b1bf
00000130: 24e1 d6bf d110 89bf d899 53bf 4d27 7dbf
00000140: d361 f2be a972 efbf eccb 95bf 8c08 13be
00000150: 4969 13bf 5f5b 80be 15e1 28bf d75e 90be
00000160: da85 b3bf 79bf 07bf 7459 b3bf c646 c5bf
00000170: e095 7dbf 2bad 6fbf cdcb adbf f782 edbe
00000180: 3795 a9bf c88a 85bf 08fd dabf 9d61 80bf
00000190: 1645 bbbe 0a7f 643d 9a29 193e 51dd 63be
000001a0: e736 89be 43a0 863e b2a3 ba3e 4d50 87be
000001b0: 12e5 b2be cd25 81bd 44c5 5d3c 70bb d6bd
000001c0: b9ec 8d3e 27df b1be 99bf 083f b59c db3e
000001d0: bf86 393e 85d0 dabe 2619 103e 24ee 013f
000001e0: 0321 c93e e218 38be 9eb9 c23e 7b3a 98be
000001f0: 368c fdbd 1870 31be c67e ddbe 155d af3e
00000200: 0f32 ecbe 0b5d ad3e 1a9f 5f3e 016e bf3e
00000210: c7a5 8cbd 3fff 0ebe d913 583e 2df7 83be
00000220: 232b aabd 7cd7 0ebe d48c c9be 280d 6a3e
00000230: c2ff 0cbe 059e 923e 5eb4 71be 6d69 48be
00000240: 95b2 bb3e f669 803d 3bca 7dbe 2ea8 113d
00000250: d8a3 953e 9b3d dc3d d92e 8dbe 81b7 8abd
00000260: 4a24 16bf dfe9 ecbe 8fba 37be 2e64 f4be
00000270: c6dd f5be f0f7 28bf 05e4 91be 69e9 ffbe
00000280: 1b2e 93be 903e dcbd 4cf9 a43d 0187 9dbe
00000290: 62c9 59bf c806 71be be66 cdbe 523d d5be
000002a0: d91f 23bf 88dd 69bf a75a ccbd 7fa3 2bbf
000002b0: e4f9 d5bd 775a fabe 09cd 9cbf d027 48bf
000002c0: e6df d5be 64c9 bfbe 2fc9 3fbf f357 e9be
000002d0: 5bba 0cbf c0ec 34bc 9a24 e5bf a916 b1be
000002e0: e64e 43be 7d19 0ebf 79c0 ccbe e507 6bbe
000002f0: 6ed5 46be ebf3 66be 2170 a3be ed11 31be
00000300: 2cb0 6bbe 8e70 8dbe fc9b 15bf a224 07bf
00000310: 0c47 43be 0b8b aebe 0bd7 8ebe be04 b3be
-0.2458655 -0.08183378 -0.5188416 -0.49146286 -0.20407814 -0.41956952 -0.38239673 -0.5181406
-0.36628878 -0.48116094 -0.18593603 -0.002621699 -0.0136163775 -0.48552832 -0.75684243 -0.12874149
-0.57613784 -0.34645504 -0.7163526 -0.5856023 -0.2861217 -0.60917 0.045122325 -0.36502177
-1.2617477 -0.7812388 -0.50612974 -0.5329765 -0.5591612 -0.5800396 -0.62693095 0.14546593
-1.8469174 -0.5827646 -0.1455584 -0.7433225 -0.17149962 -0.31769165 -0.5427516 -0.27702135
-0.23723662 -0.38922065 -0.3644082 -0.543124 -0.38900006 -0.5896569 -0.30599156 -0.44625315
-0.05540118 -0.3269927 -1.2113645 0.0064162775 -1.1229272 -0.662582 -0.85150594 -0.80358166
-1.4621723 -0.85184294 -1.1484625 -0.5310352 -0.4067441 0.042622894 -1.2960016 -1.0918933
-0.812919 -1.2789266 -0.5720638 -0.9506313 -1.2229819 -0.5516134 -1.1052929 -0.5133758
-1.8116431 -0.21873443 -0.9925493 -1.3839949 -1.6787457 -1.0708257 -0.8265662 -0.98888093
-0.4734026 -1.8706867 -1.1702857 -0.14358729 -0.5758253 -0.2506971 -0.6596845 -0.28197357
-1.4025223 -0.5302654 -1.4011674 -1.5412223 -0.99056816 -0.9362361 -1.357782 -0.4638898
-1.3248662 -1.0432978 -1.7108469 -1.0029789 -0.36576146 0.055785216 0.14957276 -0.22252394
-0.267997 0.26294145 0.36453015 -0.26428452 -0.34940392 -0.06306038 0.013535801 -0.104849696
0.27719668 -0.34740564 0.53417355 0.42892995 0.18117808 -0.42737213 0.14072093 0.50754
0.39282998 -0.17978242 0.3803224 -0.29732117 -0.12380259 -0.17327917 -0.43260783 0.34250703
-0.46131942 0.3386005 0.21838036 0.37388614 -0.06867557 -0.13964556 0.21101321 -0.25774518
-0.08309009 -0.13949388 -0.39365256 0.22856581 -0.13769439 0.28636184 -0.23603961 -0.19571467
0.36659685 0.062702104 -0.24784176 0.03556078 0.29226565 0.10753938 -0.27574804 -0.06773282
-0.5864912 -0.4627218 -0.1794226 -0.4773268 -0.48020762 -0.6600332 -0.28494278 -0.49982765
-0.28746113 -0.1075412 0.08055362 -0.30767062 -0.8507291 -0.23537743 -0.4011745 -0.41648346
-0.6372047 -0.91353655 -0.09978228 -0.6704635 -0.104480535 -0.48897144 -1.2250072 -0.7818575
-0.41772383 -0.37458336 -0.74916357 -0.45574912 -0.54971856 -0.011042774 -1.7901795 -0.345876
-0.19073066 -0.5550764 -0.39990595 -0.2295223 -0.19417354 -0.22553985 -0.31921485 -0.17291994
-0.23016423 -0.27624935 -0.5844114 -0.5279027 -0.19070071 -0.34090456 -0.2789844 -0.34964556

bias_hh_l0 f4 [200]
00000000: 10cf ebbe a20d e13b 4e62 ccbe 78ab 10bf
00000010: 7faa 99be 5fe3 f3be 16f5 88be 758c 2ebf
00000020: 085e a9be f711 0fbf 3bd6 2ebe 505c 20be
00000030: 370b 643d eb79 cebe 7c47 0fbf c2ec adbe
00000040: 7250 e8be 6f0b e0be f36b 39bf 2f3c 0dbf
00000050: 1d98 30be 06cb 2ebf 7acf 11be 6259 e5be
00000060: 2da2 b7bf c718 23bf 7963 d0be e285 d6be
00000070: b975 14bf b7d4 07bf 29b2 2bbf f55b 183e
00000080: 9024 e2bf 1ac1 ecbe 8a23 9fbc 33be 30bf
00000090: 846b abbe 5d80 c3be 2c11 e8be 8522 73be
000000a0: 64ea dcbe f513 9cbe b778 66be f839 18bf
000000b0: 97fd afbe 766f edbe 1d4b a2be a132 babe
000000c0: bd76 b13c be1c 8ebe 1fbd a2bf 1e43 5c3e
000000d0: 79ce a2bf 0714 34bf 999c 80bf a5f7 2dbf
000000e0: 72c5 a3bf 3bc3 72bf bdce 91bf a4e1 04bf
000000f0: e875 57be 089c df3d b450 a4bf 8f56 8abf
00000100: 9b79 53bf 1fb0 a8bf 6919 0fbf 5d72 6bbf
00000110: 6977 97bf 40d8 3dbf aa33 99bf 06ef cfbe
00000120: 4f2e d3bf c28f b53c 6b38 63bf c89f a4bf
00000130: b0ed dbbf 273e 7cbf ff43 21bf 7c17 7fbf
00000140: f6d7 13bf 6395 f0bf 081b 94bf 2a8c 2bbe
00000150: c821 23bf 2113 31be 70de 57bf f257 54be
00000160: d8a8 a0bf 03dc 31bf 4c35 a2bf a43a c4bf
00000170: 6624 90bf 010e 6bbf 28f0 a9bf 6220 bfbe
00000180: a684 93bf 9251 8dbf d3c2 f1bf 620d 85bf
00000190: 615c 80be e70e 0c3e 0af7 b63e ec16 f8bd
000001a0: 9015 aabe b729 a53e 0fb6 c63d 5103 86be
000001b0: f927 c0be 76d7 1e3d 9b01 743e bbdf 8ebd
000001c0: a3c7 c03e d5c5 36be eeb2 053f 6bac 033f
000001d0: f88f 013e 4bbb 01bf 81eb a23e 9efc fb3e
000001e0: 759d b63e 6504 52be 8f3e e73e 3e63 afbe
000001f0: f807 b5bd ebb0 5cbe 9060 5fbe f9f5 bb3d
00000200: b602 03bf f8ba 3f3e 09f2 0c3e fbaf a53e
00000210: e73a 09be 4a57 acbe d402 753e 67c8 2dbe
00000220: 8ea5 79be 989d dbbd 5970 53be 98c1 6b3d
00000230: db76 b9be 5001 6a3e 145f 3fbe c09b 19be
00000240: 88f5 8d3e ec22 853e 823a 6cbe 2312 8d3e
00000250: 9e8c d63e e8f3 883e 5b99 73be ab6b e93c
00000260: 82d9 0bbf db5e e0be 3f51 3dbe c927 12bf
00000270: 4dae 9abe f391 15bf 4ceb 7fbe 46f0 c2be
00000280: 115d 76be 8f61 c2bd 1118 c33c e435 efbe
00000290: 524e 46bf 86e0 9cbe e93f f8be 5b73 adbe
000002a0: b83c 4bbf 73cd 34bf 5b22 4abe 47a6 37bf
000002b0: 03d4 e8bd 3f62 76be 8bd3 9cbf 7abb 22bf
000002c0: 710a d6be d336 9dbe ad76 2fbf 4bef e7be
000002d0: 4ef1 21bf b1f2 913d 6d9a dcbf 78ff f7be
000002e0: 3ff4 90be af97 02bf 814d 67be 9e7e 82be
000002f0: 4885 b6be e827 63be e5cf 63be ce32 9abe
00000300: 8587 8dbe ac67 e4be d72f c0be 96d8 94be
00000310: be80 97be 2404 14be 4d4b 9abd 80af c9be
-0.46056414 0.0068680802 -0.3991875 -0.5651164 -0.3001289 -0.47634408 -0.26749486 -0.6818307
-0.33079553 -0.5588679 -0.1707391 -0.15660214 0.055674758 -0.4032739 -0.5596845 -0.33969694
-0.45373875 -0.43758723 -0.7243034 -0.5516996 -0.17245527 -0.6827854 -0.14239302 -0.44794756
-1.4346367 -0.6370968 -0.40700892 -0.4189902 -0.5799213 -0.5305895 -0.67068726 0.14878829
-1.7667408 -0.46241075 -0.019426126 -0.6904022 -0.33480465 -0.3818387 -0.453256 -0.23743637
-0.43147576 -0.30483976 -0.22506987 -0.59463453 -0.3437316 -0.463741 -0.31697932 -0.36366752
0.021663064 -0.27756304 -1.2713965 0.21509978 -1.271926 -0.7034306 -1.004779 -0.67956
-1.279463 -0.9482915 -1.1391217 -0.519068 -0.21041071 0.109184325 -1.2837129 -1.0807666
-0.8260743 -1.3178748 -0.5589815 -0.9197138 -1.1833316 -0.74158096 -1.1968892 -0.40612048
-1.6498507 0.022163276 -0.8875796 -1.2861261 -1.7181911 -0.98532337 -0.6299438 -0.9964521
-0.57751405 -1.8795589 -1.1570749 -0.16752687 -0.6372342 -0.17292453 -0.8432379 -0.20736673
-1.2551527 -0.69476336 -1.2672515 -1.5330396 -1.1261108 -0.91818243 -1.3276415 -0.37329394
-1.1524856 -1.1040518 -1.8887581 -1.0394709 -0.2507048 0.1367756 0.3573535 -0.12113747
-0.33219576 0.32258388 0.09702694 -0.26174405 -0.37530497 0.0387797 0.23828737 -0.06976267
0.3765231 -0.17848904 0.5222615 0.51434964 0.12652576 -0.5067641 0.318203 0.4921617
0.35667005 -0.20509489 0.45164916 -0.34255403 -0.088394105 -0.21551864 -0.2181418 0.09177775
-0.5117601 0.18723667 0.13764204 0.32360825 -0.13401376 -0.33660346 0.2392686 -0.16970979
-0.2437956 -0.10723418 -0.20648326 0.057557672 -0.36223492 0.22852063 -0.18688613 -0.1500082
0.27726388 0.26003206 -0.23069194 0.275529 0.41904157 0.26748586 -0.23788969 0.028493723
-0.54628766 -0.4382237 -0.18488024 -0.5709196 -0.30211106 -0.58425826 -0.24992102 -0.3807394
-0.2405894 -0.09491264 0.023815187 -0.46720803 -0.7746326 -0.30640048 -0.4848626 -0.33877072
-0.79389524 -0.7062599 -0.19739668 -0.71738094 -0.11368563 -0.24060915 -1.2252058 -0.63567317
-0.4180484 -0.3070589 -0.6854046 -0.45299754 -0.63258827 0.07126368 -1.7234627 -0.48437095
-0.28311345 -0.510127 -0.22588159 -0.25487226 -0.3564856 -0.22183192 -0.22247274 -0.30116886
-0.27642456 -0.44610345 -0.375365 -0.29071492 -0.2959041 -0.14454705 -0.07533894 -0.39391708

weight_ih_l1 f4 [200, 50]
00000000: c1a0 83be 99e2 343e 764c c9be f057 043e
00000010: abd8 433e c613 42be 106d b6be 487b 15be
00000020: 03de 0d3d 40e5 ca3e ac9b 1bbe 8714 42be
00000030: c386 5fbf a1b9 233f f813 b5bf 6268 7bbe
00000040: ff8d 4d3e e37f e33e ca91 e2be 362e 98bf
00000050: d914 3d3e f6e0 a83e 5226 13bf 110f c63e
00000060: 61b5 053f fc8a 203f 3f4f 453f af99 e1be
00000070: 30f0 fa3f dc08 0fbb bc9c da3c e7c2 8cbf
00000080: aa80 e0bd 14ee 883e e229 c1be e768 2fbc
00000090: ceb0 0d3f d813 f53e 67a3 003f 77dc 2abf
000000a0: 2dbf 3d3f d334 7cbf aa50 843e 1fab 1c3f
000000b0: 73cc 87be d310 d8be 38b6 3f3f b6b9 3ebf
000000c0: 7997 8bbf ef01 32bf fb29 7b3f bf9c 9c3e
000000d0: 7adb 8f3d 677e b6bd 7d25 ae3f fa70 17bf
000000e0: ab55 4a3e 744a ba3c a0f0 2d3f c7da 713f
000000f0: 0478 a7bf ff13 583f 77c1 d9be dcec a9be
00000100: 11c6 ccbe e2c4 06c0 9c4e 9d3e b130 2b40
00000110: 2084 92bd 6dab 23bf 9f7c d0bf 0aea c93f
00000120: c644 12bf ed97 ee3f 7349 75bf 833f 063f
00000130: 9a98 4fbe bd1c 98bc cf91 b43e e07b f7be
00000140: 32dd 5cbe 1d52 1c3e 3c76 15bf 19d7 0140
00000150: 19bb 94bb f200 0a3f 0600 64bf 4292 163f
00000160: ea42 033e 4f14 d93e a626 bdbe 04e7 88bd
00000170: 92b0 c63d f9a8 a3be b47c 1d3d d7f6 9abe
00000180: 9191 14be fa22 c33d 183b cbbe 962f 9b3e
00000190: 8a3d 423f e80f 0d3e 6318 183f e94f d2be
000001a0: ba13 473f d654 3e3e d33c c13e e622 19bf
000001b0: affa 713e 4935 493f 9da1 bebe 37e4 f83d
000001c0: e1c2 ab3e c7c4 b9be a17f acbe 1ffd a3bf
000001d0: cfe5 4b3f 35ac c23f 1f21 aa3e d59e 3ebf
000001e0: ac17 29bf 3692 d73f 99d3 a0be 3e9b dc3f
000001f0: b9c0 7f3f 7014 2abd 825a 03bf 738b df3e
00000200: d910 af3e 868f 3b3e fa4b a53e 6aca f63e
00000210: 3eff fcbe 545e b43f b801 a73e 97cb 3fbe
00000220: 1952 09bf 5f21 973e 7430 21bf a467 ba3e
00000230: b2f7 4bbf f1fd 883e b8bf c5be 3e99 23bf
00000240: 51f0 8d3e 4be2 9c3e 0a4b 04bf 23ae 803e
00000250: 78a0 35be a21a 3b3f f945 293b 5adc ec3e
00000260: aa8b aebf d59d bb3e cf85 e43b a99a eb3c
00000270: daf2 93bf 4cd6 f53e 81ec 293f 0d6e cebe
00000280: 6b25 46be fe94 163d a741 adbf 6845 6c3f
00000290: dc2f 83bf 2662 26bd 28e6 78be 0c15 073f
000002a0: 7d4f f7be 73b7 58bf e526 bcbd daa8 803e
000002b0: 0e7f cdbf 9567 743e 5ee1 c13e 425d f13e
000002c0: e972 9a3f 4c4c 3dbf eabd c83f ec53 04bf
000002d0: 9494 bbbd 9c79 debf f19f fc3d 821b e33e
000002e0: 3720 9bbf 0083 043e e3cf 3b3f 7724 0e3e
000002f0: c271 273f ae07 7abf c3a6 6f3f 0a43 b7bf
00000300: 3814 8e3f 47fd 283f 59da 35bf 4252 b9bd
00000310: d5dc 9c3f 4b10 66bf 48ee c3bf 325e 48bf
00000320: c202 823f de11 423f 5216 9d3f 6260 72bf
00000330: 774c 903f 5590 4c3f 03b7 673f b669 a5bf
00000340: bf3c 74bf 0f31 ee3e 7ca2 63bf 7d45 8b3f
00000350: 5671 c53f fe8b 5fbf 84cf a5be cd34 66bf
00000360: f5d2 d13f d6e3 493f 4fa8 663f b1cc 1cbd
00000370: 6b6a 84bf 829d d13e b798 243f 5bc0 3d3f
00000380: bb44 ee3e 1685 2fbf 04df 80bf 2d3c a23f
00000390: 070d d93d 638c 353f 7d65 293f 9d08 d43f
000003a0: 84c9 1abe e001 ef3e 5d5b b63f 098d aabe
000003b0: ad83 94bf e007 a6be 824d 85bf af06 9b3f
000003c0: 033c 9cbf 17f4 573f 579c 98bf 7057 c6bf
000003d0: 9183 893f 3e6a 1f3f 0af5 d4bf 9622 c93f
000003e0: f985 993f b08b c53f 5668 60bd 77ac 1dbf
000003f0: 5ba1 863e 8749 c0be f813 bd3e adf3 4a3e
-0.25708583 0.17664565 -0.39316148 0.1292417 0.19125621 -0.18952855 -0.35630083 -0.1459781
0.034635555 0.3962803 -0.15196103 -0.18953143 -0.87315005 0.6395512 -1.4146719 -0.24551538
0.20073698 0.44433507 -0.44251853 -1.1889102 0.18464984 0.32984132 -0.5748035 0.3868337
0.5222989 0.62712073 0.77074045 -0.44062564 1.960455 -0.002182535 0.026686065 -1.099698
-0.10962041 0.2674414 -0.37727267 -0.010706163 0.5534791 0.47866702 0.5024933 -0.6674265
0.74119836 -0.98518103 0.25842792 0.6119861 -0.2652317 -0.42200336 0.7488742 -0.7450212
-1.0905601 -0.695342 0.9811093 0.30588338 0.07024284 -0.08910828 1.360519 -0.59156764
0.19759242 0.02274058 0.6794529 0.9447445 -1.3083501 0.8440551 -0.42530414 -0.33188522
-0.39994863 -2.1057668 0.30724037 2.674847 -0.07154107 -0.6393345 -1.6288031 1.5774548
-0.5713619 1.8640114 -0.958152 0.5244066 -0.20273057 -0.018568391 0.35267493 -0.48336697
-0.21568754 0.15265699 -0.58383536 2.0287535 -0.0045389053 0.5390769 -0.89062536 0.5881692
0.12818494 0.42398307 -0.3694355 -0.06684688 0.09701647 -0.31964853 0.038449004 -0.3026645
-0.14508654 0.095281556 -0.39693522 0.30309743 0.7587515 0.13775599 0.5941221 -0.41076592
0.77764475 0.1858705 0.37741718 -0.59818876 0.23630784 0.7859693 -0.37232676 0.121529035
0.33547118 -0.36282942 -0.33691123 -1.2811621 0.79647535 1.5208803 0.33228394 -0.7446111
-0.66051745 1.6841495 -0.31411436 1.7234876 0.99903446 -0.041523397 -0.5130998 0.4366108
0.3419254 0.18316469 0.32284528 0.48201305 -0.49413484 1.4091287 0.326185 -0.18730007
-0.53640896 0.29517648 -0.6296456 0.36407197 -0.7967483 0.26756242 -0.38622832 -0.63905704
0.2772241 0.30641398 -0.51677 0.25132856 -0.17736995 0.73087513 0.002582906 0.46261865
-1.3636372 0.36643854 0.006973959 0.028760271 -1.1558487 0.48015058 0.663765 -0.40318337
-0.19350211 0.036763184 -1.353566 0.92293406 -1.024898 -0.040620945 -0.24306548 0.5276649
-0.48302832 -0.8465492 -0.09187106 0.25128824 -1.6054399 0.23867638 0.37867254 0.47141463
1.2066318 -0.73944545 1.5682957 -0.51690555 -0.091591984 -1.7380862 0.12335194 0.44356924
-1.2119206 0.12940598 0.73364085 0.13881098 0.65407956 -0.9766797 0.93613833 -1.4317334
1.109992 0.6601147 -0.710363 -0.090488926 1.2254893 -0.8986861 -1.5307093 -0.7826873
1.0157092 0.75808513 1.2272437 -0.9467832 1.1273335 0.79907733 0.9051363 -1.2922885
-0.9540519 0.46521804 -0.88919806 1.0880581 1.5425212 -0.87322986 -0.32384884 -0.8992432
1.6392504 0.78863275 0.9010057 -0.038281146 -1.0344976 0.4094048 0.64295524 0.74121636
0.46536812 -0.6856245 -1.0068059 1.2674614 0.10598188 0.7091734 0.66170484 1.6565129
-0.15115935 0.46681118 1.4246632 -0.33310726 -1.1602684 -0.32427883 -1.0414279 1.2111415
-1.2205814 0.84356827 -1.1922711 -1.5495434 1.0743276 0.6227149 -1.663728 1.571368
1.199401 1.5433254 -0.054787003 -0.61591285 0.2629498 -0.37556097 0.36929297 0.19819517

weight_hh_l1 f4 [200, 50]
00000000: 413d 113e d30f 8f3d 9ff0 f73e d622 59be
00000010: 7a9a 1abf c0c8 59bc 3f2f c53e 1d39 413e
00000020: 4688 1fbd 288c cd3d debf 54bd 06a2 17be
00000030: dfe5 373e 87fd 5d3f d330 03bf 2f4e 2a3c
00000040: e89e e43e 1088 febd 95dc 243e aff0 ee3d
00000050: 2816 ae3d c180 a3bd 5a3b afbd a547 0ebe
00000060: 4048 1dbf cab4 02bf 5437 0dbd 148b 70bd
00000070: 1a43 47be 106c fabe 358d d23d a429 943e
00000080: 7074 86bc c794 bb3d c42b afbe 2c3f 7a3d
00000090: 4606 253d a522 66bf 17ad 383e be68 563e
000000a0: 1d52 73be c870 233f 2170 38be 1b9a 553e
000000b0: 6006 adbf ba72 06be 2e76 11bf 8688 203e
000000c0: d16b 9f3d 0910 47be 4ced 183e 3de6 30bf
000000d0: c3de e93e ef7e d63e d9c1 903f fe28 0abe
000000e0: ef18 2dbf 65c1 86bd 06d1 023e 5539 19bf
000000f0: 6b00 f8bd 5435 ac3e 9812 e03e 1473 7bbd
00000100: 2627 833e c29e 2e3d f819 1e3f 0f45 2dbe
00000110: 682d 843f de25 2c3e 7af9 d83e b55e 843f
00000120: ea60 aebd af96 8bbf bcf2 803e 6b1e 5f3e
00000130: 64c7 e83c 188c f6bd 05e3 8b3e 4c3a ae3e
00000140: dcbb 313f 73fb 9e3f da9f b93e bae5 1a3d
00000150: 4429 72bf 5561 673e 6d9d d2be 0bbc 4abf
00000160: 8ce0 383d 65a9 6abe 5f91 4dbf f9c7 333f
00000170: dab0 b8bf cf27 423f 257f 273f efda 7b3e
00000180: e17a c93d 5808 fdbe e509 563e 9357 fd3e
00000190: 2518 503f 76df 9fbe b7c2 83be 8668 19be
000001a0: 89a5 a5be 6780 383f b4b5 b13f b8c2 5bbd
000001b0: f831 b93d 2bab ff3c ea49 6cbe 05bf 5bbf
000001c0: f8e8 1b3e 1f71 51bf 6d0e 0bbf f590 cebe
000001d0: 4e50 ee3e eb50 ea3c 27c5 5c3e 66c6 473f
000001e0: 6af9 263f 34de f1bd c2f9 1fbf 9691 32be
000001f0: 5825 7a3e 73da b1be ee69 e73e 2557 983e
00000200: 5b7a 28bf 40a8 6d3f 4e29 07bb 5ffe b63d
00000210: 0505 88be 08c0 963f 315b c5be cfbc 943d
00000220: cfb1 63be 004a e4bd 7f41 75bf 0f25 b53e
00000230: 3488 003f d9fa bd3f e8f8 fdbd b0d3 dc3e
00000240: ddf1 b33f 96a4 69bf 5a90 55bc 1c2a 5d3f
00000250: 3ef6 bd3e e106 a4bf 44f7 cd3d 4df1 5d3d
00000260: e6ef 053e 0bbd d9be ed8e 53bf 1260 68be
00000270: d64f 9f3d dcfc fe3e 6803 56be f5df 2ebe
00000280: c229 353e 4658 223e 7731 07bd b01f 783e
00000290: 7284 f13f da5c 183f 5428 dc3e a177 8cbe
000002a0: e588 343e a246 39be 7731 fb3e f77f 5c3e
000002b0: 2434 cfbe d26a 94bd e53a c53d b6ab ec3e
000002c0: ca63 433e b14c 023d 73f9 e93e a8f3 8e3e
000002d0: 373b b4bd 5b55 15bc 2928 543e 5129 10bf
000002e0: 051d 0a3e d801 35be a96f ed3d cda3 9bbd
000002f0: f5c8 dbbe c893 ed3e e929 223d c50b 5bbd
00000300: e5b2 67bd c47d b23e fb14 14be 6020 a03e
00000310: 1ac8 923d 93c4 8ebe 7a31 5a3e d11c ddbd
00000320: 592b fe3e aa8d 3dbd f5b0 73bf 36ad 53bc
00000330: 7500 643f 511f 3f3e 794b 88bd 3c0a f43d
00000340: e3b4 8e3e 35ce 48bf 6d75 80be 0ded 37bf
00000350: 20f4 d23e 2d31 6c3d ca8b 14bd 2e4f bdbe
00000360: 3379 0e3f 8fe6 debe 02f9 633f c246 363e
00000370: 807f 843e ee2d c0be 8007 28be fca6 93bf
00000380: 5265 88be 8cfa 453f 5287 bb3e a18e 093e
00000390: e4d7 67bf c9ed 88be 86d1 1a3f 4532 aa3e
000003a0: 5110 f8bc e583 e5bd 573f a3bf 1d01 8b3f
000003b0: d399 80bf 0593 8ebf 7585 463e e271 083f
000003c0: d492 a23e 7e3f 9a3f 9434 70bf dd30 2b3f
000003d0: 2a60 b43e 4c67 303e ebae 1bbf a390 3a3e
000003e0: 9f97 44be 4d94 acbe 2017 41be 99f1 2a3d
000003f0: 94af 09bf 69ff 83bf b924 09bf cb01 68bf
0.14183523 0.0698544 0.48425767 -0.21204695 -0.6039196 -0.013292491 0.38512608 0.18869443
-0.03894832 0.10036498 -0.05194079 -0.14807901 0.17958783 0.8671498 -0.51246375 0.010394617
0.44652486 -0.124282956 0.1609977 0.116670005 0.0850032 -0.07983542 -0.08556242 -0.13894518
-0.6143837 -0.5105711 -0.034476593 -0.058726385 -0.19459191 -0.4891057 0.10280839 0.2893802
-0.016412944 0.091592364 -0.34213078 0.0610954 0.040289186 -0.89896613 0.18034779 0.20938393
-0.23761792 0.63843966 -0.18011524 0.20859568 -1.351757 -0.13129702 -0.5682095 0.1567708
0.07784236 -0.1943971 0.14934272 -0.69101316 0.45677766 0.41893718 1.1309158 -0.134922
-0.6761617 -0.06579856 0.12775049 -0.59853107 -0.12109455 0.33634436 0.43764186 -0.061389044
0.25615805 0.042631872 0.61758375 -0.16920875 1.0326357 0.1681132 0.42377836 1.0341402
-0.08514579 -1.090536 0.25185192 0.21788947 0.02841539 -0.120384395 0.2732164 0.34028852
0.69427276 1.2420486 0.3625477 0.03781674 -0.94594216 0.22595723 -0.4113573 -0.7919318
0.04513602 -0.22916181 -0.80299944 0.7022701 -1.4428971 0.75841993 0.6542838 0.24595235
0.098378904 -0.49420428 0.20902212 0.49480876 0.8128684 -0.31225175 -0.25734493 -0.14981279
-0.32352856 0.72070926 1.3883576 -0.053652495 0.09042734 0.031209549 -0.23075071 -0.8583835
0.1522559 -0.81813234 -0.54318887 -0.40344968 0.46545643 0.028603038 0.21559583 0.78037107
0.65224326 -0.1180996 -0.62490475 -0.17438349 0.24428308 -0.34736976 0.45198005 0.29753986
-0.658117 0.92834854 -0.0020623985 0.08935236 -0.2656633 1.1777353 -0.38546136 0.07262575
-0.22235797 -0.11146927 -0.95803064 0.35379836 0.5020783 1.4842178 -0.12400991 0.43130255
1.4058186 -0.91266763 -0.013034904 0.8639238 0.3710193 -1.2814599 0.10056928 0.0541852
0.13079795 -0.4252704 -0.8263996 -0.22692898 0.07778899 0.4980229 -0.20899737 -0.1707762
0.1769171 0.15853986 -0.033006158 0.24230838 1.8868544 0.5951668 0.42999518 -0.2743502
0.17630346 -0.1809335 0.49061176 0.2153319 -0.40469468 -0.07246937 0.09630374 0.46224755
0.19081035 0.03181142 0.45698127 0.2792027 -0.08800357 -0.009114589 0.20718445 -0.56313044
0.13487633 -0.17676485 0.11593563 -0.07599602 -0.42926756 0.4640181 0.03959075 -0.05347802
-0.05656709 0.34861577 -0.14461128 0.312747 0.071670726 -0.2788435 0.21307936 -0.10796512
0.49642447 -0.04627768 -0.9519189 -0.012919715 0.890632 0.1866429 -0.0665502 0.119160146
0.2787238 -0.78439647 -0.2508959 -0.71846086 0.41201878 0.057664085 -0.036266126 -0.36974472
0.55653685 -0.43535277 0.8905183 0.1780043 0.25878525 -0.37535042 -0.16409111 -1.1535335
-0.266398 0.7733543 0.3662668 0.13433315 -0.905638 -0.26743916 0.6047596 0.33241478
-0.030281218 -0.112067975 -1.2753705 1.0859715 -1.0046943 -1.1138617 0.19386847 0.5329877
0.31752646 1.2050626 -0.9383023 0.66871434 0.35229617 0.17226905 -0.6081378 0.18219237
-0.19198464 -0.33706895 -0.18856478 0.04173431 -0.53783536 -1.031232 -0.5357166 -0.90627736

bias_ih_l1 f4 [200]
00000000: b766 24bf 7858 52bf 9267 81bf b333 05bf
00000010: cc80 6dbe 2b3d 383c 2791 543c 08bb 04bd
00000020: d167 8bbd ecc5 fbbe c66f 22bf 4db4 9dbc
00000030: 1190 01bf 7fc9 2abf c6b1 06bf 88b2 63be
00000040: 95b5 b1be c8c8 f23e 8db6 f5be 764e e4be
00000050: fc0e 14bf d6b5 32bf c29c 25bf 4d03 30bf
00000060: 55fd 3abf 5364 b33c 7b54 5fbe 4884 c6bd
00000070: a3b9 34be 8386 14bf 4866 ffbe edf3 62bf
00000080: 9a7e afbe f212 b3be 02d4 0abf a748 d7be
00000090: 43f1 56bf f3d9 83be ab37 edbe 4a7d 09be
000000a0: d00b 2fbf 9e45 c2bd 1aa8 90be 8a34 2abf
000000b0: b7f8 d4bd fd54 2bbc 9768 34bf ac61 8dbe
000000c0: 0f76 96be 2b9c a3bd 23e1 fcbe af4b 95bf
000000d0: 9a70 22bf 73e1 17bf d423 32be 0fdd 9fbf
000000e0: 45e8 8cbf 1d3c 5cbf 2769 fdbe ce64 8dbe
000000f0: 6f4b 49be 83e6 f93d 631e 71bf c1b7 82bf
00000100: e07f 77bf 7cf7 1dbf 8e3c 20bf 7e9b 17bd
00000110: 80e2 fdbe 893a e7be 52f8 23bf a692 7fbf
00000120: b2ed 04bf 71cc cbbe 0219 8dbf 4a90 e93e
00000130: 7359 28bf c358 13bf 4965 a1be cec2 90bf
00000140: e7b2 3dbf d1f3 e0be e8a6 b0bf b953 103f
00000150: 277f cebe 3b22 0dbf 9afb f5be d2de 98bf
00000160: db6a 91bf 4f57 53bf aad5 07bf dfc9 023e
00000170: e187 46bf c6ad 58bf 803a 14bf f718 92bf
00000180: 04f6 4cbf 69d1 92bf 5878 ebbe 6eec 43bf
00000190: 5fe3 de3b 0af9 90be cb22 f4bd 18d8 063e
000001a0: 4cab 4bbe 8424 263d 8346 cbbd 5b47 99be
000001b0: ee0c ac3d 123b 383d 9b8f 7abd d848 dcbd
000001c0: 2186 82bd 53ee 1dbe be0d 05be f2b8 173d
000001d0: c3d1 8b3d 969d dbbc 2580 efbc b890 fb3d
000001e0: 15bc 013d 0da1 cd3d 4095 3e3b 2f00 183d
000001f0: c1cf 873e 3163 6dbe a7b8 ca3d 96af 71bc
00000200: 7add f4bd 974b 783e aa2e ddbd a263 e1bd
00000210: 373a 54be 914e 733d f764 6c3d 8aaf 77be
00000220: f849 c73d 3d99 5e3b 3f7a 193e 297e 503d
00000230: a896 c8bd 61d2 c13d 094c 703d 55d4 05be
00000240: e3d8 3c3e 12c3 3bbe 32fd 023f 4549 873d
00000250: 1fde 9dbd 554a 5abe 31d4 4bbf b37b 3abf
00000260: 0376 4dbf 97e6 79be 62f4 7ebd 1fe9 b63d
00000270: 70b9 b63d f45a 513d 8b32 8fbe faa5 6abe
00000280: cc2d 12bf f6bd 8cbe 8252 09bf e27c 24bf
00000290: 5151 dcbe 8a86 a7be f601 87be 106b 153e
000002a0: b053 06bf a5ce fcbe 3726 04bf ef94 b1be
000002b0: 1305 47bf 067f 23bf 6bb3 ffbe 75ea 25be
000002c0: 2260 dfbe ba96 af3d ca61 45be 45f9 ffbe
000002d0: 50a5 28bf 0381 3cbf cc86 c7be bfa2 dc3c
000002e0: fd79 c8be af2c f5be f3d9 38bf 8a15 91bd
000002f0: 7de7 5dbe 8fbc 9dbc 3790 11bf 531c d3bd
00000300: b9dd 9cbe 1259 23bf 911a 09be b451 453d
00000310: ab6e 25bf 220e f4be ae18 3bbd f665 45be
-0.6421923 -0.8216624 -1.0109732 -0.5203201 -0.23193663 0.011245052 0.01297406 -0.03240493
-0.06806911 -0.4917444 -0.634518 -0.019251013 -0.5061045 -0.6671371 -0.5261501 -0.22236073
-0.3470885 0.4741881 -0.47990838 -0.4459111 -0.57835364 -0.6980871 -0.6469232 -0.68755037
-0.73042804 0.021898424 -0.2180957 -0.096931994 -0.1764894 -0.5801775 -0.49882722 -0.8865345
-0.34276277 -0.34975392 -0.5422975 -0.42047617 -0.83961886 -0.2575222 -0.46331534 -0.134267
-0.683774 -0.09485935 -0.2825325 -0.6648642 -0.10399001 -0.0104572745 -0.7047209 -0.2761358
-0.29386947 -0.07988771 -0.49390516 -1.1663722 -0.63453066 -0.59328383 -0.1739648 -1.2489337
-1.1008383 -0.86029226 -0.49494287 -0.2761597 -0.19657682 0.1220217 -0.9418699 -1.0212327
-0.96679497 -0.61705756 -0.625924 -0.037013523 -0.49586868 -0.45161846 -0.6405078 -0.9983314
-0.51925194 -0.39804414 -1.1023257 0.45617896 -0.6576149 -0.57557315 -0.31522587 -1.130945
-0.7410111 -0.43936017 -1.3800936 0.5637775 -0.40331385 -0.55130357 -0.4804352 -1.1942999
-1.1360735 -0.825551 -0.530604 0.1277232 -0.77551085 -0.8464016 -0.57901764 -1.1413869
-0.8006289 -1.1470157 -0.45990252 -0.7653264 0.006802007 -0.28315002 -0.11920699 0.1316837
-0.19889563 0.040562168 -0.099255584 -0.29937252 0.08400904 0.04497821 -0.06117211 -0.10756081
-0.06373239 -0.15422945 -0.12993523 0.037041612 0.06827118 -0.026808541 -0.029235909 0.12283462
0.03167351 0.100404836 0.002908066 0.03710955 0.2652569 -0.2318237 0.09898501 -0.014751336
-0.11956306 0.24247585 -0.10799916 -0.110053316 -0.20725332 0.0594011 0.057713475 -0.24188057
0.09730905 0.003396585 0.1498804 0.050901566 -0.097943604 0.09463955 0.058666263 -0.1306928
0.1844211 -0.18336132 0.51167595 0.06605772 -0.07708382 -0.21317418 -0.79620653 -0.72845
-0.80258197 -0.2440437 -0.06224478 0.08931183 0.08922088 0.05111213 -0.2796825 -0.22914878
-0.5710113 -0.2748868 -0.5364152 -0.64253056 -0.4303079 -0.32719833 -0.26368684 0.14591622
-0.52471447 -0.49376407 -0.5162081 -0.3468394 -0.7774212 -0.638657 -0.49941573 -0.1620272
-0.4362803 0.08573671 -0.19275585 -0.49994865 -0.65877247 -0.73634356 -0.3897003 0.026933072
-0.3915557 -0.47885653 -0.72207564 -0.070841864 -0.21670337 -0.01925495 -0.5686068 -0.10308137
-0.3063791 -0.63807786 -0.1338904 0.04817362 -0.6462199 -0.47667032 -0.045677833 -0.19277176

bias_hh_l1 f4 [200]
00000000: b4e0 48bf 94be 34bf b0b0 80bf 818a 05bf
00000010: cb95 8cbd 5281 743c bbf4 82bd d687 b03d
00000020: fdae 9bbe f6ed c0be bdca f4be 376b e43c
00000030: 077b 20bf 7b13 48bf 1888 25bf de51 a8be
00000040: c141 ebbe 0b27 fa3e f81f bfbe 7fee 1cbf
00000050: 9348 28bf da13 2ebf 1d95 29bf 8650 1fbf
00000060: 8db2 35bf da7b 6e3e 8425 34be c021 e93d
00000070: b73a 45be 9436 06bf b44a c9be 6d52 54bf
00000080: 7d6c a9be d097 d8be c2e1 f2be 7d7d 27bf
00000090: 0fbb 23bf fe2c 7ebe 3dc4 eabe b6e5 8bbe
000000a0: 59b5 67bf f319 a1bd 302f bfbe 332e 29bf
000000b0: bc55 b5bd 879d cd3d 2eb0 18bf 2a7b f7be
000000c0: e94a 7cbe 0c28 5ebd 2b39 b6be 95f0 b0bf
000000d0: c20a 2bbf 4bca 28bf 3baa 29be 081f a1bf
000000e0: f3c8 9bbf da06 82bf f17e 0ebf 9b53 ccbe
000000f0: 6f44 2cbe ac64 af3d 0a93 35bf 144d 82bf
00000100: c091 3fbf 0ac9 3bbf 911c 4ebf a098 16be
00000110: 0043 0fbf 8332 abbe 1c1d 22bf 6a37 81bf
00000120: 5e62 41bf a7af 0cbf b5f5 7ebf ea6b f23e
00000130: 29b3 0dbf fbc4 05bf 1597 2cbe da2d 8dbf
00000140: b78f 4abf 8336 bdbe 2435 a8bf d473 4b3f
00000150: d6ac 05bf 283c bfbe 4a6f 24bf 70f8 91bf
00000160: 3bd1 5ebf ada4 43bf 7137 fcbe c980 9c3e
00000170: 446a 44bf cdff 49bf 3637 2ebf acc5 74bf
00000180: be12 70bf 7589 a0bf d789 89be d34a 17bf
00000190: cf2b 07be d90a c0be 4ef8 37be 8764 36bd
000001a0: a132 7bbd 1145 953d 838f 7fbc 461e b5be
000001b0: dbd1 2f3e e5f0 12be 3b96 193e 4d66 69be
000001c0: da90 2abe 340d a7be 397e 8bbd 4683 ac3a
000001d0: 5d14 893d 48cb 633d 70b7 36be 0b37 db3b
000001e0: 5db4 31be 9e0a 573e 0d90 11bd 11a9 063e
000001f0: bbef f63c c0e4 48be bb12 4f3c f321 36be
00000200: de6f ed3c 2b5a 7a3e a3c1 dfbd 2eba 3abe
00000210: b2bf 47bd cc34 473c fc3f cd3d 97d4 6abd
00000220: 544f 043e 3bba 01bd c2ae 0e3e e935 623e
00000230: 4144 1ebe 8f1a 853d e11b 1f3d f52f 05bd
00000240: af67 3b3e 7763 7ebe 5dfb 003f aa59 7c3d
00000250: 695d 073e 5b06 5bbe a54a 32bf 7791 5dbf
00000260: 21d6 75bf c3b2 96be ae63 e8bd ba56 053e
00000270: 6499 933d d8b1 283e 455f 7dbe 97c2 8cbe
00000280: ac56 b6be b23e a8be 3c65 11bf ac30 31bf
00000290: 8382 e0be 9334 49be 5545 a4be 58b3 2dbc
000002a0: cd77 8bbe e8a7 d5be 9d02 22bf 9929 2ebe
000002b0: 18f2 0abf 7dec 12bf 159e 8ebe 7eff 1cbe
000002c0: cb2f afbe 996a 893d 05c6 aabe 36e3 a4be
000002d0: 990f fdbe 2d3a 17bf eaae 8fbe 8a06 f43d
000002e0: 2b35 02bf 9034 d1be 232f 1fbf bb47 9dbd
000002f0: 6aff 8cbe a7df 2e3e 28d6 30bf a4f5 49be
00000300: 8560 55be 2898 2cbf b4d6 d6bd d9c2 973d
00000310: 5287 2ebf 280f 95be 50cf 22be 15ab a8be
-0.7846787 -0.706033 -1.0053921 -0.52164465 -0.06864508 0.0149234105 -0.06394335 0.08619659
-0.30406943 -0.3768155 -0.47810927 0.027883155 -0.62687725 -0.78154725 -0.6466079 -0.3287496
-0.45948604 0.48857912 -0.37329078 -0.61301416 -0.6573574 -0.6799904 -0.66243154 -0.62232244
-0.7097557 0.23289433 -0.17592436 0.113833904 -0.19260679 -0.5242703 -0.39314806 -0.8293827
-0.33090582 -0.42303324 -0.47437865 -0.65425855 -0.63957304 -0.2482185 -0.45852843 -0.27323693
-0.9051109 -0.078662775 -0.3734069 -0.6608612 -0.08854243 0.100398116 -0.5964383 -0.48336154
-0.24637951 -0.05423741 -0.3559049 -1.382342 -0.6681329 -0.65933675 -0.16568844 -1.2587595
-1.21707 -1.0158341 -0.5566245 -0.39907536 -0.1682298 0.085641235 -0.7092749 -1.0179772
-0.7483177 -0.73353636 -0.8051234 -0.1470666 -0.5596161 -0.33436975 -0.6332567 -1.0095036
-0.7554072 -0.54955524 -0.9959367 0.47347957 -0.553515 -0.52253693 -0.16854508 -1.1029618
-0.7912554 -0.36955652 -1.3141217 0.79473615 -0.5221685 -0.37350583 -0.64232314 -1.1403942
-0.8703801 -0.7642315 -0.49261048 0.30567005 -0.7672465 -0.78905946 -0.68052995 -0.95614123
-0.937786 -1.2541949 -0.26862976 -0.5909855 -0.13200305 -0.37508276 -0.17965814 -0.044529464
-0.06132758 0.07288564 -0.015598181 -0.3537466 0.17169897 -0.14349706 0.14998715 -0.22792931
-0.16656819 -0.3262726 -0.068111844 0.0013161681 0.06693337 0.055613786 -0.17843413 0.0066899112
-0.1735396 0.21000144 -0.03553777 0.13150431 0.03014361 -0.19618511 0.012638743 -0.17786388
0.028984006 0.24448459 -0.10925605 -0.18235084 -0.0487668 0.012158584 0.1002197 -0.057331648
0.12920886 -0.031671744 0.13933852 0.22090878 -0.15455724 0.06499206 0.038844947 -0.03251644
0.18301271 -0.2484263 0.5038355 0.061608948 0.13219227 -0.21389143 -0.6964515 -0.86550087
-0.9602986 -0.2943326 -0.113471374 0.13021365 0.07206991 0.16474092 -0.24743374 -0.2749221
-0.35613 -0.32860333 -0.56795096 -0.6921489 -0.43849573 -0.19648962 -0.32084146 -0.010601841
-0.27239838 -0.41729665 -0.6328524 -0.17008056 -0.54275656 -0.573921 -0.27854982 -0.15331838
-0.3421615 0.06709785 -0.33354202 -0.32204598 -0.49425963 -0.59073144 -0.28063136 0.1191531
-0.5086238 -0.40860415 -0.621813 -0.07679697 -0.27538615 0.17077504 -0.69076777 -0.1972261
-0.208376 -0.6741967 -0.1049017 0.07410211 -0.6817523 -0.29113126 -0.15899396 -0.32943025

weight_ih_l2 f4 [200, 50]
00000000: 1636 4d3f 6eb0 4abf a1dc 26bf 2d93 aa3e
00000010: 17b1 b23e 51b6 513e ce5d 703e 5b26 37bf
00000020: 21d3 013f 0352 023f 31ea a53f 7d47 563e
00000030: 27ec a9be d469 6bbf 7d41 e4be 51a2 f43e
00000040: f85a 113f f108 3ebe af55 86be 068d a73d
00000050: 9d84 0abf e974 393e 6143 083f 5e44 b03e
00000060: f678 0a3f ce4b 183f 0af8 113d 61dc 3d3e
00000070: d2e7 9fbd 9244 283e 874f 9dbe 2a6f 1abf
00000080: 71d7 033f 2e5c 15be 79ef cabe 6ceb c6be
00000090: 70a5 703f 3c75 5c3b 5352 db3d 025c 67bd
000000a0: 0e93 0a3f 5fcd ddbd 1c65 07be 4e3c 21be
000000b0: d9b7 623f fc11 f43d fb8c c63e 4f64 1fbf
000000c0: 177f 2c3e 658c 93be af94 433f aacd f5be
000000d0: 9dcd f53d 329a aa3e d2b1 203f abc1 f1be
000000e0: dca7 0dbf f6e1 1d3f 5c43 c83e 3fe4 19be
000000f0: e19d ac3e eec3 f23e cc99 10be 09ae 1b3e
00000100: dbd6 74be 17db 183f 5495 b6be 950c 95be
00000110: 848e 6d3e 290a fdbe 70e4 c4be 0185 ee3e
00000120: 3627 dd3e 1186 81be 813d a9be 98a2 593f
00000130: dc52 2e3f 2796 d8be 8f70 453e 658f 0bbe
00000140: 8467 ca3e d35d 633e 36ed 543f 8a08 3ebe
00000150: 1ddd 023f 4bd1 ed3e 79ef b5be 8f89 30bf
00000160: f4c3 693f b67b 5fbe 463d 8ebd d310 f43e
00000170: 5bf8 3fbf 2c25 613c 3776 f2bd 5ecb 583f
00000180: 6871 dd3e 71f1 253d eef8 c43e c2df 9f3e
00000190: e5f3 8e3e d5cc 2f3f 02b8 903f 8cdc 3d3e
000001a0: 4320 a13e 211c 333d 5b17 523f 80dc d83f
000001b0: 1e99 1fbe 3b3d 9fbe 5e85 d0be 2415 733f
000001c0: 5e30 fb3c 7d33 893f ff33 9dbf da59 1d3f
000001d0: 57a7 fcbe 48db cebd ab9e 853c c5a5 15bf
000001e0: b10d 5abe ba4d 9cbf 4e36 863e 2bec 813e
000001f0: 9efc 90bf 60a5 c43c 2a65 0fbe e27c c9be
00000200: dc50 443f 95aa 36bf 4b72 643e fc43 8abe
00000210: d239 4b3f 5d3a e83d c8fe 0f3f d200 09bf
00000220: 4fbf bd3d 3d7f 68bf 38f9 513f 43f3 1e3e
00000230: 7750 3dbe 4072 69be 1c0d 9fbe e465 96be
00000240: 4251 18bf 826b 863f d078 11bf 87c4 8b3f
00000250: aa63 b2be c3fd 973f e384 8bbe 0b46 9bbf
00000260: a503 bbbe d2c7 673f 1a2c 473f 0163 8ebf
00000270: de80 a6bf 6b4b 06bd 74a0 5fbe 3fa6 603e
00000280: bf08 393e 7109 f43d 46f5 ac3e 8ab2 3e3f
00000290: 94cf 38bf 0ed3 4cbe 953a 8dbd d231 203e
000002a0: 03fd a73d 8d42 febe 389f d33e dd5f 66be
000002b0: e2c2 7b3e e66e cdbe 45cf 08bf fdf1 60be
000002c0: 5d73 2dbf 84aa 1f3e 812f 73be ab63 d3be
000002d0: 8cbe e03c 87fd fabd 21b3 1f3d 8d16 103e
000002e0: 0449 9bbe 7600 7f3f 921a 4dbf f1fb 853e
000002f0: eae8 b43e daaf 06bf 92a6 c9be 1b39 2ebe
00000300: 3921 47be 60c0 57be cc6e 01be 49a2 36bf
00000310: eaaf d1be 2e8a 77be 4065 ea3d 2522 023b
00000320: e68d 1a3f b3c0 bc3e 8790 1abe 135d cc3e
00000330: 83ad ac3e 24d4 8ebf e5ed 91bf af22 d3bd
00000340: 0eb6 03bf 6308 dbbe c255 3dbf a2c0 60bf
00000350: 0f4c 6c3f b9d3 013e 1856 34bf e4e4 44bf
00000360: 1962 6f3f dfc0 203f 2eaf 153f 8b84 be3e
00000370: f7da 473e 6bef 6fbe feff 75be 8dac 4abf
00000380: 5b04 7bbf 1d09 10be b0c7 933d 1a76 823d
00000390: bac3 a0bf 255b d7be f14a 693f 447e 213f
000003a0: 4d14 c13e d52f 3fbd 431c 34bf 982e ba3f
000003b0: 6a15 79bf 911a 85bf 85ae 32be 979c 2d3e
000003c0: f623 c5be d27b a53f ecbe 44bf 0fb7 8c3f
000003d0: 196f ba3e c0b1 1f3f 587a 39bf 8173 73be
000003e0: 6a90 dd3d 4471 9bbe 2f12 31bf 3636 5a3e
000003f0: b031 7f3f e50f 5fbf 40d5 5e3e 807c c93f
0.80160654 -0.7917546 -0.65180403 0.3331541 0.34900734 0.20479704 0.23473284 -0.715429
0.5071278 0.5090639 1.2962095 0.20925708 -0.33187982 -0.91958356 -0.44581214 0.47780088
0.5677943 -0.18558098 -0.26237246 0.08181195 -0.541086 0.18111004 0.5322781 0.3442716
0.5409082 0.5949067 0.03563694 0.18541099 -0.07807888 0.16432407 -0.30724737 -0.6032587
0.5150061 -0.14585945 -0.39635828 -0.38851488 0.9400244 0.0033639213 0.107090615 -0.05648423
0.5413064 -0.10830187 -0.13222164 -0.1574566 0.8856178 0.11917493 0.38779435 -0.62262434
0.16845356 -0.2881805 0.7639875 -0.48008472 0.12002108 0.33320767 0.6277133 -0.4721807
-0.5533426 0.61672914 0.3911389 -0.15028475 0.33714202 0.47415107 -0.14121169 0.15203108
-0.23910086 0.59709305 -0.35660803 -0.29111162 0.23198897 -0.49421814 -0.38455534 0.4658585
0.43193978 -0.25297597 -0.33054736 0.85013723 0.68095183 -0.42302057 0.19281219 -0.1362892
0.395321 0.2220376 0.83174455 -0.18557945 0.5111864 0.4644874 -0.35534266 -0.689599
0.91314626 -0.21824536 -0.06945281 0.47669086 -0.74988335 0.013741773 -0.11838954 0.84685314
0.43250585 0.04051346 0.38471168 0.312254 0.27920452 0.68671924 1.1306155 0.18541163
0.31469926 0.043727998 0.8206689 1.6942291 -0.15585753 -0.31101403 -0.4072675 0.94954133
0.030662712 1.0718838 -1.2281493 0.6146523 -0.4934642 -0.10100418 0.01631101 -0.5845607
-0.21294285 -1.221122 0.26213306 0.25375494 -1.1327093 0.024004638 -0.14003435 -0.3935309
0.7668588 -0.7135404 0.22309224 -0.27004993 0.793851 0.11339257 0.5624814 -0.53516877
0.09265005 -0.9081915 0.820209 0.15522484 -0.18487726 -0.22797489 -0.3106469 -0.2937461
-0.5949899 1.0501559 -0.5682497 1.091935 -0.34841663 1.1874317 -0.27249822 -1.213075
-0.36526218 0.90539277 0.7780167 -1.1123964 -1.3008077 -0.032786768 -0.21838552 0.21938418
0.18069743 0.11915863 0.3378088 0.7449118 -0.7219174 -0.20002386 -0.06895939 0.15644005
0.08202555 -0.4966015 0.41332412 -0.22497506 0.2458606 -0.4012367 -0.5344127 -0.21967311
-0.67754155 0.1559239 -0.2374859 -0.41286978 0.02743461 -0.12255388 0.03898919 0.14071102
-0.30329144 0.9961008 -0.8011867 0.2616878 0.3533395 -0.5261208 -0.39384896 -0.17013972
-0.19446267 -0.21069479 -0.12639922 -0.7134138 -0.40954524 -0.24173805 0.11445093 0.0019856778
0.6037277 0.36865768 -0.15094195 0.3991476 0.3372613 -1.115849 -1.1400725 -0.1030935
-0.5144967 -0.42779836 -0.7395898 -0.87793934 0.92303556 0.12678422 -0.7044387 -0.7691176
0.9350906 0.627943 0.5847043 0.37210497 0.19517122 -0.23431174 -0.24023435 -0.7916954
-0.9805352 -0.14065976 0.07215822 0.06370182 -1.2559731 -0.42061725 0.91129977 0.6308329
0.377108 -0.046676476 -0.70355624 1.4545469 -0.972983 -1.0398732 -0.17449386 0.16954266
-0.38504 1.2928412 -0.76853824 1.0993365 0.36412886 0.623806 -0.72452307 -0.2377453
0.108185604 -0.30359852 -0.6916837 0.21309742 0.9968519 -0.8713363 0.21761036 1.5741119
