models/lstm_petra.pth (torch, 372796 bytes, 21 tensors)

lstm.weight_ih_l0 f4 [200, 1]
000000 9f e1 8d 3e 7d f6 7a 3f 4c 48 1b bf db a6 39 3f
       0.27711198 0.9803236 -0.6065719 0.72520226
000010 f5 c8 23 bf e2 ef 42 bf ba 2b 91 be 5d 14 d2 be
       -0.6397851 -0.7614728 -0.28353673 -0.4103116
000020 4b 35 ae bd 56 fa 9e be 4f 5b 16 be db dc 84 3f
       -0.085062586 -0.31050366 -0.14683269 1.03799
000030 74 09 37 3f 4c 65 70 3f c5 16 8f 3f 70 c8 4f bf
       0.714988 0.93904567 1.1178824 -0.8116522
000040 6f 0f 28 3f a9 bc 7e 3d 66 f1 36 3e 4c f9 06 bf
       0.6564855 0.06219164 0.17865524 -0.52724147
000050 a1 d2 17 3f 16 dd 0b 3f 43 64 b4 3f a2 74 37 bf
       0.5930577 0.54634225 1.4093097 -0.7166234
000060 06 12 75 3e a2 0b a7 3f 8f 9a 6a bf 8a 40 da be
       0.23932657 1.3050425 -0.9164209 -0.42627364
000070 75 74 0d bf f5 c5 96 3e d8 40 09 3f d3 6b 9d be
       -0.55255824 0.29447904 0.5361457 -0.30746326
000080 1c 7f 8a be dd 94 0a bf c5 cc 0c bf 3a 61 88 3f
       -0.27050102 -0.541334 -0.54999954 1.0654671
000090 88 89 d1 be ed 92 87 bd 89 7c 30 bf da ed d0 3d
       -0.4092524 -0.06619821 -0.68940026 0.102016166
0000a0 ee 13 36 bf e2 d7 f9 bd f3 42 4b 3e 6c 36 ca 3f
       -0.7112416 -0.121993795 0.19849758 1.5797858
0000b0 1a a2 43 bf 2a 4e 97 bf fe 5e 88 be b8 b3 0d bf
       -0.7641922 -1.1820729 -0.26634973 -0.55352354
0000c0 df fb 8f be 0e dd 90 3d a1 bd 09 ba 5c 08 43 3f
       -0.2812185 0.07073413 -0.0005254392 0.7618463
0000d0 f9 76 8a be 85 17 85 3f 56 db a1 be 02 27 90 be
       -0.27043894 1.0397803 -0.31612653 -0.2815476
0000e0 43 1f 85 bc 61 62 8b bd 2e 10 39 be 9c 50 4f be
       -0.016250258 -0.06805874 -0.18072578 -0.20245594
0000f0 1f 0f e2 be 09 11 8d 3f f0 4b 7e 3f 3d 95 92 3f
       -0.4415216 1.1020824 0.9933462 1.1451794
000100 f7 1d 5e 3f 60 a1 d8 be 22 71 1f 3f 68 53 5d 3e
       0.8676447 -0.4231062 0.62282 0.21613848
000110 94 7a b7 3d 38 d1 ee be c3 81 89 3e 17 25 2a 3d
       0.08958927 -0.46643996 0.26856813 0.041539278
000120 e3 bd a0 3f 28 0e 8b bd 6e db 9d bd bf 68 71 3f
       1.2557949 -0.067898095 -0.077078685 0.94300455
000130 c0 4a 8f 3e f1 fb 81 3f 7b ae 85 be 39 c4 f8 3e
       0.27986717 1.0155011 -0.2610968 0.48587206
000140 81 68 e1 3e 09 ca ad bd 24 bd 8b be 8d 1c c3 be
       0.44025043 -0.08485801 -0.2729274 -0.3810772
000150 ef 6c 3b bf 54 94 7d 3f 11 f0 6f 3e 58 bf 81 bd
       -0.73213094 0.99054456 0.23431422 -0.06335324
000160 09 06 0a bf 70 a2 01 bc b2 ec 01 bf 45 ab 1d 3f
       -0.5391546 -0.007912263 -0.50751793 0.6158946
000170 fc 67 5f 3e 26 2e ac 3f fb 09 80 bd 54 50 03 bf
       0.2181701 1.3451583 -0.062519036 -0.51294446
000180 5b ac 13 be e9 d7 00 bf 56 58 83 be 99 dd 18 be
       -0.14421217 -0.5032945 -0.25653332 -0.14928283
000190 75 c0 77 bf b4 e7 f1 3f fb 18 50 3f 70 32 c8 3f
       -0.9677804 1.8898835 0.8128812 1.5640392
0001a0 8e 5b 6c 3f 8d 8b 11 bf d4 a2 36 3f c9 94 69 3f
       0.923272 -0.5685356 0.71342206 0.91242653
0001b0 81 7d 69 bf 9f b6 80 3f 19 0d 7d 3f c4 24 97 3f
       -0.9120713 1.0055732 0.9884811 1.1808095
0001c0 c5 1d 16 c0 f1 21 b1 3f aa 55 b5 3f e3 ba 76 3f
       -2.345567 1.3838483 1.4166768 0.96378917
0001d0 e5 73 4d bf b2 ea 7a bf d6 6b 8f 3f 60 6b 6e 3f
       -0.80254966 -0.98014367 1.1204784 0.9313259
0001e0 0c e8 8c bf 2f e0 47 bf 54 ce a4 bf 5f 46 7d 3f
       -1.1008315 -0.7807645 -1.2875466 0.989355
0001f0 0c f0 8b 3f df 6b c8 bf 46 ed 80 3f be 32 74 3f
       1.0932631 -1.565792 1.007241 0.95389926
000200 68 fa 68 3f a0 85 cb 3f 98 21 8d be 2e 95 74 bf
       0.9100709 1.5900154 -0.27564692 -0.9554013
000210 87 0f 72 bf f5 f2 82 bf 79 82 2b bf 14 f8 f0 bf
       -0.9455494 -1.0230395 -0.6699596 -1.8825707
000220 a2 e5 63 bf 21 d7 67 bf e8 46 5a 3f fb 6e 9e 3f
       -0.89022267 -0.90562636 0.85264444 1.2377619
000230 0d 8c 98 3f 8b 00 73 bf 52 bb 7b 3f db 4d 9c bf
       1.191774 -0.94922704 0.98332703 -1.221126
000240 9a 05 96 3f f5 8e fe 3e bf 50 6b bf 4b 24 53 3f
       1.172046 0.49718443 -0.91920084 0.82477254
000250 27 f7 45 3f d5 58 89 3f 10 cc 94 3d bb 17 a2 3f
       0.7733025 1.0730234 0.07265484 1.2663492
000260 a4 8a 1c bf f3 5e 5b 3f 58 a2 6a bf b3 fa 14 bf
       -0.6114905 0.85691756 -0.91653967 -0.58195037
000270 89 1e a0 be 7e 42 d0 be fa b1 27 be 8b 37 c1 be
       -0.31273296 -0.4067573 -0.16376486 -0.37737688
000280 f0 0c 2f be 52 1e 86 3f 43 6e 74 3f 0a ea 94 3f
       -0.17094779 1.0478003 0.95480746 1.1633923
000290 23 9f 78 3f 73 93 71 bf 92 01 43 3f 61 94 ae 3e
       0.97117823 -0.94365615 0.7617427 0.3409758
0002a0 87 20 1e 3e 2f 7f 39 bf d4 13 d5 3e bf 9e 0f 3f
       0.15442096 -0.7245969 0.4161669 0.561016
0002b0 07 79 ac 3f b5 47 48 bf 1e d7 03 3c 74 ab ba 3f
       1.3474435 -0.78234416 0.008046893 1.4583573
0002c0 8d fc 78 bf 43 b7 b6 be e8 4c d6 be ce 13 8e 3e
       -0.9726036 -0.35686693 -0.4185555 0.27749485
0002d0 06 c8 e8 3e 77 67 e8 be de 9a 07 bf b5 ff 4a bf
       0.45465106 -0.45391437 -0.52970684 -0.7929643
0002e0 4e cf 33 bf 9e f7 a7 3f fd d9 89 be ba 15 10 be
       -0.70238197 1.3122442 -0.26924124 -0.14070788
0002f0 33 d2 61 bf 38 6a 75 3d 80 91 77 bf 4b 13 e9 bd
       -0.88211364 0.05991575 -0.9670639 -0.11380633
000300 54 61 6d 3e 24 e8 c2 3f 4d 15 77 bf fa 4d 4a bf
       0.23181659 1.5227094 -0.9651688 -0.7902523
000310 34 cb 7b be fc 26 4c bf 96 f7 b6 be 8d 25 8f 3d
       -0.24589235 -0.79746985 -0.35735768 0.06989584

lstm.weight_hh_l0 f4 [200, 50]
000000 b1 2d 21 3f dc 52 52 be 4f 2f b2 bd 0a a6 26 be
       0.62960345 -0.20539421 -0.0870043 -0.16274276
000010 f4 4b f0 bd ba 07 7d bd 17 ba 83 be 51 3a 8e be
       -0.11733237 -0.061774947 -0.25727913 -0.27778867
000020 49 8e c6 3e d9 ba 11 bf c5 36 b6 be 46 6d 58 3e
       0.3878043 -0.5692573 -0.3558866 0.21135435
000030 63 8b a4 be 00 63 8a be 08 eb 82 be 39 ec 1b be
       -0.32137594 -0.27028656 -0.2556994 -0.1522683
000040 c1 3e 50 3f b0 7d 18 3f 52 7b 2b bf 83 0e 5f bf
       0.81345755 0.59566784 -0.66985047 -0.8713152
000050 46 5c 22 3f 5e 9a 28 bd ba b7 46 be b1 ad 0f bd
       0.6342205 -0.04116284 -0.19406024 -0.035077754
000060 26 59 19 bf 83 76 54 3e 21 5e 91 be a6 72 3a bf
       -0.59901655 0.20748334 -0.28392127 -0.7283119
000070 04 d6 a9 be c7 13 fb be 6e 01 a8 bd a8 99 14 3f
       -0.33171093 -0.49038526 -0.08203398 0.5804696
000080 a9 67 6c 3e 03 71 e9 3e e9 90 5c 3e 7c f1 71 3e
       0.23086418 0.45594034 0.21539654 0.23627275
000090 65 d4 d2 3e f0 10 48 3f cc cb a6 bd bc 0d 35 bf
       0.4117767 0.78150845 -0.0814434 -0.7072408
0000a0 68 7b 3f bf 81 fa 3b 3f 07 4f 02 bf 42 bf 24 bc
       -0.7479768 0.73429114 -0.50901836 -0.010055365
0000b0 38 b5 3b bf c5 58 01 be 7d a9 a6 3e 79 2f 56 be
       -0.7332339 -0.12631519 0.32551184 -0.20916547
0000c0 05 b6 84 be 1e a4 0f bf d0 ad ab 3e c5 c4 dc be
       -0.2592012 -0.561098 0.33531046 -0.43118873
0000d0 28 ad 60 bd 62 01 31 3f 9a 02 43 3e 11 ee 44 3f
       -0.054852635 0.69142735 0.19043961 0.7692576
0000e0 bc 9b 25 bf 5d 35 26 bf 58 23 c0 bd 60 d8 82 bd
       -0.64690757 -0.64925176 -0.09381741 -0.063889265
0000f0 2f 0a 7c be 29 cb b8 3f c6 86 d1 bf 4c 6b 5e 3f
       -0.2461326 1.4437 -1.6369255 0.8688247
000100 e9 80 3f 3f 65 96 bd 3e 03 0c 3c 3f c9 99 34 3f
       0.74806076 0.37028804 0.7345583 0.7054716
000110 72 1a a9 3d 70 b0 d7 be da 8e 3a 3e 8c be e7 3f
       0.08256997 -0.421268 0.18218556 1.8105025
000120 79 6f 4a bf a0 13 e1 3d d5 2e 5c be 2d 56 31 3e
       -0.79076344 0.10990071 -0.2150224 0.1731803
000130 99 d9 0e 3d f5 43 41 bf 4b e6 3e 3e 75 11 7a 3e
       0.034875486 -0.7549432 0.18642537 0.24420722
000140 a0 9d f0 bf fb 41 0d 3e 42 29 1e 3e 8a 86 1e be
       -1.8798103 0.13794701 0.15445426 -0.1548101
000150 e1 85 a2 3e 35 cc 55 3f 23 38 a6 3e 08 8b 9d 3e
       0.31742766 0.8351472 0.32464704 0.30770135
000160 c3 a6 8e bd 3b 94 85 be c1 5c 06 3f f8 c7 5f 3f
       -0.06965401 -0.26089653 0.5248528 0.87414503
000170 04 81 a3 bf c6 17 86 bf be 59 e0 bd ff ba 8c bf
       -1.2773747 -1.0476005 -0.10954617 -1.0994567
000180 9f 51 ed 3e 7e 3b 7d 3c e3 30 bb be 97 ee 68 be
       0.46351334 0.015456079 -0.36560735 -0.22747265
000190 e6 f9 0f 3e 77 cd 3f be 3d 3a 4f 3e ec 20 5e bc
       0.14060172 -0.18730722 0.2023706 -0.013557654
0001a0 9e 9e 80 3e 9c f1 d1 3e a5 8c 94 be ab 4f b7 be
       0.25121015 0.41004646 -0.29013553 -0.3580297
0001b0 a6 ed b2 be 6f d1 41 be 31 3e bb bd 02 ad 0a 3e
       -0.34946936 -0.18927549 -0.091427214 0.1354256
0001c0 d7 1e 9b 3d d2 67 9c ba 3d 52 20 be 4f cb 93 3e
       0.075742416 -0.0011932796 -0.15656371 0.2886605
0001d0 ad d6 60 3e ef d9 29 be a4 4e 55 be e4 a0 a8 bc
       0.21956892 -0.16587041 -0.2083078 -0.020584531
0001e0 74 fc 75 3e 74 56 83 bd 64 82 08 be f8 10 52 3e
       0.24022084 -0.06412974 -0.1333099 0.20514286
0001f0 6c c3 84 bd d3 97 a7 3e 9b 2e 51 3e c6 86 0d be
       -0.06482586 0.3273302 0.20427935 -0.13820943
000200 40 24 a3 3d 3f 65 d3 3d 30 7d 18 be d5 d0 f3 bd
       0.079658985 0.103220455 -0.14891505 -0.11905066
000210 2d 82 75 be 65 a2 0f 3e 4f c6 f6 3e 3d 0e fe bc
       -0.2397544 0.14026792 0.48198172 -0.031012649
000220 43 b6 f4 3d 38 38 c3 bc b6 16 4d 3c 57 57 67 3e
       0.11948826 -0.023830518 0.012517622 0.22591911
000230 bf 28 8e 3c b2 fa 9d bb 50 7a de 3e c0 e9 00 be
       0.017353414 -0.004821145 0.43452692 -0.12589169
000240 b7 3a 90 be 1f 63 49 bf 7a 33 66 b9 25 dc ec 3d
       -0.28169796 -0.7866687 -0.00021953686 0.11565427
000250 50 ff 1c be 9f 53 a7 3e 81 82 e1 3d 6e 46 21 be
       -0.15331769 0.32680985 0.1101122 -0.15749523
000260 6d a3 b8 bd 66 ab cd 3d 44 10 34 3e bf 7e 9f 3e
       -0.09015546 0.10042457 0.1758433 0.31151387
000270 26 37 6c be cf d2 3b be e9 e6 8f 3c 32 3d a1 bd
       -0.23067912 -0.18342136 0.017566161 -0.07873
000280 c4 d2 08 bb c5 5c 23 3f 22 05 c5 be 2e 8e f3 3e
       -0.002087758 0.6381343 -0.3848048 0.47569412
000290 ca 42 10 3f 7e f6 12 3e ba e1 62 3e 3a df a6 3d
       0.5635191 0.14351842 0.2215642 0.08148046
0002a0 6d d7 95 3e 7a 07 2d be aa 15 4b be d4 75 9b 3f
       0.2926592 -0.16897383 -0.19832483 1.2145333
0002b0 e8 dc 6a bf ff 2d a0 3d 31 99 72 bd ce ed 47 be
       -0.91743326 0.07821273 -0.059228126 -0.19524309
0002c0 85 89 00 3e 64 2c a2 be 02 0a 19 3e 7f 3e a7 3e
       0.1255246 -0.31674492 0.14945224 0.32664868
0002d0 c2 07 0c bf 41 35 14 bb 50 a2 80 be 02 49 3f be
       -0.5469934 -0.002261475 -0.25123835 -0.18680194
0002e0 c5 d2 1d 3c 26 6f 03 3f 3a 70 a6 bd db ff ca 3d
       0.009632771 0.51341474 -0.08126874 0.09912082
0002f0 a8 3d 98 3d ac e3 0a be 98 aa f3 3d 04 b6 0b 3f
       0.07433635 -0.13563412 0.118977726 0.5457461
000300 57 5b 35 bf 83 8c aa bf 1f fb e0 3d c9 89 17 bf
       -0.708425 -1.3324131 0.109853975 -0.5919462
000310 61 61 92 3d f7 2e 47 3e 61 1c 39 be 3d 43 d8 3c
       0.0714748 0.1945151 -0.18077232 0.02639925
000320 03 67 ae 3e 9b 31 da bd ce c9 d4 3d 58 66 83 be
       0.34062967 -0.10653993 0.10390054 -0.2566402
000330 d1 f3 99 3e a3 99 37 bd 6d 45 31 ba a4 de c4 bc
       0.3006883 -0.044824254 -0.00067623594 -0.024031945
000340 f2 2f 83 3d d2 f2 8a bd 3f e9 96 bd 8d bf f8 be
       0.06405629 -0.067845955 -0.07368707 -0.48583642
000350 96 8f 30 3f 44 16 af be 78 c2 99 be f0 9b d8 3e
       0.68969095 -0.34196675 -0.3003118 0.4230647
000360 a6 61 df 3e 08 99 47 be 6f 63 c6 be b4 0c cd bd
       0.43629187 -0.1949197 -0.38747737 -0.100121886
000370 a7 14 6a 3e 42 bd 1f bf d8 60 93 3e 85 ed c7 3e
       0.2285944 -0.6239816 0.28784823 0.390484
000380 fa 6c 99 be ce c6 c6 3e 37 52 90 3d 78 0c 04 bf
       -0.29965955 0.3882355 0.07046931 -0.51581526
000390 e2 e8 9b 3d 0e be 57 bd 46 96 b7 3d c9 75 28 3d
       0.07612778 -0.052671485 0.08964209 0.041127954
0003a0 c7 32 56 be 03 3f 06 3d 24 19 4f 3e 25 3f ab 3e
       -0.20917808 0.032774936 0.20224434 0.33446613
0003b0 67 94 4c 3d d6 15 5d 3e f4 c9 bf 3e 0e b6 35 be
       0.049946215 0.21590361 0.37458766 -0.1774523
0003c0 a4 2a 0b be 8a 3e 15 3f 94 95 88 3e a4 5f f2 3e
       -0.13590485 0.5829855 0.2667662 0.47338593
0003d0 22 71 d6 bd e5 39 0b bf a0 62 93 3d 49 75 25 3e
       -0.10470797 -0.54385215 0.071965456 0.16158022
0003e0 6b 1f af 3d 22 77 b2 3d 02 55 54 3d 37 37 eb 3e
       0.085509144 0.08714129 0.051838882 0.45940563
0003f0 5b 1d da be f1 5a 33 3f 46 ad b2 be 59 7c 29 3f
       -0.4260052 0.7006064 -0.34897822 0.66205364

lstm.bias_ih_l0 f4 [200]
000000 00 73 cd be ba 2f 0c bf 2e d3 10 bf e4 69 12 bf
       -0.401268 -0.54760325 -0.56572235 -0.57192826
000010 8f 10 08 bf 77 43 cd be cd 7e f7 be 3e ae 1d bf
       -0.53150266 -0.40090534 -0.4833893 -0.61594
000020 e2 d7 f7 be d7 27 bb be d0 b4 b6 be f0 ab a1 be
       -0.48406893 -0.36553833 -0.35684824 -0.3157649
000030 06 8d 84 3d cd 29 e6 be c0 ea 13 bf 26 02 e9 be
       0.064722106 -0.44953766 -0.57780075 -0.45509452
000040 a1 11 86 be 1d 4d 4d be b9 1f cf be c4 64 bc bd
       -0.26185325 -0.20048948 -0.4045389 -0.09198907
000050 75 3f 13 bf 40 d1 8b be 83 15 b0 be 3b 03 25 bf
       -0.575187 -0.27308083 -0.34391412 -0.64458054
000060 58 d1 0c bf 3e 6c a4 be e7 da b5 bd 46 15 72 be
       -0.55006933 -0.32113832 -0.08879643 -0.23640928
000070 ee ac 38 bf 0e c1 f5 be de 50 41 be a8 76 f4 be
       -0.7213887 -0.47998852 -0.18878505 -0.47746778
000080 3f 43 c0 be 65 f3 f8 be f1 09 50 bf f6 d2 1a be
       -0.37551305 -0.48623195 -0.8126517 -0.15119538
000090 cc cb 19 bf e5 b2 df be e2 c6 15 bf 10 6c 82 be
       -0.60076594 -0.43691173 -0.58506596 -0.2547307
0000a0 84 f2 82 bd d5 38 a4 bd cb e6 f0 bd bf 9e 0a bf
       -0.063939124 -0.08018652 -0.1176277 -0.5414848
0000b0 8b fe c8 bd 4a d3 26 bf 9e d4 87 be f3 67 22 bf
       -0.09814175 -0.6516615 -0.26529402 -0.63439864
0000c0 85 e5 0c bf 0a b7 cd be 9f 60 d7 be f9 63 9e bf
       -0.5503772 -0.4017871 -0.42065904 -1.2374259
0000d0 0a ce 7e bf 8c 71 59 bf 27 69 52 bf 02 db 04 bf
       -0.9953314 -0.84938884 -0.821917 -0.5189668
0000e0 fc 03 92 bf ea 4e c5 bf e5 64 82 bf c6 67 9b bf
       -1.1407466 -1.5414708 -1.018704 -1.2141044
0000f0 6f d2 77 bf 0d fe 0d bf ec 57 5f 3e 17 0c 5f bf
       -0.9680547 -0.55465776 0.21810883 -0.8712782
000100 e1 5b 25 bf f0 37 58 bf 51 35 54 be d2 e3 08 bf
       -0.6459332 -0.84460354 -0.20723464 -0.53472626
000110 c7 9a 1f bf 58 4f 81 bf fa e0 5c bf c5 20 54 bf
       -0.62345546 -1.0102339 -0.86280787 -0.828625
000120 bc 3c 37 bf 81 c8 62 bf dc ce 47 bf 28 d8 8f bf
       -0.7157705 -0.88587195 -0.7805002 -1.1237841
000130 02 bd c5 bf dc dd b3 bf 48 c0 a2 bf a9 71 75 bf
       -1.5448306 -1.4052081 -1.271493 -0.95876557
000140 20 3f 09 3c a4 4c 94 bf bd 4b 99 bf 29 8a b6 bf
       0.008376867 -1.1585889 -1.1976238 -1.4260913
000150 e8 0f 1f bf ed 4b a1 bf 63 1d a5 bf 69 c6 98 bf
       -0.62133646 -1.2601296 -1.2899593 -1.193555
000160 4f 3c 30 bf 21 f2 2b bf 6a b3 34 bf d1 2a bb bf
       -0.68842024 -0.67166334 -0.70586264 -1.4622442
000170 5d e4 25 bf 10 ea dc be 37 5c ac bf 14 03 41 bf
       -0.6480158 -0.43147326 -1.3465642 -0.7539532
000180 7d 5d 8b bf a9 55 1f bf 8d ae 3f bf 8b 04 5e bf
       -1.0887905 -0.6224008 -0.7487572 -0.8672568
000190 20 b4 e9 bd ea f7 de be 5b 89 20 3e 07 57 cb be
       -0.11411309 -0.43548518 0.15677397 -0.39714834
0001a0 2a 5e 7c 3e f1 47 d4 be b8 c1 3f 3e 03 68 40 3e
       0.24645296 -0.41461137 0.18726242 0.18789677
0001b0 6d 47 9c be 4b ef 8f 3e 5e 65 3a 3e 8e ea bc be
       -0.30523244 0.28112254 0.18202731 -0.368977
0001c0 3a 4b 24 3e 9e bc cf be fa cf 84 be 96 71 a5 3e
       0.16044322 -0.4057359 -0.25939924 0.32313222
0001d0 db c8 85 be 56 76 49 be 64 ba ec 3d 5b 1c 8c 3e
       -0.26129803 -0.19674048 0.11558989 0.27365384
0001e0 01 68 8e bc a4 1b 0e be 45 c9 ee 3e 2d 85 93 3e
       -0.017383577 -0.13877732 0.4663793 0.28812543
0001f0 b2 19 66 3e 23 3f 96 3e d4 d1 88 3e 95 a6 b5 3e
       0.2247074 0.29345044 0.26722586 0.35478655
000200 f6 85 86 3e d9 12 1d 3e 88 67 67 bd ca 17 a3 be
       0.2627408 0.15339221 -0.05649522 -0.31854087
000210 0e 2e 70 be 72 66 67 be 92 7a 93 be 84 c1 68 3e
       -0.23455068 -0.22597674 -0.2880445 0.2273007
000220 6a 58 66 be 82 a1 2b be 30 f7 91 3e 5c 1c 43 3e
       -0.22494665 -0.16760829 0.28508902 0.19053787
000230 2b 84 e8 3e 6b b2 24 be 4c 4f a1 3d c0 31 ce 3e
       0.45413336 -0.16083686 0.07876453 0.4027233
000240 07 7d b5 3e 8d 89 1b 3f 59 0a a9 be 22 b7 8f 3e
       0.3544695 0.6075676 -0.33015707 0.28069407
000250 ee 68 56 3e 25 64 16 3e cd 80 a6 be 30 f5 95 bd
       0.20938465 0.1468664 -0.32520142 -0.073221564
000260 55 aa 1c bf 63 f9 c4 be 31 7c c6 be 80 16 39 bf
       -0.61197406 -0.38471517 -0.38766626 -0.7229996
000270 b4 8c 34 bf 6d 1d 1b bf d5 0e c9 be 33 ad df be
       -0.70527196 -0.60591775 -0.39269128 -0.43686828
000280 98 42 a0 be de 34 fb be c7 29 10 3e 3d 09 e5 be
       -0.31300807 -0.49063772 0.14078437 -0.4473361
000290 70 1c 82 be 32 14 d7 be 1d bc e2 be 34 bc e1 be
       -0.2541232 -0.42007595 -0.44284144 -0.440889
0002a0 e9 47 05 bf ba 8f 88 be db 71 fd be e0 1f 94 be
       -0.5206285 -0.26672155 -0.49500927 -0.2893057
0002b0 c5 95 e5 be b2 37 08 bf 95 37 e1 be 75 52 8e be
       -0.44840828 -0.53209984 -0.43987718 -0.27797285
0002c0 00 1b a0 be 56 43 e9 bd 84 b4 2b bf 47 8d bf be
       -0.312706 -0.113897964 -0.6707232 -0.37412474
0002d0 eb f6 15 be 94 fb f3 be f7 a4 36 bf 47 ff 10 bf
       -0.14644973 -0.47652876 -0.71345466 -0.5663952
0002e0 71 11 68 bf 60 dd 0c bc ae 5d fd be c0 10 d1 be
       -0.90651613 -0.008597702 -0.49485534 -0.40833092
0002f0 76 92 0b bf dd 34 7f be 0e 73 cc bd a4 85 02 3d
       -0.54520357 -0.2492251 -0.099828824 0.03186573
000300 ca a5 4e 3d d0 7d c1 be 08 ce 2b be 15 73 6b bf
       0.050451078 -0.377913 -0.16777813 -0.91972476
000310 eb 0c d0 be b3 84 23 bf 20 78 e8 be a1 78 9e be
       -0.40634856 -0.6387436 -0.45404148 -0.30951408

lstm.bias_hh_l0 f4 [200]
000000 fb 36 b5 be 16 5e e1 be f6 2d 3f bf 84 27 14 bf
       -0.3539351 -0.44017094 -0.74679506 -0.57872796
000010 08 57 d5 be 55 76 12 bf 05 6e 2f bf 0b 5c 25 bf
       -0.41667962 -0.5721181 -0.6852725 -0.6459357
000020 03 9b cb be ae 71 05 bf ae ca eb be 89 e8 e8 be
       -0.39766702 -0.52126586 -0.4605307 -0.4548991
000030 4c 53 bb 3c 0b 15 10 bf 7a e2 da be 44 19 f7 be
       0.022866867 -0.5628211 -0.42750913 -0.48261464
000040 32 05 86 be c4 29 9d be f6 c6 c7 be f9 b6 1d bd
       -0.2617584 -0.30695927 -0.39018983 -0.038504574
000050 19 61 fa be 88 08 da be 26 80 04 bf 08 2c ed be
       -0.48902205 -0.42584634 -0.5175804 -0.46322656
000060 bc 6d 02 bf d6 5b 0a bf c0 44 4a be 46 d5 3c be
       -0.5094869 -0.5404638 -0.19752789 -0.18440732
000070 b7 0b 13 bf 84 2a 12 bf 7c 78 e8 3b e1 42 b2 be
       -0.5743975 -0.57096124 0.007094441 -0.3481665
000080 80 22 ea be 05 11 1b bf 41 1d 17 bf c1 22 f4 bd
       -0.45729446 -0.60572845 -0.5902901 -0.11920691
000090 de 45 e5 be 27 86 51 be 26 8b 1d bf 6e 84 94 be
       -0.44779867 -0.20461331 -0.6154045 -0.29007286
0000a0 6e 7e 4f be 54 78 3d be 19 95 8a be 17 7c c4 be
       -0.20263073 -0.18502933 -0.27066877 -0.38375923
0000b0 da be 4a be e1 56 eb be e8 7e e5 be 6f 1c 30 bf
       -0.19799367 -0.4596472 -0.44823384 -0.68793386
0000c0 3f b5 ed be 5f d5 93 be 06 5e 0d bf 11 a7 9a bf
       -0.46427342 -0.28873727 -0.55221593 -1.2082235
0000d0 7d 52 96 bf 53 4c 79 bf 00 90 70 bf f5 c4 29 bf
       -1.1743923 -0.97382087 -0.93969727 -0.6631616
0000e0 90 46 83 bf 39 20 bf bf 82 56 84 bf f4 96 a7 bf
       -1.0255909 -1.4931709 -1.03389 -1.3092942
0000f0 7c c9 96 bf 00 e5 07 bf ec 82 7f 3e be 22 40 bf
       -1.1780238 -0.530838 0.24952286 -0.7505301
000100 07 e5 13 bf 77 b6 32 bf d5 1c 38 be 8a 96 00 bf
       -0.57771343 -0.6980967 -0.17979749 -0.50229704
000110 5f 0e 4c bf 6c 13 84 bf 23 9a 79 bf 33 71 58 bf
       -0.7970943 -1.0318427 -0.9750082 -0.8454773
000120 29 73 1f bf a8 99 8b bf 0a ad 41 bf 1b 90 8a bf
       -0.62285095 -1.0906267 -0.7565466 -1.0825227
000130 a9 e5 c5 bf 0b f3 bd bf 1c fc 8a bf 51 91 57 bf
       -1.5460712 -1.4839796 -1.0858188 -0.8420611
000140 d7 88 e2 bd eb 08 aa bf d7 eb aa bf 15 ec b5 bf
       -0.110612564 -1.3283972 -1.3353223 -1.4212672
000150 b2 92 2b bf a5 0b a5 bf 00 3d a3 bf 4f 51 85 bf
       -0.67020714 -1.2894179 -1.2752991 -1.0415438
000160 6c d3 0f bf 47 5f 1f bf fe b4 40 bf da b5 a0 bf
       -0.5618198 -0.62254757 -0.7527617 -1.2555497
000170 4a 5f 04 bf ae 20 ea be a9 8b 9f bf 27 97 0f bf
       -0.517079 -0.45728058 -1.2464496 -0.56090015
000180 d9 2c 7b bf 47 43 27 bf f8 a9 38 bf ad 6c 8f bf
       -0.9811531 -0.6533703 -0.7213435 -1.120504
000190 d5 dd 27 be ce 3e 99 be ac 7e 9f 3e de e2 8b be
       -0.16393216 -0.2993073 0.3115133 -0.27321523
0001a0 a9 e8 84 3e 78 07 d3 be 7f d5 c0 3e 8f 89 7c 3e
       0.25958756 -0.41216636 0.37662885 0.2466185
0001b0 a2 25 1e be 70 a0 a8 3e 1c fd 22 3e 02 19 e7 be
       -0.15444043 0.32934904 0.15916866 -0.45136267
0001c0 0a e6 04 3e 09 9f 91 be b2 fe a7 be df 1d b0 3e
       0.12978378 -0.28441647 -0.32811505 0.3439779
0001d0 4f 12 82 bc 78 5c 77 be a5 57 38 3e dd dd d8 3e
       -0.01587787 -0.24156368 0.18002184 0.42356768
0001e0 71 a0 00 be ac 77 44 be 93 d4 bf 3e 9e bb 86 3e
       -0.12561204 -0.19186276 0.3746687 0.26315016
0001f0 1d 85 12 3e 25 39 b8 3e 4e b6 f0 3e 8a 0c a4 3e
       0.14308591 0.35981098 0.47014087 0.32040817
000200 6d 63 81 3e 1f c9 c4 bc dd fc 5b 3d 64 58 89 be
       0.25271168 -0.024021683 0.053707946 -0.2682525
000210 a3 61 94 be 68 aa be be 8a 8d b6 be 81 ff d4 3e
       -0.2898074 -0.37239385 -0.3565486 0.41601184
000220 91 42 4c be 72 8a 2b be ae 99 35 3e 01 64 36 3d
       -0.19947268 -0.16752031 0.17734405 0.044528965
000230 31 9b ae 3e 79 61 ad be c5 60 a2 3e 3a 17 f4 3e
       0.34102777 -0.33863428 0.31714454 0.4767397
000240 3e 2a e6 3e 08 50 e2 3e 7e 81 e7 bd 0a 3c 29 3e
       0.44954103 0.44201684 -0.113039955 0.1652681
000250 d6 20 99 3e ce b6 18 3e 6b 3d ba be 25 09 a6 be
       0.29907864 0.14913484 -0.36374983 -0.32428852
000260 94 5a 2b bf ac 0a e0 be e0 ce d5 be bd 8f 27 bf
       -0.66935086 -0.43758142 -0.41759396 -0.654537
000270 4b 61 04 bf 80 72 32 bf 7d b5 a8 be e0 3b b4 be
       -0.5171096 -0.69705963 -0.32950965 -0.3520193
000280 5a 94 aa be 58 7d bc be 11 23 f1 bc a7 fd 2d bf
       -0.33316308 -0.3681438 -0.029435666 -0.6796517
000290 4e 04 3e be b3 12 e7 be 90 a6 52 be a5 f0 a2 be
       -0.1855633 -0.45131454 -0.20571351 -0.31824222
0002a0 eb 1f f9 be fa ac a5 be bf 33 16 bf 33 21 d1 be
       -0.48657164 -0.32358533 -0.5867271 -0.40845641
0002b0 a1 b1 d2 be e2 cc 25 bf fe 16 1f bf 5e eb 7e be
       -0.41151145 -0.6476575 -0.6214446 -0.24894473
0002c0 8d b9 9b be 2d 74 78 be fb 0c f7 be c9 68 d8 be
       -0.30415002 -0.24263068 -0.4825209 -0.42267445
0002d0 5c 91 c7 3d 50 a4 5c be 08 2d 0d bf c5 fa 23 bf
       0.09744522 -0.21547055 -0.5514684 -0.6405452
0002e0 d5 e6 7a bf 61 81 eb bd d2 f2 c3 be f7 3a c8 be
       -0.9800847 -0.114992864 -0.38271195 -0.39107487
0002f0 33 79 dd be c1 df 9c be 71 d3 31 be 85 37 4b be
       -0.4325653 -0.3063946 -0.17365815 -0.19845398
000300 cc 39 44 be c9 4b d6 be 61 3e 91 be 66 6d 3e bf
       -0.19162673 -0.41854694 -0.28367904 -0.7438568
000310 02 76 e7 be df a7 41 bf 12 71 f5 be 85 ce c0 be
       -0.4520722 -0.75646776 -0.47937828 -0.37657562

lstm.weight_ih_l1 f4 [200, 50]
000000 36 8c 2c 3e 4b 2f 4c 3e 87 8a e1 be e8 06 c6 3e
       0.16850361 0.19939916 -0.44051 0.38677144
000010 da b5 bd be fd ed 95 3f f9 19 63 bf d3 90 87 be
       -0.37052804 1.1713253 -0.88711506 -0.2647768
000020 d0 d6 a7 3e 46 c7 ff be ba 33 20 be 96 40 04 3e
       0.32781076 -0.4995672 -0.15644732 0.12915263
000030 6e 39 8c be 43 3f bf 3e 59 b8 7d 3e 91 f0 67 bd
       -0.27387565 0.37352952 0.24777354 -0.056625906
000040 b8 9b 2f 3f 8c 4c 8c 3e 4e e0 fa be fe 48 08 bf
       0.6859698 0.2740215 -0.48999256 -0.5323638
000050 77 2f 4e 3d 46 db 10 3f 02 9e d9 be 24 f5 ab be
       0.050338235 0.56584585 -0.42503363 -0.33585465
000060 06 0e e8 3d 75 f0 03 3e 97 61 20 bf 33 75 4c bf
       0.113308 0.12884696 -0.6264891 -0.7986633
000070 c0 55 7a be 5c a0 30 be a9 14 d6 bd 4d 10 29 3f
       -0.24446774 -0.17248672 -0.10453159 0.660405
000080 a8 58 50 3e 24 17 0b 3f cb 6d 86 3e cc 93 35 3d
       0.2034632 0.54332185 0.2625564 0.044330403
000090 2e d6 1c 3f d1 b3 b2 3e a6 4a eb be 65 43 41 be
       0.6126431 0.34902814 -0.4595539 -0.18873365
0000a0 13 d0 9b be 83 a7 91 3f 4b ff 97 bf 0e 85 06 bf
       -0.30432186 1.1379246 -1.1874784 -0.52546775
0000b0 21 13 04 bf 3c e5 a7 bf 3a bd ad 3e ed 3a b4 be
       -0.5159169 -1.3116832 0.3393343 -0.35201207
0000c0 d2 7f 3c bf 89 3d e5 bd 70 4d 06 c0 90 67 bc 40
       -0.7363254 -0.111933775 -2.0984764 5.887642
0000d0 95 3e ea bd b7 a5 8a 40 37 3e 9f be f5 d9 1b 3f
       -0.11437718 4.332729 -0.31102154 0.6087945
0000e0 08 d9 86 be a8 e7 dd be d6 6a 96 bf 7c f7 55 3f
       -0.26337457 -0.43340802 -1.1751354 0.83580756
0000f0 41 06 84 3f 3a 45 12 40 b8 33 04 c0 7e de c8 40
       1.0314409 2.2854753 -2.0656567 6.2771597
000100 3e e5 9a 40 ba fc 80 3e 21 79 e5 bf f1 84 d8 bf
       4.8404837 0.25192815 -1.7927591 -1.691557
000110 09 b3 e5 3f c0 82 e9 be 92 23 ce bf 0f ce 38 3f
       1.7945262 -0.45607567 -1.6104605 0.7218942
000120 9c b3 8c bf be cc 08 3c f0 58 c0 3f af 29 45 c0
       -1.0992312 0.008349596 1.5027142 -3.0806692
000130 c2 7a 31 bf 61 45 83 3d 53 60 37 3e 84 77 02 40
       -0.6932794 0.06409717 0.17907839 2.0385447
000140 4f 8a 1c bf ee 87 04 bf fb bd 12 bf 0c 6d a6 be
       -0.6114854 -0.5176991 -0.5732114 -0.3250507
000150 73 6a a4 3e 3c 97 20 c0 d1 15 15 be e7 21 38 bf
       0.32112464 -2.5092306 -0.14559104 -0.7192673
000160 bc da 91 be 35 21 eb 3f 49 a5 d2 3e 24 b2 bd be
       -0.28487194 1.8369509 0.41141728 -0.37049973
000170 ae 7f b3 bf bc 74 37 bf f5 52 db 3e 1e 8d 35 bf
       -1.402334 -0.716625 0.4283673 -0.7091845
000180 d7 82 73 be 67 26 98 be d1 5a 26 be f9 08 bb 3f
       -0.2378038 -0.297168 -0.16245581 1.4612113
000190 da 65 06 3f 98 49 cc 3e 04 e6 35 bf 8b ed a9 3f
       0.52499163 0.39899898 -0.710541 1.3275617
0001a0 b0 51 23 bf 9e c3 31 3f 93 e7 72 bf 72 2f 7e be
       -0.6379652 0.69439113 -0.94884604 -0.24822786
0001b0 65 e8 59 bb f9 a2 ac bd f6 f1 23 bf 59 8c c7 3f
       -0.003325009 -0.08429522 -0.6404108 1.5589706
0001c0 e3 88 f8 bd 98 94 c1 3f 12 38 58 3f d9 13 d3 be
       -0.12135484 1.5123472 0.84460557 -0.4122608
0001d0 4b 59 04 be 08 44 c3 bd b8 11 f9 38 81 1b a5 bf
       -0.12924688 -0.0953446 0.000118765456 -1.2899019
0001e0 ce 55 79 be 5a a4 08 3f 4a 48 04 c0 fd f8 0c bf
       -0.24349138 0.5337578 -2.0669122 -0.55067426
0001f0 d7 a4 59 be 7a ef 0d bf d0 d7 67 bf c7 29 17 bf
       -0.21254288 -0.5544354 -0.9056368 -0.5904812
000200 ca a6 6c bf 6d ab 7c be 4c a5 0e 3f 2e 48 ab 3e
       -0.92442 -0.24674769 0.55720973 0.33453506
000210 1c b8 e3 3e 7d 33 8a be 74 4a d4 3e bf 5f 84 be
       0.44476402 -0.26992407 0.41463053 -0.25854298
000220 f9 ce 80 3f a2 92 55 3e 00 70 e5 be 9b 2f 04 be
       1.0063163 0.20856717 -0.44812012 -0.12908785
000230 81 31 49 bf 16 54 18 3f 94 bc 5a 3e 45 df d7 bf
       -0.7859116 0.59503305 0.21361 -1.6865011
000240 51 63 3b bf 91 db 8e be 95 eb 0a 3f 5d 44 1f bf
       -0.7319842 -0.2790189 0.5426572 -0.6221369
000250 c6 a2 2c bf bf 7b 88 be d1 0f 65 bf 9c 0f 4a 3f
       -0.6743587 -0.2665691 -0.8947726 0.7893007
000260 a5 72 8f 3e db d9 42 3f a3 d1 b2 bc b8 54 60 bf
       0.28017154 0.7611367 -0.021828478 -0.8762927
000270 70 d4 fd 3d 48 18 54 3f 5a 82 f4 be 04 a5 1d 3f
       0.12394035 0.8284955 -0.477557 0.6157992
000280 49 07 19 3f 0c 99 76 3e 9d 2c 87 be 71 58 51 3e
       0.5977674 0.2408182 -0.26401225 0.20443894
000290 f8 c6 f2 3e 26 47 95 bd 78 b0 e0 be 67 04 2f bf
       0.47417426 -0.07288961 -0.43884635 -0.6836609
0002a0 71 c9 4e 3f c1 7a 90 3f 7d 4e f7 be cf 9d 55 3e
       0.80776125 1.1287462 -0.4830207 0.2086098
0002b0 3b f5 1c bf 3d 06 6d be a6 98 22 3f 9b 52 12 bf
       -0.6131169 -0.23146911 0.63514173 -0.57157296
0002c0 ab 9d 0e 3f 67 43 19 3e 29 8c 83 3e e3 50 4a 3e
       0.5570933 0.14967118 0.2569287 0.19757418
0002d0 7d 76 cd 3e 90 1c 0d bf 32 84 2d bf 2c ad ff be
       0.40129462 -0.5512171 -0.6777984 -0.49936807
0002e0 e0 b8 3e be af 68 2f bf 92 ff fc 3c 5b ef be be
       -0.18625212 -0.6851911 0.030883584 -0.3729199
0002f0 ce 8e 04 3d bd c8 28 3f af ac c3 3f d0 35 1e bf
       0.03236275 0.659313 1.5287074 -0.6180086
000300 df 49 87 3f 35 5e 01 bf 4b ef 9b 3f 90 48 7e 3f
       1.0569419 -0.50534374 1.2182401 0.9932947
000310 93 d0 91 be 4f 9a c0 bd f8 10 74 3e 9b a8 2f 3f
       -0.28479442 -0.09404432 0.23834598 0.68616647
000320 35 3a a2 be a1 46 c3 be 29 2e 19 3f 00 c9 e7 be
       -0.31685033 -0.38139823 0.5983606 -0.45270538
000330 0d 63 34 3f 65 9f c1 be ca 4c 18 3f 9c bd cd 3e
       0.7046364 -0.3781692 0.5949217 0.40183723
000340 98 8c 4a bf 4e a4 26 3e 47 6c c1 3e a0 d9 76 bf
       -0.7912078 0.16273615 0.37777922 -0.9642582
000350 a7 28 4f be 4a 7f 36 bf 6e 81 b2 be fb 6f a5 3f
       -0.20230351 -0.7128798 -0.34864372 1.2924799
000360 e5 20 f7 be df 49 b1 be 32 b0 f4 3e 56 20 27 3f
       -0.48267284 -0.34626672 0.47790676 0.65283716
000370 c7 bb 19 bf 51 99 a6 bf 5e 73 9b 3f c6 34 60 3f
       -0.6005215 -1.3015538 1.2144582 0.87580526
000380 6a 05 41 3f 75 92 17 3f f3 8f c6 bc 59 e2 5e 3e
       0.75398886 0.5920785 -0.024238562 0.21766032
000390 a5 5d 42 3f 3a 5d 53 3f c3 f6 7a bf 8b da bc be
       0.7592414 0.8256413 -0.9803278 -0.36885485
0003a0 89 99 a4 be e7 7e 8a bf d7 32 5d bf 10 2b 46 be
       -0.32148388 -1.0819978 -0.864057 -0.19352365
0003b0 db b8 86 be 67 34 78 be 5e 53 56 3f 80 eb cf 3e
       -0.2631291 -0.2423874 0.8372096 0.4060936
0003c0 c0 46 2a 3f ca 0d 28 bf 77 eb dc 3e 17 a9 fc 3f
       0.66514206 -0.6564604 0.43148395 1.9739102
0003d0 a3 47 17 3d d0 d9 b6 be 69 d2 c9 be 1c 90 1f 3f
       0.036933552 -0.35713053 -0.39418343 0.6232927
0003e0 ae 21 25 3f 15 fc cb 3e b8 32 31 3e 3d 0a f3 be
       0.64504516 0.3984076 0.17304504 -0.4746875
0003f0 8e 84 02 bf a0 59 7e be e9 ed 34 bf cd f4 68 3f
       -0.5098351 -0.24838877 -0.7067552 0.90998536

lstm.weight_hh_l1 f4 [200, 50]
000000 06 b5 e9 3e 6a 16 71 bf 68 61 d5 bd ad e4 be 3e
       0.45645922 -0.94174826 -0.104189694 0.3728384
000010 d6 a6 dc bd 88 88 93 3c 37 48 83 be 99 68 9d 3d
       -0.10774009 0.01800944 -0.25641033 0.07685966
000020 1c 02 6d 3b 87 d0 36 3f c2 e0 54 3b 41 cb 23 be
       0.0036164587 0.7141194 0.00324826 -0.15995504
000030 93 56 8f 3e 67 3a 4d 3e bb a3 0a be 09 84 52 bd
       0.27995738 0.2004181 -0.1353902 -0.05139545
000040 8e f8 45 3e 77 5a d0 be 58 4f c1 be 11 91 d6 bd
       0.19333097 -0.4069402 -0.37755847 -0.10476888
000050 2b c1 ca 3e ed dd 11 3f d4 07 32 3e 44 d9 80 3f
       0.396005 0.56979257 0.17385799 1.0066304
000060 e8 03 6e bf 43 15 10 3c 23 8f c1 3e ba 22 ee be
       -0.9297471 0.008794132 0.37804517 -0.4651087
000070 01 78 bc 3d 60 0a 33 be 53 27 b3 bd 95 47 2a 3f
       0.092025764 -0.17484426 -0.08747735 0.66515476
000080 d3 5a 73 3e 7a 17 87 bf 34 b4 c4 be 12 94 d3 bd
       0.23765115 -1.055404 -0.38418734 -0.103309765
000090 b1 90 4a 3d e7 c5 60 3e 4e a0 8b 3e 0b 24 69 bd
       0.049454395 0.21950494 0.2727074 -0.05691914
0000a0 76 c0 ec be a8 63 71 3e 5b 01 e0 3d cc 80 6b be
       -0.46240586 0.23573172 0.109377585 -0.22998351
0000b0 be 21 63 3e c5 61 ba bc 7a ef a7 be 52 3f 20 3d
       0.2218084 -0.022751698 -0.32799894 0.039122887
0000c0 b8 3b 0c bf f0 8b 11 3f 3b cc 0f bf 42 c8 5f 3f
       -0.54778624 0.5685415 -0.56171006 0.87414944
0000d0 c1 48 cb be 8b 31 90 bf bb 7b 62 3e cb 28 72 bf
       -0.39703944 -1.1265119 0.22117512 -0.94593495
0000e0 c3 f7 8d bf dd 9c e2 be 0d ea bc bd 1c 86 e2 3d
       -1.1091236 -0.44260302 -0.09224329 0.110607356
0000f0 03 c3 ec 3e a1 aa da 3d 6f 0b 6d 3f fb 1e 58 bf
       0.46242532 0.10677076 0.9259557 -0.8442227
000100 58 07 41 bf e6 7c d3 be 97 3b 2f 3f 3b 02 70 3f
       -0.7540183 -0.41306227 0.684503 0.93753403
000110 4d f7 42 3f e9 db e9 be 96 94 ba be 37 4d 53 bf
       0.761586 -0.4567559 -0.36441487 -0.82539696
000120 1d 55 84 bf 77 e0 b1 be c5 b6 08 40 1b b5 db 3e
       -1.0338475 -0.34741566 2.1361554 0.4291161
000130 c2 2f a3 3e 62 50 48 bf 05 29 f5 3d 51 66 c1 3e
       0.31872374 -0.78247654 0.119707145 0.37773374
000140 fc 60 e6 bd 0f 5f 8d bf 6f 45 a5 3e 4b ac 85 3f
       -0.11248967 -1.1044635 0.32279536 1.0443205
000150 0f e0 0a 3f 40 8b 21 3f 5a f3 2d bf cf e1 df be
       0.54248136 0.63103104 -0.6794945 -0.43726966
000160 fb 0a 9f 3d 6d 82 22 3e a2 ca ce 3e 21 1a 7e 3f
       0.07765766 0.15870066 0.40388972 0.9925862
000170 06 af 8a 3f 72 18 75 bf b0 49 1a 3e 75 98 0b bf
       1.0834663 -0.95740426 0.15067172 -0.54529506
000180 df 00 ca 3c d2 5e 9e bf 16 26 1c 3f 90 b5 76 bf
       0.024658618 -1.2372687 0.60995615 -0.9637079
000190 10 f7 e9 be be ae 88 3f f9 65 0a bf 2f 77 ea 3e
       -0.45696306 1.0678327 -0.5406185 0.45794055
0001a0 8b 38 40 bd b6 d0 ff bb 10 6b a6 be cc 7a fc 3e
       -0.046928924 -0.0078068627 -0.32503557 0.49312437
0001b0 18 53 09 3f 36 04 e5 bf fc bb fc 3f bb 7c 85 bf
       0.53642416 -1.789191 1.9744868 -1.042869
0001c0 73 c7 ed be e6 df df be bb 11 cb 3e 7e 8d ff be
       -0.4644123 -0.43725508 0.39661965 -0.49912637
0001d0 c6 68 24 3f 32 81 38 3e dc 95 5d be 1b c4 78 bf
       0.6422237 0.18018034 -0.21639198 -0.97174233
0001e0 35 7d 6e 3f 93 5f 1a bf 89 05 06 3d 7a 9f c6 be
       0.931598 -0.60302085 0.032720122 -0.38793546
0001f0 92 12 69 be 8e 41 5a 3e 0b f2 df 3e 68 c3 d4 3e
       -0.2276099 0.2131407 0.43739352 0.41555333
000200 98 36 4f be 1f d0 16 3f ff cd 0e 3e 4f 60 9b 3d
       -0.2023567 0.5891132 0.13945769 0.07586729
000210 d9 fc f5 3e 2c 8c ab 3e 04 36 c3 3e c0 c1 d5 3f
       0.4804447 0.3350538 0.38127148 1.6699753
000220 dd e3 09 bf 85 95 e8 be a7 84 90 3f 7c eb bc bc
       -0.53863317 -0.45426574 1.1290482 -0.023061506
000230 a2 67 9f bf 79 a5 be be 6e 91 a4 3d 8f 1a 2b bf
       -1.2453501 -0.3723562 0.08035551 -0.668374
000240 9a 31 0a 3e b3 49 5f 3f ac f2 a9 be cd 55 c4 be
       0.13495484 0.8722183 -0.33192956 -0.3834671
000250 78 00 0f be 0b c0 76 bf 9e 94 71 be c1 b2 aa be
       -0.13965023 -0.96386784 -0.23591849 -0.33339503
000260 96 22 22 3f f5 e0 29 be 7f e9 bd 3d 9e 6b 58 bf
       0.63334024 -0.1658972 0.092730515 -0.8453921
000270 92 7d 83 3f 62 a7 82 bf 51 9b 87 3e 77 35 62 bf
       1.0272696 -1.0207331 0.26485685 -0.8836283
000280 3a 1b 90 3e 10 5b d8 3c c1 54 3b bf 40 9e 35 bf
       0.28145772 0.02641061 -0.731762 -0.70944595
000290 20 d5 79 3f 96 62 79 3e 4a bc 8b bf 75 f4 0f be
       0.9759083 0.24354014 -1.0916836 -0.14058097
0002a0 01 e0 1c bf db 94 cc 3e cf 7b 85 bf 69 5a 09 3f
       -0.612793 0.39957318 -1.0428408 0.5365358
0002b0 cf e7 07 3f c7 8d ab 3f 0f c5 fa 3c 22 9e 01 bf
       0.53088087 1.3402642 0.030611543 -0.50631917
0002c0 49 dd 80 bf 07 52 0f 3f c9 e2 db be 5e 74 8e 3f
       -1.0067531 0.5598454 -0.4294646 1.1129262
0002d0 cc 35 55 3e 1a 13 c8 be 82 17 dc be 44 40 17 bf
       0.20821303 -0.39077073 -0.42986685 -0.59082437
0002e0 b6 18 09 3f a6 15 0f bf 34 71 13 bf b4 03 86 bf
       0.5355333 -0.5589241 -0.5759461 -1.046988
0002f0 42 60 a0 bf 90 5d 20 3e a4 10 42 3e 3a 90 fe be
       -1.2529376 0.15660691 0.1895166 -0.4971941
000300 f8 8c 23 bf c7 ed 92 3f 50 4e 94 bd 45 8b 4d 3f
       -0.63886976 1.1478814 -0.072414994 0.80290633
000310 50 46 00 3f 70 25 94 3f d4 01 39 bf 4a 82 c7 3e
       0.5010729 1.1573925 -0.72268414 0.3896659
000320 36 08 43 bf d4 d4 71 3f eb b8 1c be 3c cf 65 3e
       -0.76184404 0.94465375 -0.15304916 0.22442335
000330 cf 11 ba be a8 c3 24 bf fe c2 92 3e 3c 78 08 be
       -0.36341712 -0.6436105 0.28664392 -0.13327116
000340 2d f3 6c 3f 6e bd 43 bf c5 91 e1 3f 40 7d 0d 3f
       0.92558557 -0.7646092 1.762261 0.5526924
000350 9e f9 28 bf 9e 15 43 3e b4 51 63 3e 49 43 23 be
       -0.66005886 0.19051215 0.22199136 -0.15943636
000360 e6 cc 4a 3f 98 77 21 bf 1c ca 9b bf 96 99 1b bf
       0.792189 -0.6307311 -1.2171054 -0.6078123
000370 11 d9 26 bf b0 6d 89 3e cf 6b 9b 3f 07 47 5a bf
       -0.6517497 0.26841497 1.2142276 -0.8526463
000380 65 7b c1 be 9e 34 bf 3e b6 4d 1c 3f 30 de 3a be
       -0.37789455 0.3734483 0.6105608 -0.1824882
000390 35 65 c4 be 19 bb 00 3d f7 22 f4 be df 55 c7 3f
       -0.38358465 0.03142843 -0.47682926 1.5573081
0003a0 d4 8f 80 3e ac 93 0a bf ee 79 75 3d ee e7 aa 3d
       0.25109732 -0.5413158 0.059930734 0.08345018
0003b0 15 e3 d6 be 77 45 45 bf c7 3d c2 be 0f 02 ab 3d
       -0.41970125 -0.7705912 -0.37937757 0.08350002
0003c0 99 4b fd be ec 66 f6 bd ec 7d ef 3c fe 4b 2d bf
       -0.4947174 -0.120313495 0.029234849 -0.6769408
0003d0 90 d6 55 bf ef 91 6a 3e 55 ce a6 3a bc 8d 88 3e
       -0.8353052 0.22907232 0.0012726287 0.26670635
0003e0 c3 15 93 bd 78 8c 3a bf c7 60 6d 3e 79 e4 95 bf
       -0.07181885 -0.7287059 0.23181449 -1.1710349
0003f0 59 17 50 3d a1 de c4 3d 08 3b 38 be 92 c7 a6 bd
       0.050803516 0.096127756 -0.17991269 -0.08143534

lstm.bias_ih_l1 f4 [200]
000000 bf 18 1e bf 4a cc 52 bf 07 21 06 bf e6 b9 ca be
       -0.6175651 -0.8234297 -0.52394146 -0.39594954
000010 b6 2e ab 3c 49 fe 70 be a6 a6 39 bf 9a 24 ec 3d
       0.020896297 -0.23534502 -0.7251991 0.11530419
000020 50 91 2b bf 50 a8 f1 be a2 e6 50 bf ef 5f 1a bf
       -0.67018604 -0.47198725 -0.8160192 -0.60302633
000030 00 0f 73 be 46 bf 1f bf c3 5a c0 be 8b a9 2d be
       -0.23736191 -0.62401235 -0.37569246 -0.16959207
000040 65 d3 00 bf 07 63 08 bf d1 4b 06 bf 6b 66 aa be
       -0.5032256 -0.53276104 -0.52459437 -0.33281264
000050 f2 34 2d bd f3 62 21 3b a3 fe 5a bf ad ee b7 be
       -0.04228682 0.0024625629 -0.85544795 -0.35924283
000060 c4 59 29 bf 6e 2e 71 be cd 73 e1 be 68 ae 8c be
       -0.66152596 -0.23552868 -0.4403366 -0.2747681
000070 01 c8 d0 be ff 06 13 bf d8 05 7a bd 7c 13 85 bf
       -0.4077759 -0.5743255 -0.06104073 -1.0396571
000080 5b 5a a0 be c8 90 3d bf 85 c8 0c bf 27 09 09 be
       -0.31318936 -0.74049044 -0.5499347 -0.13382398
000090 de f3 eb be 40 f4 8a 3b 07 8e ee 3d d5 e2 a8 be
       -0.46084493 0.0042405427 0.11648183 -0.3298556
0000a0 63 00 4d bf cf dc 03 bf 48 bf e0 be d8 25 70 bf
       -0.80078715 -0.515088 -0.43895936 -0.93807745
0000b0 1a 46 35 be 83 2b d5 be af 24 26 bf a5 7a 3e bf
       -0.17702523 -0.4163476 -0.64899725 -0.7440589
0000c0 89 ee 8c be 13 1e 69 be 6c b0 d4 be 78 46 ab be
       -0.27525738 -0.22765379 -0.4154085 -0.334522
0000d0 50 56 7d bf 50 dd 33 bf 87 0a 74 3e 48 3a 50 bf
       -0.9895983 -0.7025957 0.23832141 -0.8133893
0000e0 23 14 34 be 7a 19 66 bf e3 6c 0f bf 4b 51 0b bf
       -0.17585807 -0.89882624 -0.5602552 -0.5442092
0000f0 f2 9f 7f bf de 71 5f bf 6a 5a 36 3e d4 1d 30 bf
       -0.9985343 -0.8728312 0.17807928 -0.68795514
000100 14 7b d4 be fa fd f4 bc f7 0d 0f bf 17 24 ad bd
       -0.4150015 -0.029906262 -0.55880684 -0.08454149
000110 20 09 46 3d 80 82 91 bf d9 13 4e bf 31 b7 80 be
       0.048348546 -1.136795 -0.80499035 -0.25139764
000120 f7 8b 81 bf 81 b0 89 bf 3e 27 3f bf 15 0d 95 bd
       -1.0120839 -1.075699 -0.74669254 -0.07277886
000130 8d 1a 3d bf 7b eb 31 bf db a6 e3 be 2b 32 bb be
       -0.7386864 -0.6949994 -0.44463238 -0.36561713
000140 aa c2 0b 3e 57 02 a5 bf 59 6a 51 bf 27 f1 4a bf
       0.13648477 -1.2891339 -0.818029 -0.7927422
000150 d3 fd 00 bf 36 b1 a3 bf 51 8d 2b bf 40 0b e5 be
       -0.50387305 -1.2788455 -0.67012507 -0.44735146
000160 3e 60 6b bf b0 99 96 be de 0f 45 bf 77 44 1f bf
       -0.9194373 -0.2941413 -0.76977336 -0.62213844
000170 91 c0 10 bf c3 4c 07 bf 88 eb d2 be 77 14 88 bf
       -0.56543833 -0.52851504 -0.4119532 -1.0631245
000180 e8 cb 1f bf ac 4e 82 bf 25 d4 81 bf ef 7b 19 be
       -0.6242051 -1.0180259 -1.0142866 -0.14988683
000190 cc cb 8d 3d 62 de 13 3f b3 af 3a 3d 54 d6 3b 3e
       0.06923637 0.57761204 0.045577716 0.18343478
0001a0 aa e5 91 3e 15 1c bd 3d ba c0 d4 3d 4b 02 cd bb
       0.28495532 0.09233872 0.10388322 -0.006256377
0001b0 81 f5 13 be 23 3e 0f be 9b e5 b8 3e c8 f4 ef bd
       -0.14449121 -0.13988547 0.36112675 -0.1171661
0001c0 60 52 98 3d 34 6c 1f 3e 7e 68 95 bd 93 71 02 3e
       0.07437587 0.1556862 -0.07295321 0.12738638
0001d0 c9 8b df 3d 75 dd 03 3d 08 e5 0a be 0e d5 d8 3d
       0.10915334 0.03219362 -0.13563931 0.10587512
0001e0 88 9e 11 bd e5 fd be 3d 4d 32 84 be 5b 3a 45 3d
       -0.035551578 0.0932577 -0.25819626 0.048151355
0001f0 71 0a 91 be ff f0 e5 bd 86 02 0d 3d 08 da 0e bd
       -0.2832828 -0.11227607 0.034426235 -0.0348759
000200 a7 4c 6f bd f5 bb 38 3b 97 2e b0 bc ad 12 5f 3d
       -0.05842271 0.0028188203 -0.02150659 0.05446117
000210 b9 8f ae 3c 00 2d ac be 33 2a 7b bd 2f f1 11 3e
       0.021308767 -0.33628082 -0.06131954 0.1425216
000220 b5 9a 4e 3d 38 cc 9e bd e1 da d6 bc c4 94 f1 bd
       0.05044051 -0.077537954 -0.026227416 -0.11795953
000230 e1 f0 83 be 4d 21 25 bd d3 88 1e bc 0e 83 df 3c
       -0.25769714 -0.04031496 -0.009676176 0.027284171
000240 16 70 d4 3d 3e e2 1f bc e9 0f de 3c 50 3e 3b 3e
       0.10372941 -0.00975853 0.027107196 0.18285489
000250 ef 93 4c 3e 9a cb 1e 3d c4 b0 34 bf 15 ea 41 bf
       0.19978307 0.03876839 -0.7058222 -0.75747806
000260 bd cc 4d be 97 15 c7 bd 01 bd 50 be 1b 7c 33 bf
       -0.20097633 -0.09720915 -0.203846 -0.70111245
000270 a1 47 32 bf 73 7b db 3d 1d 18 01 bf 0e d7 70 3e
       -0.6964055 0.107169054 -0.5042742 0.23519537
000280 04 4d 4a bf 89 62 3d bf 6a 42 77 be 07 90 18 bf
       -0.79023767 -0.7397848 -0.24146429 -0.5959477
000290 94 78 a9 be f0 28 8f be 27 6a 16 be ad 02 8c be
       -0.33099806 -0.2796092 -0.14688931 -0.2734579
0002a0 63 16 95 be bd 98 ab be 4b 3f 14 be 8e 44 ac 3e
       -0.29118642 -0.33514968 -0.1447727 0.33646053
0002b0 f7 f9 58 bf 1f de ee be 9e 1d 55 bf d4 fe 35 be
       -0.84756416 -0.4665384 -0.8324832 -0.1777299
0002c0 1c 31 61 be cb 2c ad be 2a a0 59 bf 13 78 fb be
       -0.2199139 -0.33823237 -0.85010016 -0.49115047
0002d0 ab a8 16 3e 1d c9 87 bf 71 24 31 bf f6 fa 1a bf
       0.14712779 -1.060825 -0.6919623 -0.60539186
0002e0 8e 2c 19 bf 35 8a 47 be 35 0f 0a bf c1 31 79 be
       -0.5983361 -0.19486316 -0.53929454 -0.24335386
0002f0 7e b9 7f bd b0 e9 ec bd 8c 9b 9d be c7 a3 0b bf
       -0.06243276 -0.1156801 -0.30782735 -0.5454678
000300 96 6a 0b bf 9a 5d ab be 1c 17 c1 be 0f 6e a1 be
       -0.5445951 -0.3346985 -0.37712944 -0.3152928
000310 6f 03 25 bf e7 de 03 bf f4 31 e2 be 79 bb 59 be
       -0.64458364 -0.51511997 -0.44178736 -0.21262921

lstm.bias_hh_l1 f4 [200]
000000 e8 e5 36 bf 1f 6a 43 bf 5a 24 c4 be 36 34 d3 be
       -0.7144456 -0.763338 -0.38308984 -0.4125077
000010 b8 3f 74 ba 4e 56 b6 be 00 ec 43 bf 81 2d a0 3a
       -0.0009317356 -0.3561272 -0.7653198 0.0012220592
000020 5d ad 25 bf 60 66 54 be 47 80 4e bf 59 c4 fb be
       -0.64717656 -0.20742178 -0.80664486 -0.4917324
000030 d5 0f 4e be c8 5b 1c bf bb 4c a4 be ca c0 cc be
       -0.20123227 -0.6107755 -0.3208979 -0.39990836
000040 a9 8a c5 be 00 1a bf be b4 4b 2d bf 1d da b3 be
       -0.38582352 -0.37324524 -0.6769364 -0.35127345
000050 d4 51 c4 bd a6 a1 c3 3c 90 a7 62 bf bf dd 01 bf
       -0.0958592 0.02388079 -0.8853693 -0.5072898
000060 00 3a 40 bf 0a 25 79 be a0 bb cb be 43 d2 c5 be
       -0.750885 -0.24330536 -0.39791584 -0.3863698
000070 42 53 f2 be f2 be ea be ee e2 47 be 65 aa 86 bf
       -0.47329146 -0.45848805 -0.1952016 -1.052075
000080 33 ba 98 be c0 d4 3b bf f7 9b a5 be bd 3f 09 be
       -0.2982956 -0.73371506 -0.32345554 -0.1340322
000090 bc 57 b1 be 39 a3 59 be eb 11 73 3d 38 f9 4e be
       -0.3463725 -0.21253671 0.05934326 -0.20212257
0000a0 7a 8a 37 bf b8 95 05 bf d6 db de be 85 85 70 bf
       -0.71695673 -0.5218158 -0.43527097 -0.93953735
0000b0 1c bb 9d be d8 b3 a2 be 11 42 df be e1 7b 04 bf
       -0.30806816 -0.31777835 -0.43605092 -0.51751524
0000c0 1b 45 8e be 19 73 27 be 3c 33 ba be e6 f1 aa be
       -0.27787098 -0.163525 -0.36367214 -0.3338768
0000d0 5a 47 83 bf c1 e7 21 bf 2f 97 b9 3d c8 4e 25 bf
       -1.025615 -0.63244253 0.09062039 -0.64573336
0000e0 c0 7e 9a be f1 b0 38 bf 91 3d 18 bf 9a e7 e0 be
       -0.30174828 -0.7214499 -0.5946894 -0.43926698
0000f0 8f 66 65 bf c5 7d 52 bf eb 9c 88 3e 1c 13 28 bf
       -0.89609617 -0.8222316 0.2668222 -0.6565416
000100 4d 54 09 bf 5c 97 e4 bd 64 69 cb be 90 78 b5 bb
       -0.5364426 -0.11161682 -0.39728844 -0.005538054
000110 5c da a2 3c 94 73 92 bf 1f e8 45 bf 7a b5 b5 be
       0.019879512 -1.1441522 -0.77307314 -0.35490018
000120 28 c8 6a bf ed fa 85 bf 7a 17 21 bf 2a cc 5c be
       -0.91711664 -1.0467201 -0.6292645 -0.21562257
000130 d5 91 24 bf 4e d5 17 bf ef e1 f7 be 32 54 c3 be
       -0.6428502 -0.5930985 -0.4841456 -0.38150173
000140 38 f6 86 bd 97 a7 9e bf d0 82 48 bf 6b 58 81 bf
       -0.06589931 -1.2394894 -0.78324604 -1.0105108
000150 81 f8 c8 be c8 7d a0 bf 7f 0f 11 bf 75 f6 0e bf
       -0.39252093 -1.2538385 -0.5666427 -0.55844814
000160 1b a7 4b bf 37 cc 6a be 4e 10 81 bf e4 2b 05 bf
       -0.7955186 -0.22929464 -1.0083101 -0.52020097
000170 01 73 f6 be 21 f1 22 bf 7a c8 cb be d5 f3 86 bf
       -0.48134616 -0.63649184 -0.3980139 -1.0543162
000180 a4 ef 3c bf 48 80 8e bf 76 52 7e bf c6 65 c2 be
       -0.7380316 -1.1132898 -0.99344575 -0.37968272
000190 a1 9f 4f 3d a5 32 17 3f a1 22 3f be 60 69 56 3e
       0.050689343 0.5906165 -0.18665554 0.20938635
0001a0 77 c4 8a 3e f2 05 37 3e d2 c9 2e 3d 5b 5a 9d bd
       0.27103016 0.17873362 0.04267294 -0.076832496
0001b0 21 83 96 be cc 8d 2d be 0e 56 09 3f 4b 7e 04 3e
       -0.29396918 -0.16948622 0.53646934 0.12938802
0001c0 c8 30 55 bc 56 ab 64 3d dd ad 01 bd ef 40 cc 3d
       -0.013012119 0.05582746 -0.03165995 0.099733226
0001d0 39 21 2d 3e f9 76 94 bd 1c 03 c8 bc 95 5a 36 3e
       0.16907205 -0.07249255 -0.024415545 0.17807992
0001e0 e5 81 74 3c 66 d3 a0 3c ca 1e 4f be 5e 4a 6f bd
       0.014923547 0.019632053 -0.20226589 -0.05842053
0001f0 54 aa 02 be cc 91 d0 bd 3e 6f 5f 3e 3e a4 35 3d
       -0.12760288 -0.101840585 0.2181978 0.044346087
000200 db b1 c2 bd c9 7e 47 be cb fe 02 bd 26 94 9a bd
       -0.095065795 -0.19481958 -0.03198127 -0.07547788
000210 40 b8 5d 3e 4b b7 bc be c0 ba 1e bd fa 38 ca bc
       0.21652317 -0.3685859 -0.038752317 -0.024685372
000220 84 cc 0a 3e 1d ca bb bb 40 48 a3 3c e9 dc ff bd
       0.13554579 -0.005730881 0.019931912 -0.12493307
000230 01 96 f3 be 1c 00 f3 3d be df 44 3e aa 37 bb 3d
       -0.4757538 0.11865255 0.19225976 0.091414765
000240 2c 03 a0 bd 78 e7 49 3e 14 3c 57 3d 83 12 5d bc
       -0.07813105 0.19717205 0.05254753 -0.013493183
000250 32 92 45 3d 9d a4 9b 3d b4 9a 29 bf 42 87 16 bf
       0.048235126 0.07599757 -0.66251683 -0.5880014
000260 0c 33 37 3d 85 b5 8e 3c 76 58 cc bd aa 3b 31 bf
       0.044726416 0.01742054 -0.0997781 -0.69231665
000270 24 f8 55 bf 26 b3 b4 3b 32 13 0d bf 30 4c 66 3e
       -0.8358176 0.00551452 -0.55107415 0.2249
000280 3a a3 3e bf cd e9 5e bf 42 a8 22 bd 9a c2 26 bf
       -0.74467814 -0.870755 -0.039711244 -0.6514069
000290 72 ba c8 be 96 47 84 be be d5 4e bd 55 d6 89 bd
       -0.39204746 -0.25835866 -0.05049681 -0.06730334
0002a0 31 d6 e3 bd a4 85 76 be cc e3 5b be 3c 88 dc 3e
       -0.11124838 -0.24074417 -0.21473616 0.4307269
0002b0 33 7d 34 bf 89 60 9c be 0f 64 45 bf 75 48 4f be
       -0.7050354 -0.305424 -0.771058 -0.20242484
0002c0 4d 6a ad be 12 e8 2d be 21 9c 1e bf 45 34 3d bf
       -0.33870164 -0.16983059 -0.61956984 -0.7390788
0002d0 bb 02 92 3d 34 47 a0 bf 24 d8 06 bf 71 06 0f bf
       0.07129427 -1.252173 -0.52673554 -0.55869204
0002e0 92 6b 32 bf f7 f4 1d be 7c f9 c9 be a9 a2 a0 be
       -0.6969539 -0.15425478 -0.39448154 -0.313741
0002f0 b8 4d 69 bc ed 7e 9c be 5e 31 aa be ca d3 f7 be
       -0.014239721 -0.30565587 -0.3324079 -0.4840377
000300 67 18 c6 be 89 07 ab be 9d 44 d3 be 52 61 dc bd
       -0.38690493 -0.33404186 -0.41263285 -0.1076075
000310 a7 85 23 bf f4 5d d8 be b4 cc eb be 10 d3 89 be
       -0.6387581 -0.4225918 -0.46054614 -0.2691884
