models/lstm_petra.pth (torch, 372796 bytes, 21 tensors)

lstm.weight_ih_l0 f4 [200, 1]
0	0x3f903308	1.1265574
1	0x3f8bb74b	1.0915312
2	0xbd4fe832	-0.050758548
3	0x3f6bd4c4	0.9212153
4	0x3cbfed74	0.023428656
5	0x3e99f266	0.30067748
6	0xbe01303e	-0.12616059
7	0x3f7ab036	0.97925127
8	0x3e6aba9f	0.22922753
9	0xbd827381	-0.06369687
10	0xbf797284	-0.9744036
11	0xbf35cc44	-0.7101481
12	0x3d89de28	0.06731826
13	0x3f869e29	1.0517017
14	0x3fb12804	1.3840337
15	0x3d1f42ca	0.038882054
16	0x3d8aa71b	0.06770154
17	0x3fc31bc9	1.5242854
18	0xbe80bf97	-0.2514617
19	0x3f17f456	0.593572
20	0xbeb82e95	-0.3597304
21	0x3fbd0da8	1.4769793
22	0x3ed4620a	0.41481048
23	0x3fb00c4d	1.3753754
24	0xbf3d0c04	-0.7384646
25	0x3fb11da8	1.3837175
26	0xbdfe050b	-0.124033056
27	0xbee69579	-0.45035914
28	0x3f3fbad2	0.7489444
29	0x3e8d5f6c	0.27611864
30	0x3f884751	1.0646764
31	0x3be636b4	0.007025564
32	0x3f3c1c5b	0.73480767
33	0x3e9ebe9b	0.31004795
34	0x3f3e9c8e	0.74457633
35	0x3e7b65eb	0.24550597
36	0xbe9a4313	-0.301293
37	0x3fa067bb	1.2531656
38	0xbdd33104	-0.10312083
39	0x3f9aebe4	1.2103238
40	0x3cc1a98d	0.023640418
41	0xbe6a32f8	-0.22871006
42	0xbe58b2f8	-0.21162021
43	0xbf476685	-0.7789081
44	0x3df02fec	0.1172789
45	0x3df0b3e4	0.117530614
46	0xbf806806	-1.0031745
47	0x3f91eb9b	1.1400026
48	0xbf19fa0c	-0.60147166
49	0x3f983573	1.1891311
50	0x3f71d656	0.94467676
51	0x3f7c4382	0.9854051
52	0x3d80dd11	0.06292165
53	0x3f2d5619	0.677095
54	0xbe6307cb	-0.22170942
55	0xbe8c11eb	-0.2735742
56	0x3eeed3c2	0.46645933
57	0x3ed26c2b	0.4109815
58	0xbe868085	-0.26269928
59	0xbe31ae67	-0.17351685
60	0xbe91d432	-0.28482205
61	0xbe83402f	-0.25634906
62	0x3fcf79d2	1.6209052
63	0x3f473036	0.7780794
64	0x3f8b0a43	1.0862507
65	0x3ea0ae26	0.31382865
66	0xbeef5acb	-0.46748957
67	0x3f9ec120	1.2402687
68	0xbe9785d5	-0.29594293
69	0xbe9df346	-0.30849665
70	0xbd811196	-0.063021824
71	0x3f81bd62	1.013592
72	0x3f959056	1.1684673
73	0x3f92e8d8	1.1477308
74	0x3f1f66ee	0.62266433
75	0x3fa071f2	1.2534773
76	0x3c9072f5	0.01763294
77	0xbdeb47e3	-0.11488321
78	0x3efd1a97	0.4943435
79	0xbe205bb6	-0.15659985
80	0x3f690f59	0.91039044
81	0x3f18c7ef	0.59680074
82	0x3f4223c5	0.7583583
83	0xb9819e95	-0.0002472295
84	0x3f260598	0.64852285
85	0x3e30454e	0.17213938
86	0x3ed2de03	0.41185006
87	0x3f72eb90	0.9489069
88	0xbf01413f	-0.5049018
89	0x3f83d702	1.029999
90	0x3d8ff638	0.070293844
91	0x3e618abf	0.22025584
92	0x3f1b6515	0.60701114
93	0xbb99fcc7	-0.004699323
94	0xbcb76535	-0.022387126
95	0x3f26b0da	0.65113604
96	0xbf577ea5	-0.8417762
97	0x3f4192c9	0.756146
98	0x3f32d1e6	0.6985153
99	0x3f446d0c	0.7672889
100	0xc00aa982	-2.166596
101	0x4016a998	2.3541012
102	0x3f8e0bf2	1.1097395
103	0xc00da175	-2.2129796
104	0x3f8bf924	1.0935407
105	0x3f71d346	0.94463
106	0xbf69fca6	-0.91401136
107	0x3e65e4b9	0.22450532
108	0xbf7058e8	-0.9388566
109	0xbf831bbb	-1.0242838
110	0xbf301ee5	-0.6879714
111	0xbf327c2e	-0.69720733
112	0x3f9d7e77	1.2304219
113	0x3ec1c0c3	0.37842378
114	0xbfb565e9	-1.4171726
115	0x3f85f0c0	1.0464096
116	0xbf6ec38f	-0.9326715
117	0xbfa75c23	-1.3074993
118	0x3f42d74b	0.7610976
119	0x3f91fab1	1.140463
120	0xbf794d91	-0.9738398
121	0x3ff3fb75	1.9061114
122	0x3faa5eb8	1.3310156
123	0xbffa1d42	-1.9540179
124	0x3f57edf0	0.8434744
125	0x3fe00171	1.750044
126	0x3f8f1c60	1.1180534
127	0x3f7ae6da	0.980085
128	0xbf796843	-0.97424716
129	0x3f8193ba	1.0123208
130	0x4002eb91	2.0456278
131	0xbf8b97b0	-1.0905666
132	0x3f5f7a08	0.8729558
133	0xbf863c84	-1.0487218
134	0x3f2213d2	0.63311493
135	0x3f906f61	1.128399
136	0xbf7678fd	-0.96278363
137	0xbfd27b04	-1.6443791
138	0x3f668be9	0.90057236
139	0x3fc015fd	1.500671
140	0xbf8af3a9	-1.0855609
141	0xbf8b4cc9	-1.0882808
142	0x3f8f8025	1.1210982
143	0xbf87dabd	-1.0613629
144	0xbf7df9b7	-0.9920916
145	0x3f8b771a	1.0895722
146	0x3f85a40f	1.0440692
147	0xc00bcb7c	-2.1842947
148	0xbf82e02e	-1.0224664
149	0xc023bf5f	-2.5585554
150	0x3faa65b4	1.3312287
151	0x3f8e8172	1.1133254
152	0xbe7fc9be	-0.24979302
153	0x3f9132c3	1.1343616
154	0xbe8d2168	-0.2756455
155	0xbe94653d	-0.2898349
156	0xbe88fb71	-0.26754335
157	0x3fa2e0cf	1.2724856
158	0xbe586d94	-0.2113555
159	0xbf0b9423	-0.54522914
160	0xbf606246	-0.87649953
161	0xbf4e9a01	-0.8070374
162	0xbd83f1cf	-0.06442606
163	0x3f789b83	0.9711229
164	0x3faf3f06	1.3691108
165	0xbea44b55	-0.32088724
166	0xbea06a82	-0.3133126
167	0x3fb9e281	1.4522249
168	0xbf177785	-0.5916675
169	0x3eb227fb	0.34796128
170	0xbf0d3c02	-0.5516969
171	0x3fedfd5d	1.8592945
172	0x3ec16c78	0.37778068
173	0x3fbe28bd	1.4856182
174	0xbf748e06	-0.9552921
175	0x3fc39477	1.5279683
176	0xbe205a43	-0.15659432
177	0xbf42340a	-0.75860655
178	0x3f80890a	1.0041821
179	0xbdb2f580	-0.08738232
180	0x3f91b63d	1.138374
181	0xbe2f6603	-0.17128758
182	0x3f293b5e	0.6610621
183	0x3e87e748	0.2654364
184	0x3f5cac29	0.86200196
185	0x3e907636	0.28215188
186	0xbef46409	-0.4773257
187	0x3f9b5507	1.2135323
188	0xbeeb1584	-0.45914853
189	0x3f9215b7	1.1412877
190	0x3d1a7bc5	0.037715692
191	0xbedac989	-0.42731884
192	0xbeff3cf5	-0.49851194
193	0xbf5adba8	-0.8549142
194	0xbe11762f	-0.1420524
195	0xbca05bb0	-0.01957497
196	0xbfb22ca5	-1.3919874
197	0x3fa07bcd	1.2537781
198	0xbf50811d	-0.8144701
199	0x3fa6d9ab	1.3035177

lstm.weight_hh_l0 f4 [200, 50]
0	0x3edb0151	0.42774442
1	0xbe27cd4f	-0.16386913
2	0xbd83165c	-0.06400749
3	0x3f04f79d	0.5194033
4	0x3d9ff2e3	0.07809999
5	0xbe80bb66	-0.25142974
6	0x3e22adab	0.15886562
7	0x3f8c8a10	1.0979633
8	0xbdf0ffd9	-0.11767549
9	0xbc59d8f0	-0.013296351
10	0x3ed1bb0c	0.40963018
11	0x3ec6d2fe	0.3883285
12	0xbea12b05	-0.31478134
13	0xbf41a831	-0.75647265
14	0xbf46b87a	-0.7762524
15	0xbec9e592	-0.3943296
16	0xbd2caef2	-0.04215903
17	0xbf6ac54d	-0.9170731
18	0xbcae0398	-0.021241948
19	0x3eca17c0	0.39471245
20	0xbe84e307	-0.25954458
21	0xbeb7cda6	-0.35899085
22	0xbe4decc8	-0.20109856
23	0x3e1ec0ce	0.15503237
24	0xbec0fe19	-0.3769386
25	0xbe8e4592	-0.27787453
26	0xbea86fbd	-0.3289775
27	0x3e23e1cd	0.16004105
28	0x3ee26e65	0.4422485
29	0xbe1a6ea5	-0.1508127
30	0xbe0d9866	-0.13827667
31	0x3ea3c72f	0.31987903
32	0x3e20892b	0.15677325
33	0x3ec9b520	0.39396
34	0x3e871d72	0.26389652
35	0xbe3951c6	-0.180976
36	0xbdde9dd0	-0.10869944
37	0xbe75ec94	-0.24016029
38	0xbc3e5881	-0.011617781
39	0x3eaddc37	0.33957073
40	0x3ba8a3a2	0.0051464597
41	0x3e298b21	0.1655698
42	0xbdae1e5e	-0.08501886
43	0xbcc56ffa	-0.024101246
44	0xbd01498f	-0.03156429
45	0x3c399b24	0.011328492
46	0xbd0057fc	-0.03133391
47	0x3e973a83	0.29536828
48	0xbc4094a8	-0.011754192
49	0xbd779c70	-0.060451925
50	0x3d9eab53	0.07747521
51	0xbc742782	-0.0149019975
52	0xbdef6a69	-0.11690218
53	0x3eea356e	0.4574389
54	0x3ddbd017	0.10733049
55	0xbd91de6b	-0.07122501
56	0xbea10717	-0.31450722
57	0x3f8037a8	1.0016985
58	0x3d564a34	0.05231686
59	0xbe9b4aec	-0.30330598
60	0x3e689d13	0.22716169
61	0x3f0a29c1	0.5396996
62	0xbe783357	-0.24238335
63	0xbf422047	-0.758305
64	0xbf224cee	-0.63398635
65	0xbec04c81	-0.37558368
66	0x3d5ead15	0.054364283
67	0xbf10567f	-0.5638198
68	0x3eaeec73	0.3416477
69	0x3e99391d	0.29926386
70	0xbe9a7e83	-0.30174646
71	0x3e179818	0.14804113
72	0xbd975973	-0.07390108
73	0xbe941b3a	-0.28927022
74	0xbe62ab37	-0.22135626
75	0x3d9c9dbe	0.076472744
76	0xbe874a42	-0.26423842
77	0x3e8bfec1	0.273428
78	0x3f0b2777	0.54357094
79	0xbe2a7ca4	-0.16649109
80	0x3c39ac0c	0.011332523
81	0x3e84776d	0.25872365
82	0x3ecfb083	0.40564355
83	0x3e5d0fc6	0.21588048
84	0x3eb6016d	0.35547963
85	0xbe2366fd	-0.15957256
86	0xbeb6ef60	-0.35729504
87	0xbed27f2c	-0.4111265
88	0x3cd6cd6a	0.026220996
89	0x3eef7157	0.4676616
90	0x3e6886dd	0.22707696
91	0x3d6e0da4	0.058118477
92	0xbdc8561e	-0.097820505
93	0xbe93f2cb	-0.28896174
94	0x3dc90bfb	0.09816738
95	0x3d23cbbe	0.039989226
96	0x3d9c87e7	0.07643109
97	0xbd577992	-0.052606173
98	0xbd66a749	-0.05631188
99	0xbec2ad19	-0.38022688
100	0xbda30f64	-0.0796192
101	0xbe4db6d2	-0.20089272
102	0xbeba5cf2	-0.36399037
103	0x3f0b4dee	0.54415786
104	0xbe41adb0	-0.18913913
105	0xbf03cc7f	-0.5148391
106	0x3ec26a67	0.37971804
107	0x3f5e0d55	0.86739093
108	0x3ebbcc79	0.36679438
109	0x3d9ddafc	0.077077836
110	0x3ed4592c	0.41474283
111	0x3f5edb88	0.8705373
112	0xbdb5eda5	-0.08883218
113	0xbe7b1c39	-0.24522485
114	0xbf190544	-0.5977366
115	0xbe430ca8	-0.19047797
116	0x3e9aea17	0.3025672
117	0xbe40efb9	-0.18841447
118	0xbead87f3	-0.33892784
119	0xbfa09856	-1.2546489
120	0x3ea4efc3	0.32214174
121	0x3e9dd97e	0.30829996
122	0xbe80315d	-0.2503766
123	0xbe6ad34c	-0.22932166
124	0xbefaaf16	-0.48961705
125	0x3ec5c9f7	0.3863065
126	0xbecd95b6	-0.40153283
127	0xbf05d3ae	-0.5227612
128	0x3f63587e	0.88806903
129	0x3ad5314e	0.0016265304
130	0xbe645b45	-0.22300442
131	0x3e46789e	0.1938195
132	0x3e59ecaf	0.21281694
133	0x3e3879a9	0.1801516
134	0x3f5133d9	0.8171974
135	0xbeb31a5a	-0.34981042
136	0x3ed44b72	0.4146381
137	0xbf249a1a	-0.6429764
138	0xbeebe7b9	-0.46075228
139	0x3ef6cc7d	0.48202887
140	0x3eea71d7	0.45789978
141	0x3e1c25cd	0.15248795
142	0xbe5a49d7	-0.2131723
143	0x3ee6f99e	0.45112318
144	0x3ef6a551	0.48173
145	0x3d7f12fe	0.06227397
146	0xbf16cf1f	-0.5890979
147	0x3e9e9c9a	0.30978853
148	0x3e79caf6	0.2439383
149	0x3e7f52fe	0.24934003
150	0xbe0752e7	-0.13215218
151	0x3cdeffc1	0.027221562
152	0xbee6b8f6	-0.4506299
153	0x3f00fd82	0.5038682
154	0xbe811a6d	-0.25215474
155	0xbe48794e	-0.19577524
156	0x3e55df2c	0.20885915
157	0x3f8e63dd	1.1124226
158	0x3e2037d3	0.15646295
159	0xbc3ee80f	-0.011652007
160	0x3f654e1e	0.8957232
161	0x3f2cd0f7	0.67506355
162	0xbf4e5fb1	-0.80614763
163	0xbe223adb	-0.15842764
164	0xbf5efab2	-0.8710128
165	0xbed39cff	-0.41330716
166	0x3dd194cf	0.10233461
167	0xbf8c7bb1	-1.0975248
168	0x3e931a0e	0.28730816
169	0x3f4c4641	0.797947
170	0xbe9d46c3	-0.3071805
171	0x3e435b66	0.19077834
172	0xbf09537d	-0.5364302
173	0xbf278daa	-0.6545054
174	0xbf14d102	-0.5813142
175	0x3f421c6c	0.7582462
176	0xbecf2edd	-0.4046544
177	0x3e8e2a48	0.27766633
178	0x3db15c72	0.08660211
179	0xbe950551	-0.2910562
180	0xbe68e4a1	-0.22743465
181	0x3f5a1382	0.85186017
182	0x3e3caa8d	0.18424435
183	0x3f249b36	0.64299333
184	0x3ef5f722	0.4804011
185	0xbf3edd1d	-0.7455614
186	0x3ea811e3	0.32826146
187	0xbf30dbe0	-0.690855
188	0x3e948188	0.29005075
189	0x3f36b547	0.7137036
190	0x3f0712ba	0.5276295
191	0x3edd43d7	0.4321582
192	0xbe872bed	-0.264007
193	0xbddac35e	-0.106817946
194	0x3edf7f1d	0.43651667
195	0xbde6a862	-0.11262585
196	0x3ec5b080	0.3861122
197	0xbde68cf7	-0.11257356
198	0x3e094a9e	0.1340737
199	0xbf1382d3	-0.57621497
200	0xbc31ee06	-0.010859972
201	0xbe89a138	-0.26880813
202	0xbe9913c4	-0.29897892
203	0x3ecf6f6f	0.40514705
204	0x3e73ad5b	0.23796599
205	0x3d406e82	0.04698039
206	0x3eddc5c4	0.43314946
207	0x3e8fd6cd	0.28093567
208	0x3d2ddd14	0.042447165
209	0xbe59e330	-0.21278071
210	0xbddc95c0	-0.1077075
211	0x3eace4a4	0.3376819
212	0xbe9f50bf	-0.31116292
213	0xbeca000d	-0.39453164
214	0xbf2c6026	-0.6733421
215	0xbe8b4c7c	-0.2720679
216	0x3dc01ca4	0.09380463
217	0xbd0d1c87	-0.034451034
218	0xbe225fcf	-0.1585686
219	0xbee1a600	-0.4407196
220	0x3ea664ca	0.3249877
221	0x3f07fca6	0.53119886
222	0xbd819627	-0.063274674
223	0xbd3a4aeb	-0.045481604
224	0xbec6927d	-0.38783637
225	0x3e8d79c1	0.27631953
226	0xbee293ae	-0.44253296
227	0xbea0d129	-0.31409577
228	0x3d5e2002	0.054229744
229	0x3e2a0724	0.16604286
230	0xbe7a1655	-0.24422581
231	0x3e944c9d	0.289647
232	0xbe25ed99	-0.16203918
233	0xbe630c0a	-0.22172561
234	0x3ea62efb	0.32457718
235	0x3ce29018	0.0276566
236	0x3ea3bc26	0.31979483
237	0xbebd38e0	-0.36957455
238	0xbe8b1333	-0.27163085
239	0x3ea231c3	0.3167859
240	0x3e7bb881	0.24582101
241	0x3e7ed7d2	0.24887016
242	0xbd53db27	-0.05172267
243	0x3e9ba3be	0.30398363
244	0x3e83530f	0.25649306
245	0xbdf4962f	-0.11942708
246	0xbeb5776c	-0.35442674
247	0x3dba745a	0.091042235
248	0x3e6cdee7	0.23131905
249	0x3e793a3e	0.24338624
250	0xbdb116ca	-0.08646925
251	0xbd3be7d6	-0.045875393
252	0xbed60b26	-0.4180538
253	0x3e925c04	0.28585827
254	0xbda01ba0	-0.07817769
255	0xbd33fb18	-0.043940634

lstm.bias_ih_l0 f4 [200]
0	0xbeec2166	-0.4611923
1	0xbf0cc2ac	-0.54984546
2	0xbe9a9505	-0.30191818
3	0xbf0c1f8a	-0.54735625
4	0xbf2ddfd1	-0.6791964
5	0xbf132bff	-0.5748901
6	0xbf3b1272	-0.7307502
7	0xbe77c5e2	-0.2419658
8	0xbf497bc6	-0.7870449
9	0xbf2c52e0	-0.6731396
10	0xbf175731	-0.5911742
11	0xbf6d2d07	-0.9264683
12	0xbe803a58	-0.25044513
13	0xc00ae4b5	-2.1702092
14	0xbf3b1079	-0.7307201
15	0xbe38d425	-0.18049677
16	0xbf2ef62c	-0.6834438
17	0xbf06cda8	-0.52657557
18	0xbf812d46	-1.0091941
19	0xbf6e451c	-0.930742
20	0xbf622b65	-0.88347465
21	0xbf3c9404	-0.73663354
22	0xbf48f364	-0.78496385
23	0xbf1c90aa	-0.6115824
24	0xbf3e2ac8	-0.7428403
25	0xbf050b6c	-0.51970553
26	0x3ca52db6	0.020163398
27	0xbf662cf0	-0.8991232
28	0xbefb109b	-0.49036106
29	0xbef9e8b9	-0.48810366
30	0xbf03f829	-0.5155054
31	0xbe523b89	-0.20530523
32	0xbed7465a	-0.4204586
33	0xbd1bb1ff	-0.038011547
34	0xbefd512c	-0.49475992
35	0x3ccc1db2	0.024916504
36	0xbf8e3373	-1.1109451
37	0xbf160af3	-0.5861046
38	0xbf3d1e56	-0.73874414
39	0xbf3a2b4b	-0.7272231
40	0xbe85d13f	-0.26136205
41	0xbe8deb2b	-0.2771848
42	0xbda681ce	-0.08130227
43	0xbf3dd1f3	-0.7414848
44	0xbef590bf	-0.47961995
45	0xbe578efa	-0.21050635
46	0xbf1ce2cd	-0.6128357
47	0xbf041a2c	-0.51602435
48	0xbf09c877	-0.5382151
49	0xbe46cb8f	-0.19413589
50	0xbf704923	-0.938616
51	0xbf928f26	-1.1449935
52	0xc003aeb6	-2.0575385
53	0xbfbd0dce	-1.4769838
54	0xbfbcb05f	-1.4741324
55	0xbf7dd8d1	-0.9915896
56	0xbf8209cf	-1.0159243
57	0x3db76b14	0.089559704
58	0xbf9ba0dc	-1.2158465
59	0xbfa1c475	-1.2638079
60	0xbf60a8fe	-0.8775786
61	0xbf845ee1	-1.0341455
62	0xbfa865df	-1.3156089
63	0xbf8abc30	-1.083868
64	0xbf09be6f	-0.53806204
65	0xc001ad39	-2.0261977
66	0xbfa4b63e	-1.2868116
67	0xbe03d5fd	-0.12874599
68	0xbf86dd26	-1.0536239
69	0xbea770ca	-0.3270324
70	0xbfc33111	-1.5249349
71	0xbfa22e18	-1.2670317
72	0xbe0f8d35	-0.1401871
73	0xbf4c1899	-0.79725033
74	0xbfd817fd	-1.6882321
75	0xbf54216b	-0.8286349
76	0xbffcf754	-1.9762979
77	0xbf93114e	-1.1489656
78	0xbf323700	-0.69615173
79	0xbf6c8ce2	-0.9240247
80	0xbfdae3a3	-1.7100719
81	0xc018bffd	-2.386718
82	0xbe1b19d9	-0.15146579
83	0xbfa057ca	-1.2526791
84	0xbe84b6c1	-0.2592068
85	0xbfba2123	-1.4541363
86	0xbf5c5066	-0.8606018
87	0xbed83c81	-0.4223366
88	0xbf8a1d8c	-1.0790267
89	0x3d2a9a4a	0.041651048
90	0xbff82a91	-1.938799
91	0xbff27f60	-1.8945122
92	0xbff6df66	-1.9286926
93	0xbff30fa0	-1.8989143
94	0xbfe6929d	-1.8013493
95	0xbfd3640d	-1.6514908
96	0xbe851b2d	-0.25997296
97	0xbf6bace3	-0.9206068
98	0xbfe82528	-1.8136339
99	0xbe0e63d9	-0.13905276
100	0x3ec3f756	0.3827464
101	0xbe4a905e	-0.19781634
102	0x3eb7467a	0.35795957
103	0x3a5c3ba7	0.0008401223
104	0x3e9263a1	0.28591636
105	0x3ed52393	0.41628703
106	0xbe6ba16d	-0.23010798
107	0x3e54f80d	0.20797749
108	0xbed65591	-0.41862157
109	0xbea0a791	-0.31377843
110	0xbf25e616	-0.6480421
111	0xbf21259f	-0.6294803
112	0x3ee09326	0.43862265
113	0x3e1c4432	0.1526039
114	0x3ecd20cb	0.40064082
115	0x3ee6032f	0.44924304
116	0xbe9a79dc	-0.30171096
117	0x3f173ff0	0.59081936
118	0x3ed19bf3	0.40939292
119	0x3e840078	0.25781608
120	0xbec386aa	-0.38188678
121	0xbecb9064	-0.397586
122	0x3e81b54b	0.25333628
123	0x3f0126eb	0.5045001
124	0x3eeecf0e	0.46642345
125	0xbef3b491	-0.475987
126	0x3e955871	0.29169038
127	0x3ed4329b	0.4144486
128	0xbe83464c	-0.2563957
129	0x3ebe8360	0.37209606
130	0xbe8b0d0c	-0.2715839
131	0xbeb18202	-0.346695
132	0x3e127196	0.14301142
133	0xbe9e376f	-0.30901667
134	0x3e4b23b4	0.19837838
135	0x3ea255bf	0.31706044
136	0xbea63b2c	-0.3246702
137	0x3d9ef690	0.07761872
138	0x3ef5bcf1	0.47995713
139	0xbe7cef0c	-0.24700564
140	0xbe9dbbfd	-0.30807486
141	0xbea962c1	-0.33083156
142	0x3ee35bbe	0.4440593
143	0xbe955172	-0.291637
144	0xbe96bcaa	-0.29440814
145	0x3ea9cde9	0.3316491
146	0x3e8fbfc4	0.28075993
147	0x3ec02d3d	0.37534514
148	0xbeb27a2f	-0.34858844
149	0x3e0293dd	0.12751718
150	0xbeccd5f1	-0.40006974
151	0xbe8dbc53	-0.27682742
152	0xbe91fd49	-0.28513554
153	0xbea5ef71	-0.32409242
154	0xbf0586ee	-0.5215901
155	0xbec43f16	-0.3832938
156	0xbf69a971	-0.9127417
157	0xbd1cb949	-0.03826264
158	0xbedc4d1a	-0.43027574
159	0xbf05aee9	-0.52220017
160	0xbf5f5968	-0.872458
161	0xbf5a017a	-0.85158503
162	0xbefecfe9	-0.49767998
163	0xc0119e18	-2.2752743
164	0xbf487049	-0.78296334
165	0xbc2d942c	-0.010594409
166	0xbf418a94	-0.7560208
167	0xbef00396	-0.46877736
168	0xbf80b4e0	-1.0055199
169	0xbf49a9d7	-0.7877478
170	0xbf33786a	-0.7010561
171	0xbf2422bc	-0.641155
172	0xbf1845d9	-0.5948158
173	0xbefbd408	-0.49185205
174	0xbf5caff2	-0.8620597
175	0xbf12a835	-0.57287914
176	0xbd6bb335	-0.057543952
177	0xbf886840	-1.0656815
178	0xbf192dec	-0.59835696
179	0xbed165a8	-0.4089787
180	0xbeb76027	-0.35815546
181	0xbea8c55e	-0.3296308
182	0xbedfbb11	-0.43697408
183	0xbe7056b4	-0.23470575
184	0xbf267e14	-0.6503613
185	0xbe47a9b5	-0.19498332
186	0xbf336361	-0.70073515
187	0xbf23d572	-0.63997567
188	0xbf2bbde3	-0.6708662
189	0xbf2074d5	-0.6267827
190	0xbebc4030	-0.3676772
191	0xbd7f378f	-0.062308844
192	0xbda3a3a1	-0.07990194
193	0xbefcfa6d	-0.4940981
194	0xbf08cb6c	-0.534354
195	0xbe7249a5	-0.23660906
196	0xbc78df0d	-0.015189898
197	0xbe068466	-0.13136443
198	0xbec8e71f	-0.3923883
199	0xbe611dad	-0.21983977

lstm.bias_hh_l0 f4 [200]
0	0xbee82ebe	-0.4534816
1	0xbee48154	-0.4462992
2	0xbe984457	-0.2973964
3	0xbec69a36	-0.3878953
4	0xbedf7a5b	-0.43648037
5	0xbf04fe9e	-0.51951015
6	0xbf565de4	-0.83737016
7	0xbea1395c	-0.31489074
8	0xbf5ea003	-0.8696291
9	0xbf0e8479	-0.5567089
10	0xbef819bf	-0.48457143
11	0xbf406a6f	-0.75162405
12	0xbe53ea64	-0.20694882
13	0xc012828f	-2.2892187
14	0xbf3c8776	-0.73644197
15	0xbe8ef7fd	-0.27923575
16	0xbf27457c	-0.653404
17	0xbf10db25	-0.5658439
18	0xbf6a00fa	-0.9140774
19	0xbf4ddc9f	-0.80414766
20	0xbf6859e8	-0.90762186
21	0xbf087658	-0.5330558
22	0xbf4053a7	-0.75127643
23	0xbf37e3a5	-0.71831733
24	0xbf2fc723	-0.68663234
25	0xbf2c5bbe	-0.6732749
26	0xbde0c0b4	-0.10974255
27	0xbf401fc5	-0.75048476
28	0xbf22d8b8	-0.63611937
29	0xbed993b5	-0.42495504
30	0xbf179cd3	-0.5922367
31	0xbdf9ebdc	-0.1220319
32	0xbf034cc4	-0.5128901
33	0x3c3d9bfa	0.011572832
34	0xbf154073	-0.58301467
35	0xbd97be56	-0.074093506
36	0xbf636080	-0.8881912
37	0xbec286b8	-0.37993407
38	0xbf60d903	-0.87831134
39	0xbf356257	-0.7085318
40	0xbe9c74f3	-0.30557975
41	0xbe8ff7e4	-0.28118813
42	0xbdc770dd	-0.09738324
43	0xbf26d895	-0.6517423
44	0xbee14c7c	-0.44003665
45	0xbede9216	-0.4347083
46	0xbf30a8da	-0.6900765
47	0xbee58fac	-0.44836175
48	0xbf03c5af	-0.51473516
49	0xbebe19b0	-0.37128973
50	0xbf5b7e7c	-0.85739875
51	0xbfa29efe	-1.270477
52	0xbff9251f	-1.9464453
53	0xbfbd4130	-1.4785519
54	0xbfd1d771	-1.6393872
55	0xbf904786	-1.1271827
56	0xbfa31bda	-1.2742875
57	0xbd67431c	-0.056460485
58	0xbfa9a68d	-1.3253952
59	0xbfaee052	-1.3662207
60	0xbf72571a	-0.94664156
61	0xbf76c5d7	-0.9639563
62	0xbf912523	-1.1339458
63	0xbf91a114	-1.1377282
64	0xbf1f2e79	-0.62180287
65	0xbffcaedc	-1.9740863
66	0xbfb0baf6	-1.3807056
67	0xbc85991a	-0.016308356
68	0xbf60544d	-0.8762863
69	0xbe9d2723	-0.3069392
70	0xbfc1c76e	-1.5138986
71	0xbf98c5ba	-1.1935341
72	0xbebf8372	-0.37404972
73	0xbf8866bb	-1.0656351
74	0xbfc210f0	-1.5161419
75	0xbf49e79b	-0.78869027
76	0xbfe480e0	-1.785183
77	0xbfa09d6c	-1.2548041
78	0xbf1bc8ee	-0.6085347
79	0xbf3b0cd4	-0.7306645
80	0xbfbacd1e	-1.4593847
81	0xc0145761	-2.3178332
82	0xbdfc658f	-0.12324058
83	0xbf9689c1	-1.1760789
84	0xbe67a475	-0.22621329
85	0xbfbfa00c	-1.4970717
86	0xbf7a1869	-0.97693497
87	0xbea8ad87	-0.3294489
88	0xbf8c90c6	-1.0981681
89	0xbe398d24	-0.18120247
90	0xbffc043e	-1.9688795
91	0xbfe5d36d	-1.7955147
92	0xbfe856e9	-1.8151523
93	0xbfea37f0	-1.8298321
94	0xbfcfe003	-1.6240238
95	0xbfd49741	-1.6608659
96	0xbec3d704	-0.3824998
97	0xbf89c47e	-1.076309
98	0xbfebc9de	-1.842098
99	0xbd96cc03	-0.07363131
100	0x3ec69e65	0.3879272
101	0xbe42d5c1	-0.19026853
102	0x3ec1248d	0.377232
103	0x3e1df048	0.15423691
104	0x3eb70eea	0.35753566
105	0x3e87cc95	0.2652327
106	0xbe9d4fa8	-0.30724835
107	0x3e37ea53	0.17960481
108	0xbe627519	-0.22114982
109	0xbef04abf	-0.46932027
110	0xbf0b61b4	-0.5444596
111	0xbf58d49b	-0.8469941
112	0x3eb81897	0.3595626
113	0x3dbdf118	0.092745006
114	0x3e55111a	0.20807305
115	0x3e834a78	0.25642753
116	0xbe728d45	-0.23686703
117	0x3edf644f	0.43631217
118	0x3ed5a92b	0.41730627
119	0x3e95e4b7	0.29276058
120	0xbedc2f6c	-0.4300493
121	0xbf14ca9d	-0.58121663
122	0x3e7cd1ca	0.24689403
123	0x3f06e482	0.52692425
124	0x3f024ec5	0.5090144
125	0xbf082938	-0.53187895
126	0x3edb0067	0.42773744
127	0x3ea2627c	0.31715763
128	0xbe927d78	-0.2861135
129	0x3e5a00e2	0.212894
130	0xbe406345	-0.18787868
131	0xbeeecea1	-0.4664202
132	0x3e3cf5a1	0.18453075
133	0xbec71db3	-0.38889846
134	0x3e8eb1c2	0.27869993
135	0x3ed963bf	0.42458913
136	0xbe37c013	-0.17944364
137	0x3e2fc906	0.17166528
138	0x3ec0f881	0.37689593
139	0xbdd84eb8	-0.105618894
140	0xbebed256	-0.3726985
141	0xbed9b08b	-0.42517504
142	0x3ea68b0b	0.32527956
143	0xbef4fc49	-0.47848728
144	0xbeb27407	-0.34854147
145	0x3e819d79	0.25315455
146	0x3eac9364	0.337062
147	0x3e3b2216	0.18274722
148	0xbed8cec6	-0.42345256
149	0x3d7a0d25	0.06104769
150	0xbeb4622a	-0.35231143
151	0xbe886bd4	-0.26644766
152	0xbea0dcf8	-0.31418586
153	0xbec14e92	-0.37755257
154	0xbf11f133	-0.57008666
155	0xbe8734b2	-0.2640739
156	0xbf56ebf5	-0.8395379
157	0x3d299dda	0.041410305
158	0xbf285438	-0.6575351
159	0xbf17ee40	-0.59347916
160	0xbf648e19	-0.89279324
161	0xbf8a6bfb	-1.0814203
162	0xbee2c13d	-0.44288054
163	0xc00ddd4f	-2.2166326
164	0xbf0d9bea	-0.5531603
165	0xbd1dbe08	-0.038511306
166	0xbf1528b1	-0.58265215
167	0xbeaff4ba	-0.343664
168	0xbf71fcc1	-0.94526297
169	0xbf7be0d8	-0.9838996
170	0xbf3bc638	-0.7334933
171	0xbeebddd3	-0.46067676
172	0xbf07af42	-0.530018
173	0xbeefcd49	-0.46836308
174	0xbf4f3074	-0.8093331
175	0xbf151294	-0.5823147
176	0x3cad8915	0.02118353
177	0xbf902a50	-1.1262913
178	0xbf0c2daf	-0.5475721
179	0xbe899f9e	-0.2687959
180	0xbe84cf1a	-0.25939256
181	0xbec387e5	-0.38189617
182	0xbefff0a1	-0.49988273
183	0x3b997075	0.0046825954
184	0xbf24f22a	-0.64432013
185	0xbe5f84d6	-0.21828017
186	0xbf355e9c	-0.7084749
187	0xbf258ef6	-0.64671266
188	0xbf1c83db	-0.61138695
189	0xbef1c677	-0.4722173
190	0xbf11d847	-0.5697064
191	0xbdf95140	-0.121737
192	0xbe4d5629	-0.20052399
193	0xbeb4c2d0	-0.3530488
194	0xbf064e95	-0.52463657
195	0xbea0352e	-0.31290573
196	0x3e43ab31	0.19108273
197	0xbea73e36	-0.3266465
198	0xbe524307	-0.20533381
199	0xbebab215	-0.3646399

lstm.weight_ih_l1 f4 [200, 50]
0	0xbe0142da	-0.12623158
1	0xbe449c29	-0.19200195
2	0xbd870506	-0.06592755
3	0x3dfa5488	0.12223154
4	0x3e949df3	0.29026756
5	0x3d4efc0c	0.05053334
6	0x3ee4c63e	0.44682497
7	0xbe07406a	-0.13208166
8	0x3dc935fc	0.0982475
9	0x3e88089c	0.26569068
10	0x3feb5d8e	1.8387926
11	0x40428280	3.039215
12	0xbf44a929	-0.7682062
13	0x3f82e78a	1.022691
14	0xbfa0589d	-1.2527043
15	0xbcb5fee7	-0.022216273
16	0x3cc36350	0.023851067
17	0xc00e4edf	-2.223564
18	0xbecc1178	-0.39857078
19	0xbf431235	-0.76199657
20	0x3dc229c6	0.09480624
21	0x3f2fa788	0.6861501
22	0xc01eb9ae	-2.480083
23	0xbf9c63fc	-1.2218013
24	0xbfe64c20	-1.7991982
25	0x3f98b26c	1.192945
26	0xbe8fd0eb	-0.2808908
27	0x3c64276a	0.013925413
28	0x3f374a98	0.71598196
29	0xbdaa85c2	-0.083262935
30	0xbdd17cd5	-0.10228888
31	0xbc2ab1b1	-0.0104183415
32	0xbe8f816b	-0.28028426
33	0xbef63a55	-0.4809138
34	0x3e10cc39	0.14140405
35	0x3e8ca9a3	0.27473173
36	0x3e842c09	0.25814846
37	0xbf13b747	-0.57701534
38	0xbdde2520	-0.10846925
39	0x3f7282a3	0.94730586
40	0x3db53b04	0.08849147
41	0x3f433dc2	0.7626611
42	0xbe585fc7	-0.21130286
43	0x3f4bcbfb	0.79608124
44	0xbdd4992f	-0.1038078
45	0xbdf4747e	-0.119362816
46	0x3c91450a	0.017733116
47	0x3e4e49c2	0.20145324
48	0x3f00dc2f	0.50335974
49	0x3ed3ece8	0.41391683
50	0x3e81235f	0.25222299
51	0x3c63e6ea	0.013910035
52	0x3e810528	0.25199246
53	0x3e26b8a9	0.1628138
54	0x3ea9ea31	0.33186486
55	0x3ed84f6b	0.4224809
56	0x3cf1f1e9	0.029534297
57	0x3d279501	0.040913586
58	0xbe61e54f	-0.2206013
59	0x3e188aa7	0.14896642
60	0x3e32cfb4	0.17462045
61	0x3e96bd0b	0.29441103
62	0xbee8db41	-0.45479777
63	0x3e145c5c	0.14488357
64	0xbf2005d7	-0.6250891
65	0xbedbb6d8	-0.42912936
66	0xbf4ba323	-0.795458
67	0xbe9af6b2	-0.3026634
68	0xbe1f7b3b	-0.15574352
69	0xbf98a079	-1.1923972
70	0xbec9d973	-0.39423713
71	0x3eef5564	0.46744835
72	0xbf419858	-0.75623083
73	0xbd6beac4	-0.057596937
74	0x3e83daca	0.2575286
75	0xbdb739f3	-0.089466
76	0x3e26c308	0.16285336
77	0xbe94e723	-0.29082593
78	0xbd98f9b3	-0.07469501
79	0xbf0b96c9	-0.54526955
80	0xbe5dafa6	-0.21649036
81	0xbde2f87d	-0.11082552
82	0xbf504d35	-0.8136781
83	0xbedc50b2	-0.43030316
84	0x3dd872fa	0.10568805
85	0x3e61b2ab	0.22040813
86	0x3dd0ff97	0.10205
87	0xbef7395c	-0.4828595
88	0x3dc4b06b	0.096039616
89	0x3cabb1b1	0.020958753
90	0xbf241060	-0.64087486
91	0x3f24632b	0.6421382
92	0xbea12f10	-0.31481218
93	0xbee9f72b	-0.45696387
94	0xbde11ab4	-0.10991421
95	0x3da91f0e	0.08257876
96	0xbd6cebe9	-0.05784217
97	0x3f2ac98a	0.66713774
98	0x3db77f23	0.08959796
99	0x3e86c7a4	0.2632419
100	0xbf82435c	-1.0176806
101	0x3f46a46c	0.7759464
102	0xbf8d85e1	-1.1056482
103	0xbe98e7c7	-0.29864332
104	0xbf19eb90	-0.60125065
105	0xbf610e7c	-0.87912726
106	0x3f12541a	0.5715958
107	0x3ec2c4b5	0.380407
108	0x3e8e2184	0.27759945
109	0x3f2d1274	0.6760628
110	0x3f0f6914	0.5601971
111	0x3f438cd5	0.7638677
112	0xbfe77dfd	-1.8085324
113	0xbe24c3f5	-0.16090377
114	0xbf0d2564	-0.5513518
115	0xbfb2d123	-1.3970073
116	0x3d8d5bc4	0.069022685
117	0xbed9df7e	-0.42553324
118	0xbf023289	-0.5085836
119	0xbf2635fe	-0.64926136
120	0x3e6406e4	0.22268254
121	0x3f2b3977	0.6688456
122	0xbf5d56eb	-0.8646075
123	0xbf737741	-0.9510384
124	0xbf2cc459	-0.674871
125	0x3f590000	0.84765625
126	0xbfbd2df6	-1.4779651
127	0xbe991619	-0.29899672
128	0x3f6420ff	0.8911285
129	0xbfb94eb8	-1.4477148
130	0x3ed2ef1a	0.41198045
131	0x3ffd03cf	1.9766787
132	0xbe8052ea	-0.25063258
133	0x3faf4c8a	1.3695233
134	0xbce0ab43	-0.027425414
135	0xbfb7ee61	-1.4369622
136	0x3e8b490d	0.2720417
137	0xbe26451a	-0.16237298
138	0xbedf7fa1	-0.4365206
139	0x3ef5978e	0.4796719
140	0x3f3d86b2	0.74033654
141	0x3fe5d157	1.795451
142	0xbfe837ba	-1.8142006
143	0x3f8b9403	1.0904545
144	0x3f4b0678	0.79306746
145	0xbf75eeb2	-0.96067345
146	0xbd8b30c8	-0.06796414
147	0xbf286ebb	-0.6579396
148	0x3fbf6457	1.4952496
149	0xbf6b05a4	-0.9180548
150	0xbe921906	-0.28534716
151	0x3e3a1190	0.18170762
152	0xbf9b8ee3	-1.215298
153	0x3ee10c2c	0.439546
154	0xbf85c39d	-1.0450321
155	0xbf6b403c	-0.9189489
156	0x3fb62397	1.4229611
157	0xbe1ffa29	-0.15622772
158	0x3f5d6c30	0.86493206
159	0x3fad92f8	1.3560476
160	0x3fdae9f8	1.7102652
161	0x402a94af	2.665325
162	0xc0096153	-2.1465652
163	0xbe42ac43	-0.19011025
164	0xbf08977d	-0.5335615
165	0xbfd87a32	-1.6912291
166	0x3f3e9e46	0.74460256
167	0xbf60b076	-0.8776926
168	0xbf2f768d	-0.6854027
169	0xbf61bb2e	-0.8817624
170	0x3f15b199	0.5847412
171	0x3ef3376f	0.4750323
172	0xbfbad474	-1.4596086
173	0xbf6e94fb	-0.93196076
174	0xc0120016	-2.2812552
175	0x3f0d2fb1	0.55150896
176	0xbfd01c5a	-1.6258652
177	0xbf1e713d	-0.6189154
178	0x3f92d42a	1.1470997
179	0xbfa8b2cd	-1.3179566
180	0xbec3262b	-0.38115057
181	0x3ff5f7ad	1.921621
182	0x3dc51f92	0.09625162
183	0x3f682fea	0.9069811
184	0xbe68909d	-0.22711416
185	0xbf96ce80	-1.1781769
186	0x3f5fec3f	0.8746986
187	0xbd1be39f	-0.038058873
188	0xbf88380d	-1.0642105
189	0x3edb5fea	0.42846614
190	0x3f9a9bcc	1.2078795
191	0x3fe370de	1.7768819
192	0xbfef1b86	-1.8680274
193	0x3fcb828b	1.5899214
194	0x3f984ff8	1.1899405
195	0xbfb6fb49	-1.4295436
196	0xbdd97d26	-0.10619573
197	0x3d17c05f	0.037048694
198	0x3fd517d4	1.6647897
199	0xbce04cad	-0.027380312
200	0xbd42386e	-0.047417097
201	0xbed12624	-0.4084941
202	0x3da9d0e4	0.08291796
203	0xbf1ed402	-0.6204225
204	0xbd8176bf	-0.06321477
205	0xbd0a119d	-0.033708204
206	0xba9da07b	-0.0012025976
207	0x3cc76a23	0.024342602
208	0x3e2b9f88	0.16760075
209	0x3ec9c016	0.39404362
210	0xbe8f0df6	-0.2794034
211	0xbe8a9e5d	-0.27073947
212	0xbf195437	-0.59894127
213	0x3c99d2ec	0.018777333
214	0xbf53dd92	-0.82759964
215	0xbeb7e319	-0.3591545
216	0xbdaeff8f	-0.08544838
217	0xbf46bd0e	-0.77632225
218	0x3d8800c8	0.06640774
219	0x3e993afa	0.29927808
220	0xbf24a915	-0.643205
221	0x3f90b581	1.1305391
222	0x3e789697	0.24276195
223	0xbf82e5ab	-1.0226339
224	0x3ee18e92	0.44054085
225	0x3f21ce86	0.63205755
226	0xbe7d3f92	-0.24731281
227	0x3e30e272	0.17273882
228	0xbe0a1de4	-0.13487965
229	0xbf0ae306	-0.5425266
230	0x3f174ac3	0.5909845
231	0xbd3c8aae	-0.046030693
232	0xbf9e04f6	-1.2345264
233	0x3e4d3a55	0.20041783
234	0xbf47949c	-0.77961135
235	0xbeb8051a	-0.35941392
236	0xbd771742	-0.060324915
237	0xbede2b61	-0.4339247
238	0x3e0cdf27	0.13757001
239	0x3f0618fd	0.5238188
240	0xbedcda0e	-0.43135113
241	0x3f51de4b	0.8197982
242	0xbf4fea7a	-0.8121716
243	0xbf0022f9	-0.50053364
244	0xbe1f3b7d	-0.15550037
245	0xbeb61138	-0.35560012
246	0xbd0d7e48	-0.03454426
247	0x3e631a85	0.22178085
248	0x3e50cbc6	0.20390233
249	0x3e2f2c14	0.17106658
250	0xbf0db47e	-0.55353534
251	0x3e871b12	0.2638784
252	0xbea5d745	-0.323908
253	0xbe6eb693	-0.23311834
254	0xbec7a8f7	-0.38996097
255	0x3e8e4a0e	0.27790874

lstm.weight_hh_l1 f4 [200, 50]
0	0x3e8cce40	0.27501106
1	0xbf16de36	-0.58932817
2	0x3ee8bcb5	0.45456472
3	0x3e2a4850	0.16629148
4	0x3dc90fe7	0.09817486
5	0xbe1b3e95	-0.15160592
6	0x3fb60af7	1.4222096
7	0xbe0e5019	-0.13897742
8	0xbe8beec4	-0.273306
9	0xbded7522	-0.11594607
10	0x3d59cddd	0.053174842
11	0xbe275b9d	-0.16343541
12	0x3fb6e1ac	1.428762
13	0xbdcf2c65	-0.101158895
14	0xbe708f1b	-0.2349209
15	0xbca63404	-0.020288475
16	0x3e8f8b52	0.2803598
17	0x3f03d93b	0.5150334
18	0xbf10d170	-0.56569576
19	0xbd44aa8f	-0.04801422
20	0x3f44df1a	0.76902926
21	0x3f074252	0.5283557
22	0xbf8b107f	-1.0864409
23	0x3ddd1685	0.10795311
24	0x3d3ab133	0.045579147
25	0x3d300930	0.042977512
26	0xbea71af0	-0.3263774
27	0xbe34ea16	-0.17667422
28	0x3e6ed8cd	0.2332489
29	0x3f600123	0.87501734
30	0x3f6aef43	0.91771334
31	0xbf978188	-1.1836405
32	0x3e24f944	0.16110712
33	0xbd992608	-0.07477957
34	0xbed43e19	-0.41453627
35	0xbe1f2691	-0.15542056
36	0xbedc5950	-0.4303689
37	0xbbe15f5c	-0.006877823
38	0xbee4f931	-0.44721368
39	0x3f143733	0.5789673
40	0x3e0041ff	0.12525176
41	0xbe2048a8	-0.15652716
42	0xbf56d048	-0.8391156
43	0xbd0b132b	-0.033953827
44	0x3dfea5f7	0.12433999
45	0xbeacd3fa	-0.33755475
46	0x3f321ac1	0.69572073
47	0x3f1a6556	0.60310876
48	0xbe546675	-0.2074221
49	0xbe5aae11	-0.21355464
50	0xbf2cc194	-0.67482877
51	0xbf563354	-0.8367207
52	0x3f16a038	0.58838224
53	0xbe74bd4f	-0.2390034
54	0x3e98b7e5	0.298278
55	0x3f5ec83e	0.87024295
56	0xbe2a3c98	-0.16624677
57	0xbf644058	-0.8916068
58	0xbe9fa644	-0.31181538
59	0x3f0b2ac1	0.5436211
60	0x3f917659	1.1364242
61	0x3e752a45	0.23941906
62	0x3ecb8bab	0.39754996
63	0xbf96eb6b	-1.1790594
64	0xbeebf30d	-0.4608387
65	0xbf499531	-0.78743273
66	0xbe908f99	-0.28234556
67	0x3eba4e13	0.3638769
68	0xbea2606b	-0.31714186
69	0xbe060b79	-0.13090314
70	0xbd9a382f	-0.075302474
71	0xbd940b4d	-0.07228718
72	0xbf122b18	-0.57097006
73	0x3f691e3f	0.91061777
74	0xbf96eb60	-1.1790581
75	0x3e860f67	0.26183626
76	0xbd991796	-0.07475202
77	0xbed2f442	-0.4120198
78	0x3f185e30	0.5951872
79	0x3fa0fd8a	1.2577374
80	0x3faa6756	1.3312786
81	0xbe036c3b	-0.12834255
82	0xbedad0d8	-0.4273746
83	0xbe93c3ab	-0.2886022
84	0x3f59fccf	0.8515138
85	0xbf8b91d6	-1.0903881
86	0x3e5f8828	0.21829283
87	0xbef29d08	-0.4738543
88	0xbe213dff	-0.15746306
89	0x3fcd9e22	1.6063883
90	0xbe9385b1	-0.28812936
91	0xbe02a37b	-0.12757675
92	0xbf2a43a1	-0.66509444
93	0x3fb2e710	1.3976765
94	0x3df1e5d1	0.11811412
95	0x3f0c6ad1	0.5485049
96	0x3f633f20	0.88768196
97	0x3e9eaffd	0.30993643
98	0x3f79e5cd	0.97616273
99	0x3f55c405	0.8350223
100	0x3f3580a4	0.70899415
101	0x3e17fa56	0.1484159
102	0x3f1731c4	0.5906031
103	0x3f121f37	0.5707888
104	0x3e3f4c2e	0.18681404
105	0xbf62e2f3	-0.8862755
106	0xbdb8320a	-0.08993919
107	0xbf1d8b71	-0.61540896
108	0xbee84803	-0.4536744
109	0xbee364f7	-0.44412968
110	0xbe74f591	-0.23921801
111	0xbd66f518	-0.056386083
112	0xbf281735	-0.6566041
113	0xbca207c8	-0.019779101
114	0x3f2e9718	0.681993
115	0xbd83a0da	-0.064271644
116	0xbedf3d38	-0.43601394
117	0x3e31a944	0.17349726
118	0x3f1d6da4	0.61495423
119	0x3e79f28c	0.2440893
120	0x3e8b0b81	0.27157214
121	0xbeec7afa	-0.46187574
122	0xbf421fa4	-0.7582953
123	0xbdfadecf	-0.122495286
124	0xbf835978	-1.0261679
125	0x3f23c320	0.6396961
126	0xbef00b99	-0.46883848
127	0x3e482973	0.19547062
128	0xbed8b158	-0.42322803
129	0x3ecd895a	0.40143853
130	0x3e174094	0.14770728
131	0xbfa8a8d6	-1.3176525
132	0x3f1ac9a9	0.6046396
133	0xbf9af92b	-1.210729
134	0x3d98fa9d	0.07469676
135	0x3f0fb510	0.56135654
136	0xbe77da91	-0.2420447
137	0xbed01b9a	-0.40646058
138	0x3e3e6e9f	0.18596886
139	0x3ee1dc46	0.44113368
140	0x3e95c55e	0.29252142
141	0xbf39fc72	-0.72650826
142	0x3ea4e078	0.32202506
143	0x3eab5876	0.33465928
144	0x3edff4c9	0.43741444
145	0xbf878f3f	-1.059059
146	0xbf5876ca	-0.8455626
147	0xbf3361ad	-0.70070916
148	0x3ec7c3be	0.39016527
149	0x3f7e7e08	0.9941106
150	0x3ce095c5	0.027415166
151	0x3e0137ef	0.12618993
152	0x3ebf1a18	0.37324595
153	0x3e458f5f	0.19292973
154	0x3f1019d0	0.56289387
155	0xbe94eab6	-0.2908532
156	0xbdb769dc	-0.08955738
157	0x3ec9d273	0.39418373
158	0xbd7054fd	-0.0586748
159	0x3efcb95c	0.49360168
160	0x3c69eb56	0.0142773
161	0xbee6bae7	-0.4506447
162	0x3f53a23f	0.8266944
163	0xbedb32f3	-0.4281231
164	0xbeab4f95	-0.33459154
165	0xbebcabc4	-0.36849797
166	0xbe69290b	-0.22769563
167	0x3e2add96	0.16686091
168	0xbe6ac239	-0.22925653
169	0x3e273800	0.16329956
170	0x3e6758d3	0.22592478
171	0xbd9e7ab1	-0.07738245
172	0xbecf773f	-0.40520665
173	0xbe4528be	-0.19253823
174	0xbe820e50	-0.25401545
175	0x3df1671f	0.11787247
176	0xbdd2b0cc	-0.102876276
177	0xbe710e30	-0.23540568
178	0x3ecea87e	0.40362924
179	0xbe9a9b89	-0.3019679
180	0x3ef1f7bb	0.47259316
181	0xbf0c4cae	-0.54804504
182	0x3ecbe359	0.3982189
183	0xbeb5d363	-0.35512838
184	0x3eab9cf7	0.33518192
185	0x3ed7d51d	0.4215478
186	0x3de84166	0.11340599
187	0x3e47ac35	0.19499286
188	0xbe82ba30	-0.25532675
189	0x3edddce4	0.4333259
190	0x3e8ad996	0.2711913
191	0x3eb2683c	0.3484515
192	0xbf79397b	-0.97353333
193	0x3f460270	0.7734747
194	0x3d8dd60e	0.06925593
195	0xbf8ee7c3	-1.1164478
196	0x3efc10ba	0.4923151
197	0x3e517cc8	0.20457757
198	0xbe9c47f8	-0.30523658
199	0x3dd2bb7f	0.10289668
200	0x3efe3729	0.4965146
201	0xbe0d3f48	-0.13793671
202	0x3e07cf06	0.13262567
203	0x3f118862	0.5684873
204	0x3ec350a9	0.38147476
205	0x3e84ce0e	0.25938457
206	0xbeaf0051	-0.3417993
207	0xbf4a704a	-0.7907759
208	0xbf00c8b9	-0.5030628
209	0xbe3fb2b5	-0.18720515
210	0x3f2392c5	0.6389583
211	0x3f6695ad	0.9007214
212	0x3f09d5c2	0.53841794
213	0xbef99d14	-0.48752654
214	0xbe76137a	-0.24030867
215	0xbc9fa723	-0.019488877
216	0xbec38b4d	-0.38192216
217	0xbefaab16	-0.48958653
218	0xbe481b69	-0.19541706
219	0x3e869957	0.26288864
220	0x3f3ce184	0.7378161
221	0xbf994e1e	-1.1976964
222	0xbf7c0011	-0.984376
223	0x3f1aa269	0.6040407
224	0xbdce9bac	-0.10088286
225	0x3e89ba7a	0.26900083
226	0xbea156c7	-0.31511518
227	0x3f54d69d	0.83139974
228	0x3d9bc0ee	0.07605158
229	0xbd493337	-0.049121108
230	0x3f6320a8	0.88721704
231	0xbeb4d93d	-0.3532199
232	0x3e9ce9a0	0.30646992
233	0xbf265846	-0.64978445
234	0x3f1b5563	0.60677165
235	0xbed1ee17	-0.4100196
236	0x3ea08f00	0.313591
237	0xbf2f0252	-0.68362916
238	0xbec7ebac	-0.3904699
239	0x3f6ecda5	0.9328254
240	0x3e1e4b3b	0.15458386
241	0x3f5ec48b	0.8701865
242	0xbf68aa8a	-0.9088522
243	0x3e93ca22	0.28865153
244	0xbe23f0e8	-0.16009867
245	0xbdab88ea	-0.08375724
246	0x3e16fd2c	0.14745015
247	0xbeb074f0	-0.34464216
248	0xbd39e0ce	-0.045380406
249	0x3ec80d09	0.39072445
250	0xbe3951a2	-0.18097547
251	0x3f9e8d1f	1.2386817
252	0xbf09b873	-0.5379707
253	0x3dc98f62	0.09841801
254	0x3f0ac02e	0.5419949
255	0xbf5c3622	-0.860201

lstm.bias_ih_l1 f4 [200]
0	0xbec1742a	-0.3778394
1	0x3e6defa7	0.23235951
2	0xbf39153c	-0.72298026
3	0xbf1b4b05	-0.60661346
4	0xbea4b064	-0.32165825
5	0xbf40fdf4	-0.753875
6	0xbf43e37b	-0.7651898
7	0xbf301d37	-0.6879458
8	0xbf627d36	-0.88472307
9	0xbea76dce	-0.32700962
10	0xbec8813e	-0.39161104
11	0xbe584ad9	-0.21122302
12	0x3dd23bbb	0.10265299
13	0xbf1922e7	-0.5981888
14	0x3e80a399	0.25124815
15	0xbe840a8a	-0.2578929
16	0xbeba67b2	-0.36407238
17	0xbf833b31	-1.0252439
18	0xbef86edc	-0.4852208
19	0xbea92afe	-0.33040613
20	0xbd054bc3	-0.032542955
21	0xbeada26b	-0.33912978
22	0xbf3c0a6b	-0.73453397
23	0xbf0fc6c4	-0.5616267
24	0xbe83cb08	-0.25740838
25	0xbe81cab1	-0.25349954
26	0xbef07417	-0.4696357
27	0xbe4b29cb	-0.19840162
28	0xbf469fc5	-0.7758754
29	0xbf1fee9e	-0.62473476
30	0xbe6957ce	-0.22787401
31	0xbe8c53a2	-0.27407557
32	0xbefa6b33	-0.48909912
33	0xbe8319c2	-0.2560559
34	0xbe3d13eb	-0.1846463
35	0xbedcd0e4	-0.4312812
36	0xbf8b0ab7	-1.0862645
37	0xbe0b79d1	-0.13620688
38	0xbf09862c	-0.53720355
39	0xbec941a1	-0.39307883
40	0xbf0175f0	-0.50570583
41	0xbe9efcff	-0.31052396
42	0xbeff4931	-0.49860528
43	0xbf6cc0bc	-0.9248159
44	0xbf4f2e97	-0.80930465
45	0xbf12cb14	-0.5734112
46	0xbf1784e1	-0.5918713
47	0xbcb2205b	-0.021743944
48	0xbf8a7e01	-1.0819703
49	0xbeaab441	-0.33340648
50	0xbf35face	-0.7108582
51	0xbf29b565	-0.6629241
52	0xbf05cd51	-0.5226641
53	0xbf871c68	-1.0555544
54	0xbedb7640	-0.42863655
55	0x3f452821	0.77014357
56	0xbf882878	-1.063735
57	0xbe9ed33e	-0.3102054
58	0xbe8320f7	-0.25611088
59	0xbfeda541	-1.8566056
60	0xbe8b9ffe	-0.27270502
61	0x3e6ff8e0	0.23434782
62	0x3f8c6477	1.096816
63	0xbfb24617	-1.392764
64	0xbfb583da	-1.4180863
65	0xbf54ae1d	-0.83078176
66	0x3e0fc66c	0.14040536
67	0xbfdee367	-1.7413148
68	0xbf08052f	-0.5313291
69	0xbf8c6e58	-1.0971174
70	0xbf1fbae8	-0.6239457
71	0xbef300e1	-0.47461608
72	0xbf6cce9e	-0.9250277
73	0xbf56135c	-0.8362329
74	0xbe857370	-0.26064634
75	0xbf1a40eb	-0.60255307
76	0xbead8423	-0.33889875
77	0xbe7a94bc	-0.244708
78	0xbf52aa38	-0.82290983
79	0xbf77a18e	-0.9673089
80	0xbfaf6514	-1.3702722
81	0xbf8d22e6	-1.1026275
82	0xbf98bc43	-1.1932453
83	0xbf5641f6	-0.836944
84	0xbf3abbb9	-0.7294269
85	0x3c93d634	0.018046476
86	0xbf5b94f8	-0.85774183
87	0xbf57d37a	-0.8430706
88	0xbf4b8888	-0.79505205
89	0xbfb3f13f	-1.4057997
90	0xbf52a611	-0.8228465
91	0xbf91762b	-1.1364187
92	0xbf9a4755	-1.2053019
93	0xbed27c08	-0.41110253
94	0xbf5d07a3	-0.8633978
95	0xbeea6de5	-0.45786968
96	0xbef7b5ce	-0.48380893
97	0xbfa04dfb	-1.2523798
98	0xbe94526a	-0.28969127
99	0xbf2ff661	-0.6873532
100	0x3c4f0cc8	0.012637325
101	0xbe174030	-0.1477058
102	0xbe4622bf	-0.19349192
103	0x3d5c788e	0.053825907
104	0x3dda79f3	0.10667791
105	0x3e9acb62	0.30233294
106	0xbeb63594	-0.35587752
107	0x3eb97dcb	0.36228785
108	0xbd0a9383	-0.033832084
109	0x3d8dacd4	0.0691773
110	0x3e92702f	0.28601214
111	0xbc556d56	-0.013026556
112	0x3ea460e8	0.32105184
113	0x3c5aab0a	0.013346443
114	0xbe502caf	-0.20329545
115	0xbe704567	-0.23463975
116	0xbd9c1644	-0.07621434
117	0x3c943ea8	0.018096283
118	0xbdab0145	-0.083498515
119	0x3de8a11b	0.113588534
120	0xbde4423d	-0.111454464
121	0x3dca45fd	0.098766305
122	0x3c4e437b	0.012589331
123	0x3e5d2d6f	0.21599363
124	0x3e1f0c91	0.15532137
125	0x3d182f19	0.03715429
126	0x3b9a971c	0.0047177207
127	0xbe3c8e8b	-0.18413751
128	0xbc1a2dbe	-0.00941032
129	0x3e229f35	0.15881045
130	0x3ed91f23	0.42406568
131	0x3cb7fa19	0.022458123
132	0x3ea64d67	0.32480928
133	0xbd91b53c	-0.07114646
134	0x3d8f2ae6	0.06990604
135	0xbd94ae32	-0.072597876
136	0x3df2b553	0.11850991
137	0x3d8c4bd4	0.068504006
138	0xbe50fa5b	-0.20408003
139	0x3e40d0b3	0.18829612
140	0xbd4a2082	-0.049347408
141	0xbdb9be9e	-0.090695605
142	0xbea7eee5	-0.3279945
143	0x3ec3c51d	0.38236323
144	0xbde1aa62	-0.11018826
145	0x3e9bdf5c	0.30443847
146	0xbd3db530	-0.046315372
147	0xbd92fb12	-0.07176794
148	0x3eb0f6ab	0.34563193
149	0xbeb0e859	-0.34552267
150	0xbe9d703d	-0.30749694
151	0xbd9d6dd6	-0.07686965
152	0xbf2d6c8c	-0.67743754
153	0xbf0559b0	-0.5208998
154	0xbf02db41	-0.51115805
155	0xbf23da08	-0.64004564
156	0xbf08dc3f	-0.5346107
157	0xbef892ee	-0.48549598
158	0xbf2a976f	-0.6663732
159	0x3e3ae503	0.18251424
160	0xbe9eef89	-0.31042126
161	0xbd4f10bd	-0.050553072
162	0xbe0d6ca1	-0.1381097
163	0xbed215c1	-0.41032222
164	0x3e0394c9	0.12849726
165	0xbe9c5f34	-0.30541384
166	0xbe8bd792	-0.27312905
167	0xbf7b8a18	-0.9825759
168	0xbed2876b	-0.4111894
169	0xbeb87787	-0.36028692
170	0xbe883089	-0.2659953
171	0xbe8b1be6	-0.27169722
172	0xbf1cf6ed	-0.6131428
173	0xbe1bd020	-0.15216112
174	0xbee1ce43	-0.44102678
175	0x3ea424cc	0.32059324
176	0xbeb007ce	-0.34380955
177	0xbd87728e	-0.066136464
178	0xbf3721d9	-0.7153602
179	0xbe6cb369	-0.23115315
180	0xbdf95386	-0.12174134
181	0xbe8ef89a	-0.27924043
182	0xbea22b50	-0.3167367
183	0xbed851ab	-0.42249808
184	0x3ea79561	0.32731155
185	0xbf15af81	-0.5847092
186	0xbf1424ab	-0.5786845
187	0xbe4a2c98	-0.19743574
188	0xbf22be91	-0.6357203
189	0xbe89a6ee	-0.2688517
190	0xbf04d137	-0.51881737
191	0xbec09c91	-0.3761945
192	0xbe5cdda5	-0.21568926
193	0xbf92f8e7	-1.1482209
194	0xbf6ecae9	-0.93278366
195	0xbef3b020	-0.4759531
196	0xbea95e16	-0.33079594
197	0xbe8c6046	-0.274172
198	0xbf366b51	-0.712575
199	0xbf18817a	-0.59572566

lstm.bias_hh_l1 f4 [200]
0	0xbec453b7	-0.3834512
1	0x3e63bd1f	0.22240113
2	0xbef9e1c8	-0.4880507
3	0xbf180aa5	-0.5939124
4	0xbea35da1	-0.3190737
5	0xbf28a37f	-0.65874475
6	0xbf5ccad2	-0.8624698
7	0xbf4d31e9	-0.8015428
8	0xbf466ab2	-0.77506554
9	0xbe72b344	-0.23701197
10	0xbe940a38	-0.28914046
11	0xbe9aa0c6	-0.30200785
12	0x3e8ae82e	0.27130264
13	0xbf14ae52	-0.5807849
14	0x3c85cf40	0.016334176
15	0xbeb0bbc1	-0.34518245
16	0xbdd53682	-0.10410787
17	0xbf9babd9	-1.2161819
18	0xbf121168	-0.5705781
19	0xbebe65bf	-0.37187
20	0x3ccb881d	0.024845177
21	0xbf013092	-0.5046474
22	0xbf54d301	-0.83134466
23	0xbf258074	-0.6464913
24	0xbe7dffeb	-0.24804656
25	0xbe1afe68	-0.15136111
26	0xbf180fc8	-0.5939908
27	0xbe557a0a	-0.20847335
28	0xbf125bd1	-0.5717135
29	0xbf2e8d94	-0.6818478
30	0xbe34f669	-0.17672123
31	0xbea1cf17	-0.3160331
32	0xbefde3af	-0.4958777
33	0xbeb04c38	-0.3443315
34	0xbd904181	-0.07043744
35	0xbe9fa300	-0.31179047
36	0xbf800979	-1.0002891
37	0xbdcd07ff	-0.10011291
38	0xbf0f8f7c	-0.56078315
39	0xbe937703	-0.28801736
40	0xbf3a17ae	-0.7269238
41	0xbee0e871	-0.4392734
42	0xbec4dd55	-0.38450113
43	0xbf702139	-0.93800694
44	0xbf3ac297	-0.7295317
45	0xbf12d118	-0.573503
46	0xbf1a12e2	-0.6018506
47	0x3decb0dc	0.11557171
48	0xbf84779c	-1.0349002
49	0xbe73f5f8	-0.23824298
50	0xbf524a15	-0.8214429
51	0xbf31d41a	-0.69464266
52	0xbecc3315	-0.39882722
53	0xbf5f0d66	-0.8712982
54	0xbedf304e	-0.4359154
55	0x3f4576ee	0.771346
56	0xbf71564a	-0.9427229
57	0xbe959798	-0.2921722
58	0xbea6c663	-0.32573232
59	0xbffa8017	-1.957034
60	0xbedcd4a5	-0.43130985
61	0x3eb2195b	0.3478497
62	0x3f8482f4	1.0352464
63	0xbfa570dc	-1.2925067
64	0xbf97081e	-1.1799352
65	0xbf40e812	-0.7535411
66	0xbcb32a79	-0.021870838
67	0xbfe613ee	-1.7974832
68	0xbf042f7f	-0.51634973
69	0xbf6aaddc	-0.9167154
70	0xbf0a812f	-0.5410337
71	0xbf0b23cc	-0.54351497
72	0xbf88eee8	-1.0697908
73	0xbf67c313	-0.90532035
74	0xbecd0ce9	-0.40048912
75	0xbf5c58d3	-0.86073035
76	0xbeae1b21	-0.34005073
77	0xbec62a71	-0.38704255
78	0xbf857c4a	-1.0428555
79	0xbf6c95af	-0.924159
80	0xbfb6cc4a	-1.4281094
81	0xbf68efef	-0.9099111
82	0xbf8fd781	-1.1237642
83	0xbf72cbd5	-0.94842273
84	0xbf3c7312	-0.73613083
85	0x3d75be0e	0.059995703
86	0xbf59e710	-0.851182
87	0xbf56655e	-0.83748424
88	0xbf4f19ff	-0.8089904
89	0xbfa1e74b	-1.264871
90	0xbf4a61d3	-0.7905552
91	0xbf977265	-1.1831785
92	0xbfaec314	-1.3653283
93	0xbe8dde28	-0.27708554
94	0xbf7f6f4a	-0.9977919
95	0xbe9a2a10	-0.30110216
96	0xbf278ef1	-0.65452486
97	0xbf898cd7	-1.0746106
98	0xbeca5302	-0.39516455
99	0xbf2f2e5f	-0.6843013
100	0xbc9d49b2	-0.01920018
101	0xbd0078ea	-0.031365313
102	0xbe631fa7	-0.22180043
103	0xbd6c34d1	-0.057667557
104	0x3dec0bbf	0.11525678
105	0x3e968abd	0.29402724
106	0xbea6c06f	-0.3256869
107	0x3e2efba1	0.17088176
108	0xbde31e73	-0.11089792
109	0x3dad9ddd	0.08477376
110	0x3e5783ce	0.21046373
111	0x3e32fe5b	0.17479841
112	0x3e804e50	0.25059748
113	0xbe18b098	-0.14911115
114	0xbe0bf9de	-0.13669536
115	0xbb62a91f	-0.0034585667
116	0xbe83ae3b	-0.25718865
117	0xbdd8cc47	-0.10585838
118	0xbdbbd499	-0.09171409
119	0x3dfb45d6	0.122691795
120	0xbe1f4097	-0.15551983
121	0xbcb09367	-0.021554662
122	0x3e466cf0	0.19377494
123	0x3e576d8a	0.2103788
124	0x3e508711	0.20364024
125	0xbe1e2d94	-0.15447074
126	0xbdf90012	-0.121582165
127	0xbd99241b	-0.0747759
128	0x3bcbd645	0.0062206113
129	0x3cb77e0c	0.022398971
130	0x3e8791a4	0.26478302
131	0xbdac7e78	-0.084225595
132	0x3e9e7af4	0.3095318
133	0x3c746143	0.014915767
134	0x3d116278	0.035494298
135	0xbe370b58	-0.17875421
136	0x3d56d612	0.052450247
137	0x3e16b89f	0.14718865
138	0xbe8ca5a6	-0.2747013
139	0x3dfb20c4	0.12262109
140	0x3bd2e9b6	0.006436552
141	0x3d8159ad	0.063159324
142	0xbea71202	-0.32630926
143	0x3ea9109c	0.33020484
144	0xbdb21ea4	-0.086972505
145	0x3f0616d7	0.523786
146	0x3db8b9b0	0.09019792
147	0xbde7516e	-0.11294828
148	0x3eac04db	0.33597454
149	0xbe7d9c6b	-0.247667
150	0xbe3c53c2	-0.18391326
151	0xbb524b23	-0.0032088242
152	0xbf331814	-0.69958615
153	0xbf2305e8	-0.6368089
154	0xbf0086c0	-0.5020561
155	0xbf1e1e2a	-0.61764777
156	0xbf3bc7e3	-0.7335188
157	0xbeeb54d3	-0.45963153
158	0xbf4c9f07	-0.79930156
159	0x3e745160	0.23859167
160	0xbeedccd3	-0.4644533
161	0x3cbe319a	0.023217011
162	0xbe536a76	-0.2064608
163	0xbea46769	-0.32110146
164	0x3ea3f550	0.32023096
165	0xbe9aa7fb	-0.30206284
166	0xbe6de241	-0.2323084
167	0xbf5e96ab	-0.8694865
168	0xbeadfe51	-0.3398309
169	0xbeffd17f	-0.4996452
170	0xbe312560	-0.17299414
171	0xbd03f1c9	-0.032213006
172	0xbf3085ed	-0.68954355
173	0xbeb80fd6	-0.35949582
174	0xbeb148f3	-0.34625968
175	0x3e3ab26b	0.18232124
176	0xbed158dc	-0.40888107
177	0xbdda4666	-0.10657959
178	0xbf58fc5b	-0.84760064
179	0xbea2746c	-0.31729448
180	0xbeb20038	-0.34765792
181	0xbddcf833	-0.10789528
182	0xbe9bf51b	-0.30460438
183	0xbe67fe58	-0.22655618
184	0x3e9f19e2	0.31074435
185	0xbf0e14bd	-0.55500394
186	0xbf35c053	-0.7099659
187	0xbde0f831	-0.10984839
188	0xbf1898c0	-0.5960808
189	0xbd8c00a6	-0.06836061
190	0xbf1ed62b	-0.62045544
191	0xbe7520ed	-0.23938341
192	0xbe540bb7	-0.20707594
193	0xbfaa0b8c	-1.3284774
194	0xbf7ccf7f	-0.98754114
195	0xbed3aea9	-0.41344193
196	0xbe465213	-0.19367246
197	0xbd028135	-0.031861503
198	0xbf1edd0a	-0.6205603
199	0xbed35cdc	-0.41281784
